houseprice/code/model_state_noReLU_Stdall_dp0.1.pth (torch, 28604 bytes, 5 tensors)

hidden1.0.weight f4 [100, 12]
-0.06198606 0.038655233 0.16681375 0.21218348 -0.16247874 -0.050169464 -0.11470473 -0.2592724
0.11400222 0.16416608 -0.10796301 -0.2400046 0.29628515 -0.28540534 -0.2183002 0.0045243935
0.03908522 -0.06021904 -0.007449296 -0.1219478 -0.23769316 0.044597827 0.124232635 0.27017912
0.27763432 -0.004652053 0.110731 -0.28637654 0.058165144 0.27642396 -0.10827867 0.15447004
0.007718071 0.07990984 0.009945867 0.006120803 0.16333288 -0.096681714 -0.26298887 -0.17197995
0.21367484 0.15420857 0.003738911 0.14850633 -0.24610579 -0.062152855 0.031243943 -0.16119647
-0.10467235 -0.2569262 -0.13443998 0.16926287 -0.18392394 0.07995521 0.10534181 0.016916374
0.0870482 0.26060203 -0.25111723 0.31012744 0.13512392 0.23933132 0.13650133 0.06095812
-0.11190585 0.19811462 -0.07661475 0.21082872 -0.30316633 0.05588455 -0.019438816 -0.12150948
0.21184534 -0.06964552 -0.22566053 0.20853978 -0.08613535 -0.012392178 0.10639091 -0.2795604
-0.069756866 -0.28604412 0.03738365 -0.13890666 0.027086431 -0.15402727 -0.22661543 -0.008022687
-0.08319101 0.04361065 -0.06747321 0.041393593 -0.09068725 0.010574128 -0.18013553 -0.0012112639
-0.11527908 0.06518812 -0.11320463 0.021882337 -0.049750134 0.03947204 0.25542206 -0.33862248
0.066055104 -0.0019494849 -0.032881953 -0.2329157 -0.1802107 -0.0857652 -0.22931768 -0.019317836
-0.03278608 0.174843 -0.029703887 0.20358115 -0.016497977 -0.24106455 -0.27257785 -0.24957483
-0.31305537 0.23651905 0.13614069 -0.19381446 0.30203444 0.117271654 0.067461275 -0.008145042
-0.048528746 -0.29601514 -0.07563058 -0.08604874 0.13284637 0.26102778 0.27061227 -0.1484115
0.16145673 0.26990938 -0.2913451 -0.093637004 -0.04495676 0.3382637 0.27592632 0.10245735
-0.22841749 -0.028728848 0.17879446 -0.11303767 0.13332334 0.26292753 0.082316846 0.24775736
-0.060106672 0.23793453 0.18702877 -0.18455914 -0.21056344 -0.061565995 -0.032610092 0.107428506
-0.21428365 0.20631838 -0.15064014 0.045780875 -0.2979433 0.047861934 -0.2787937 -0.2857594
-0.15243743 -0.12343076 -0.049281802 0.014539845 0.24318519 -0.05887465 -0.053831913 -0.28381792
0.10880928 0.10826313 0.03497514 -0.25770694 -0.049310163 0.15294258 0.3604742 -0.13390718
0.056545343 0.06847121 0.019886555 -0.1583951 -0.22445905 0.13958274 0.012947962 -0.04508969
0.2221095 -0.09776507 0.01915546 0.21420059 0.13876072 -0.15396483 0.107164666 -0.20634003
-0.09509669 -0.18898295 0.11627824 0.102803595 0.18440509 0.14440577 -0.02302098 0.052729268
-0.17145024 -0.04735566 -0.097703286 -0.202968 0.27127305 0.06166328 0.10072948 -0.08600941
-0.13845645 0.077485956 0.024374703 0.23163633 -0.3151249 -0.075257845 -0.27549943 0.27247542
0.17627986 0.117282234 0.25778922 0.1689594 -0.20878837 -0.054874275 0.11782821 -0.13568412
-0.1543831 -0.23032956 -0.17513904 0.17296875 0.19099079 -0.024446037 0.17010677 0.10410856
-0.043132324 0.112395726 -0.16100499 0.15737778 -0.18985984 0.24503644 0.1723088 -0.023046635
-0.010639752 -0.19863106 -0.10572028 -0.09727834 -0.1267338 0.17721564 -0.14200567 -0.1574011
00000000: 18e5 7dbd f354 1e3d 39d1 2a3e a046 593e
00000010: d460 26be 7f7e 4dbd 50ea eabd 5abf 84be
00000020: ff79 e93d 271b 283e b61b ddbd c4c3 75be
00000030: b0b2 973e a620 92be 168a 5fbe 5d41 943b
00000040: d317 203d 3da8 76bd 3919 f4bb c5bf f9bd
00000050: d665 73be 36ac 363d ae6d fe3d eb54 8a3e
00000060: 1626 8e3e 4070 98bb efc6 e23d f29f 92be
00000070: 933e 6e3d 7187 8d3e 35c1 ddbd 652d 1e3e
00000080: dfe7 fc3b c5a7 a33d fdf3 223c 0491 c83b
00000090: bc40 273e 1001 c6bd 7aa6 86be 831b 30be
000000a0: 94cd 5a3e dae8 1d3e 8408 753b 0b12 183e
000000b0: 2803 7cbe fe93 7ebd 4cf3 ff3c b010 25be
000000c0: 755e d6bd d58b 83be a2aa 09be 3f53 2d3e
000000d0: 8f56 3cbe 8fbf a33d 72bd d73d 3594 8a3c
000000e0: 5446 b23d a16d 853e 7092 80be 06c9 9e3e
000000f0: ed5d 0a3e 4513 753e 01c7 0b3e 39af 793d
00000100: e52e e5bd 8fde 4a3e 32e8 9cbd 7ce3 573e
00000110: 9e38 9bbe 33e7 643d 273e 9fbc f6d9 f8bd
00000120: fced 583e 4fa2 8ebd 8e13 67be 748b 553e
00000130: bb67 b0bd 9008 4bbc 7ae3 d93d 8a22 8fbe
00000140: b0dc 8ebd 6074 92be 991f 193d 8c3d 0ebe
00000150: 5de4 dd3c 53b9 1dbe e00d 68be 9771 03bc
00000160: 0c60 aabd 15a1 323d 652f 8abd 548c 293d
00000170: 3dba b9bd 1b3f 2d3c 7375 38be 46c3 9eba
00000180: 7017 ecbd 5981 853d d4d7 e7bd 9642 b33c
00000190: ccc6 4bbd 6fad 213d aec6 823e ed5f adbe
000001a0: e647 873d dc85 ffba 3aaf 06bd 7481 6ebe
000001b0: 2789 38be aaa5 afbd 41d2 6abe 7040 9ebc
000001c0: b24a 06bd 0b0a 333e 9155 f3bc 9477 503e
000001d0: c426 87bc a0d9 76be 538f 8bbe 8b90 7fbe
000001e0: cb48 a0be 0d32 723e 7768 0b3e 4c77 46be
000001f0: 42a4 9a3e 1f2c f03d 2329 8a3d c872 05bc
00000200: 14c6 46bd 4c8f 97be 35e4 9abd 523a b0bd
00000210: e108 083e 6fa5 853e b18d 8a3e 2ff9 17be
00000220: ea54 253e 9031 8a3e 2f2b 95be c2c4 bfbd
00000230: 9424 38bd e630 ad3e 3746 8d3e 29d5 d13d
00000240: 46e6 69be c358 ebbc e515 373e 4b80 e7bd
00000250: ea85 083e 709e 863e bc95 a83d 1bb4 7d3e
00000260: 6a32 76bd 1ca5 733e 7884 3f3e 12fd 3cbe
00000270: f19d 57be a02c 7cbd 2992 05bd 7a03 dc3d
00000280: 2c6d 5bbe 2045 533e 6941 1abe ba84 3b3d
00000290: 068c 98be e00a 443d 0cbe 8ebe 0e4f 92be
000002a0: 8f18 1cbe 44c9 fcbd b7db 49bd 8838 6e3c
000002b0: 8a05 793e 8c26 71bd da7e 5cbd 9550 91be
000002c0: 66d7 de3d 0fb9 dd3d 1842 0f3d 2af2 83be
000002d0: 74f9 49bd fb9c 1c3e 1390 b83e f71e 09be
000002e0: 179c 673d a23a 8c3d 21e9 a23c 5332 22be
000002f0: 98d8 65be c7ee 0e3e b023 543c f7af 38bd
00000300: ac70 633e 0e39 c8bd e9eb 9c3c 6657 5b3e
00000310: 4a17 0e3e f5a8 1dbe 2679 db3d cd4a 53be
00000320: 0ec2 c2bd bf84 41be 4923 ee3d b18a d23d
00000330: b0d4 3c3e 1bdf 133e 7f96 bcbc a5fa 573d
00000340: a790 2fbe 02f8 41bd a918 c8bd d8d6 4fbe
00000350: 4de4 8a3e a392 7c3d 424b ce3d b425 b0bd
00000360: 87c7 0dbe f5b0 9e3d 75ad c73c 1332 6d3e
00000370: 0d58 a1be c920 9abd 430e 8dbe e681 8b3e
00000380: b582 343e ab31 f03d f3fc 833e b103 2d3e
00000390: 9ecc 55be d9c3 60bd eb4f f13d c7f0 0abe
000003a0: 9a16 1ebe 83db 6bbe a657 33be b81e 313e
000003b0: 1793 433e 0e43 c8bc 7830 2e3e de36 d53d
000003c0: 85ab 30bd bb2f e63d 7ede 24be a427 213e
000003d0: 9e6a 42be d5ea 7a3e b871 303e 4ccc bcbc
000003e0: 5b52 2ebc f165 4bbe e083 d8bd de39 c7bd
000003f0: 81c6 01be 0478 353e ef69 11be c12d 21be

hidden1.0.bias f4 [100]
-0.06373358 0.015982792 -0.036421217 -0.2442214 0.04398163 -0.21770711 0.07047186 0.25934148
-0.10396872 0.061653614 -0.25363258 -0.22084104 -0.19876045 -0.3037021 0.10844066 -0.1550627
0.18185107 0.13534044 0.057739675 0.077296145 -0.25591743 0.2910253 0.16497554 -0.09737048
0.09518654 0.17837943 -0.19610862 -0.14009006 0.05601852 -0.12713082 -0.19943853 -0.12801325
0.04953347 0.12594885 0.05532281 0.21945532 0.2854686 -0.07265325 0.32101178 -0.04020578
-0.14649674 0.27747658 -0.23310517 -0.087844014 0.3067163 -0.107956395 -0.103945196 0.2065191
0.19236213 0.014219404 -0.22840382 0.02661765 -0.29336116 0.3020184 -0.11730858 -0.27319774
0.10550427 0.13450393 0.062238432 -0.025125826 0.010949745 0.24696614 -0.17577164 0.20931517
-0.030278761 -0.074423335 0.26378798 -0.2062339 0.050665982 0.02922159 -0.07462788 0.1117812
0.3259058 -0.16818623 0.16066802 -0.068818145 0.004545166 -0.2604938 -0.13079636 -0.15853584
0.055302154 0.1631166 -0.014478269 0.08599078 0.06501051 -0.025685612 0.17904873 -0.20042601
0.27537185 0.06195507 -0.1493014 -0.3072811 0.2729885 -0.15187547 0.16474132 0.1551143
0.09035237 0.27245495 0.012423436 -0.042690177
00000000: c086 82bd 58ee 823c 6a2e 15bd 2d15 7abe
00000010: 1526 343d 9dee 5ebe 8d53 903d 68c8 843e
00000020: 8ded d4bd 8088 7c3d 21dc 81be 2724 62be
00000030: dc87 4bbe d77e 9bbe 2316 de3d c2c8 1ebe
00000040: 2b37 3a3e af96 0a3e 7080 6c3d 714d 9e3d
00000050: 9c07 83be 4501 953e 59ef 283e 2d6a c7bd
00000060: 29f1 c23d 19a9 363e b3d0 48be c573 0fbe
00000070: ad73 653d 952e 02be 9d39 4cbe e815 03be
00000080: 9ce3 4a3d bcf8 003e 2c9a 623d e5b8 603e
00000090: f128 923e 3acb 94bd a85b a43e d1ae 24bd
000000a0: 3e03 16be 6911 8e3e 1fb3 6ebe 90e7 b3bd
000000b0: eb09 9d3e 3e18 ddbd 38e1 d4bd be79 533e
000000c0: 94fa 443e 81f8 683c b1e2 69be 420d da3c
000000d0: 6f33 96be 28a2 9a3e 7b3f f0bd 93e0 8bbe
000000e0: 9f12 d83d 66bb 093e baed 7e3d add4 cdbc
000000f0: 8f66 333c b1e4 7c3e 7bfd 33be b756 563e
00000100: 2a0b f8bc 436b 98bd 380f 873e fb2e 53be
00000110: 2287 4f3d 1e62 ef3c 80d6 98bd 8bed e43d
00000120: 20dd a63e 0339 2cbe 2886 243e 87f0 8cbd
00000130: 9eef 943b 715f 85be 7bef 05be 3857 22be
00000140: 8384 623d 0a08 273e 4336 6dbc ef1b b03d
00000150: 3b24 853d a26a d2bc 8d58 373e 7a3c 4dbe
00000160: 8afd 8c3e 99c4 7d3d 77e2 18be f353 9dbe
00000170: 26c5 8b3e 3e85 1bbe f3b1 283e 48d6 1e3e
00000180: aa0a b93d 377f 8b3e ab8b 4b3c e5db 2ebd

hidden2.0.weight f4 [50, 100]
-0.031121975 -0.030034726 0.088010974 0.01470622 0.04906306 0.09312992 0.01439116 0.03702255
0.05397995 0.02581017 0.067144856 -0.057673343 -0.051920637 0.09496572 -0.0711867 0.09021169
0.034377337 -0.011679139 -0.05711123 -0.0734084 -0.02181807 0.014827392 0.08507685 0.042845
0.08784349 0.08071296 0.076380685 0.03988761 0.040354636 0.10360032 -0.0578361 0.10163546
0.123652935 -0.004366134 -0.0033899152 0.08265562 0.10463154 -0.025821911 0.07993821 0.016043521
0.020324774 -0.11171543 -0.012460062 0.042587966 -0.0006101474 0.036917906 0.032545503 0.12202928
0.10224482 0.057958364 0.010224862 0.06101486 -0.06307332 0.06877339 0.028766014 0.0915131
-0.08062912 0.002421822 -0.12281902 0.012811096 -0.12141768 -0.055724002 0.0009986941 0.0065409066
0.04290126 -0.07231104 -0.096620165 0.17424327 -0.036820758 -0.14701137 -0.08118937 0.014549738
-0.05157802 0.07716798 0.016792022 -0.075560085 -0.022446731 0.019793812 -0.15461455 -0.03163054
-0.047987763 -0.038688224 0.067099355 -0.03241181 0.08972012 -0.06790596 -0.06175832 0.002090794
-0.0946828 -0.07541203 0.15324391 -0.07266164 0.09666103 -0.041449692 -0.05014858 -0.020750398
0.021584228 -0.11371695 -0.02732849 -0.11883268 0.12702945 -0.07606281 -0.07838461 0.13784339
-0.073987275 -0.015017291 -0.058292378 0.09287202 0.0043515563 0.07435496 0.05466728 -0.024554545
-0.08356199 -0.020959323 0.0069363574 0.10129016 -0.061168812 0.11903312 -0.118854284 -0.18348986
-0.030588359 0.08305161 -0.038879924 0.09704645 0.023779826 0.08126607 -0.009037741 -0.07248465
-0.006528552 0.008871576 0.004774273 -0.015196574 0.07034411 -0.05704234 0.0030094744 -0.018647455
0.11829467 0.06726023 0.017390326 -0.04972309 -0.07540484 -0.04951782 0.0066928035 0.06948693
-0.08953759 0.07550054 0.056887455 0.03201193 0.024637144 0.024894783 -0.069308296 0.001209574
-0.13680801 -0.018471532 0.058071505 0.07893512 -0.0382877 -0.053275213 -0.101094194 0.072611354
-0.2568711 0.012650306 -0.050481766 0.033538565 -0.055589188 -0.0006379322 -0.073260255 0.14647225
-0.09480638 -0.12549123 0.005737273 0.067024425 -0.07666638 0.07939213 -0.086157896 -0.06961498
0.121198036 -0.06393062 -0.13110444 -0.030943591 0.019783022 -0.024982557 0.038415723 -0.06552325
-0.068995655 -0.04454454 0.0073892134 -0.13965634 0.05853419 0.08463896 0.16366392 0.13152595
0.09454147 0.024629736 0.0018438102 0.076656036 0.11450587 -0.0016364491 -0.031140357 -0.1585522
0.048978418 -0.07009678 0.055536993 0.11155684 -0.05863554 0.01610511 0.103699885 -0.06619718
0.026143897 -0.07861355 0.10262483 -0.018066747 -0.08138145 0.033950847 0.09327297 0.10674242
0.012456057 -0.07776059 -0.0023990967 0.057072945 0.092537515 0.07021209 -0.062263653 0.034902297
-0.0019231206 -0.060034722 0.02526021 0.02317996 0.06112869 0.025157133 -0.07511159 0.10971299
-0.015255501 -0.094566286 0.038056966 0.041992262 0.033924922 0.061509375 0.05630093 0.01883178
0.037340716 -0.15027721 0.043129556 -0.102595046 0.05097533 0.103985906 0.13711455 0.028913522
0.09221017 0.0036855421 -0.022010485 -0.04645333 0.064422555 0.10918075 -0.07789334 -0.030866798
00000000: 83f3 febc 630b f6bc 193f b43d 5bf2 703c
00000010: 59f6 483d e6ba be3d e6c8 6b3c f5a4 173d
00000020: 141a 5d3d da6f d33c 3e83 893d e23a 6cbd
00000030: bcaa 54bd 637d c23d 55ca 91bd e8c0 b83d
00000040: 40cf 0c3d dc59 3fbc 77ed 69bd 2557 96bd
00000050: cfbb b2bc 97ee 723c c63c ae3d 3d7e 2f3d
00000060: 4ae7 b33d d64c a53d 7a6d 9c3d 3161 233d
00000070: e74a 253d 682c d43d 8ce5 6cbd 4126 d03d
00000080: c03d fd3d c911 8fbb 5729 5ebb 5a47 a93d
00000090: 1049 d63d 7988 d3bc a5b6 a33d b46d 833c
000000a0: 2480 a63c 0fcb e4bd 4a25 4cbc b870 2e3d
000000b0: 4df2 1fba 3b37 173d 6f4e 053d 7dea f93d
000000c0: bb65 d13d c065 6d3d 2e86 273c b8ea 793d
000000d0: 962c 81bd 10d9 8c3d b4a6 eb3c 386b bb3d
000000e0: e120 a5bd 6eb7 1e3b 8a88 fbbd a2e5 513c
000000f0: d5a9 f8bd da3e 64bd 9de6 823a 1a55 d63b
00000100: 3bb9 2f3d cf17 94bd cbe0 c5bd d46c 323e
00000110: 5dd1 16bd 268a 16be 9d46 a6bd 0662 6e3c
00000120: 7943 53bd 3f0a 9e3d 6c8f 893c 3fbf 9abd
00000130: 35e2 b7bc a226 a23c 4753 1ebe 068f 01bd
00000140: d18e 44bd 8b77 1ebd 636b 893d 3fc2 04bd
00000150: 2fbf b73d 4812 8bbd 4bf6 7cbd b405 093b
00000160: 0ee9 c1bd 9f71 9abd f9eb 1c3e a0cf 94bd
00000170: 38f6 c53d 27c7 29bd 9968 4dbd bdfc a9bc
00000180: 68d1 b03c 6fe4 e8bd ffdf dfbc 8c5e f3bd
00000190: 0214 023e d2c6 9bbd 1c88 a0bd d126 0d3e
000001a0: a486 97bd 150b 76bc fdc3 6ebd b033 be3d
000001b0: 8097 8e3b 6a47 983d ccea 5f3d 9d26 c9bc
000001c0: 8c22 abbd e3b2 abbc 624a e33b 3771 cf3d
000001d0: 268c 7abd a3c7 f33d e069 f3bd c4e4 3bbe
000001e0: 7094 fabc f616 aa3d 8e40 1fbd 4ac0 c63d
000001f0: e9cd c23c d36e a63d 0913 14bc d572 94bd
00000200: 77ed d5bb 165a 113c 8171 9c3b 0dfb 78bc
00000210: 9310 903d 3ba5 69bd 9a3a 453b 8cc2 98bc
00000220: 7a44 f23d bbbf 893d 2876 8e3c 70aa 4bbd
00000230: da6d 9abd 33d3 4abd 4e4f db3b 2a4f 8e3d
00000240: 7c5f b7bd 07a0 9a3d d202 693d f11e 033d
00000250: d6d3 c93c 25f0 cb3c 82f1 8dbd 928a 9e3a
00000260: 6617 0cbe 9c51 97bc 63dc 6d3d bca8 a13d
00000270: 90d3 1cbd 1c37 5abd 790a cfbd 43b5 943d
00000280: 9c84 83be 3b43 4f3c f8c5 4ebd bc5f 093d
00000290: 7db1 63bd e83a 27ba 7909 96bd d2fc 153e
000002a0: d929 c2bd c680 00be bcff bb3b 1a44 893d
000002b0: 4303 9dbd 5798 a23d 8d73 b0bd 4c92 8ebd
000002c0: ad36 f83d 0fee 82bd 3e40 06be 6a7d fdbc
000002d0: 0110 a23c 38a8 ccbc ce59 1d3d 0e31 86bd
000002e0: 984d 8dbd 5674 36bd 3721 f23b 1202 0fbe
000002f0: 8cc1 6f3d 3157 ad3d 8497 273e bdae 063e
00000300: f59e c13d 4dc4 c93c 01ac f13a d7fd 9c3d
00000310: 0e82 ea3d 1f7e d6ba 101a ffbc 825b 22be
00000320: 989d 483d e78e 8fbd c27a 633d ea77 e43d
00000330: d22b 70bd ddee 833c 9b60 d43d 6392 87bd
00000340: ba2b d63c 2400 a1bd f82c d23d b700 94bc
00000350: 51ab a6bd 0b10 0b3d e605 bf3d c59b da3d
00000360: 7d14 4c3c f240 9fbd 2a3a 1dbb 52c5 693d
00000370: 4f84 bd3d 5bcb 8f3d 2c08 7fbd b6f5 0e3d
00000380: 3811 fcba f8e6 75bd 80ee ce3c e6e3 bd3c
00000390: 1462 7a3d 5516 ce3c 1bd4 99bd 34b1 e03d
000003a0: 35f2 79bc f8ab c1bd 9fe1 1b3d 1400 2c3d
000003b0: dcf4 0a3d 41f1 7b3d ce9b 663d 1b45 9a3c
000003c0: 94f2 183d 45e2 19be 9ea8 303d 5a1d d2bd
000003d0: 82cb 503d 90f6 d43d c267 0c3e 0ddc ec3c
000003e0: b0d8 bc3d 2389 713b 554f b4bc d945 3ebd
000003f0: f9ef 833d 289a df3d 8b86 9fbd 5edc fcbc

hidden2.0.bias f4 [50]
-0.008351496 -0.083738305 0.0025972237 -0.064526655 -0.013889239 0.058074083 0.10532479 0.0072702984
-0.04900168 0.08343023 0.014552223 -0.10672912 0.031153124 -0.0032995061 0.10025756 -0.0320112
-0.0065001277 -0.028928244 0.058498323 0.010339814 -0.024738247 0.032212213 0.08250274 0.064148575
0.012296593 0.0023980273 0.11557069 -0.048567027 -0.0038976932 0.052165784 0.110345505 0.12576851
0.07166762 -0.019003484 0.04065912 0.034177978 0.01482112 -0.0711726 -0.07402626 0.013775499
-0.014590526 0.099999644 0.0075615263 0.08938651 0.10397999 0.05795346 -0.11665593 -0.06657539
-0.083548486 0.032865927
00000000: b7d4 08bc fd7e abbd 2f36 2a3b 8d26 84bd
00000010: b18f 63bc 17df 6d3d 86b4 d73d af3b ee3b
00000020: fcb5 48bd 78dd aa3d 726c 6e3c cc94 dabd
00000030: d634 ff3c 873c 58bb d653 cd3d 2d1e 03bd
00000040: 06ff d4bb edfa ecbc f09b 6f3d 5368 293c
00000050: dda7 cabc f4f0 033d 32f7 a83d 5460 833d
00000060: a677 493c 3928 1d3b 53b0 ec3d 38ee 46bd
00000070: 7170 7fbb caab 553d d3fc e13d 76c9 003e
00000080: 79c6 923d 32ad 9bbc 2d8a 263d 35fe 0b3d
00000090: 48d4 723c f1c2 91bd 149b 97bd a1b2 613c
000000a0: 1a0d 6fbc 9dcc cc3d aec6 f73b 4610 b73d
000000b0: 76f3 d43d 9b60 6d3d 4ee9 eebd ae58 88bd
000000c0: 781b abbd 6c9e 063d

predict.1.weight f4 [1, 50]
0.1504595 0.21008009 0.15501921 0.0912888 0.18911852 0.15523095 -0.06460858 0.13296863
-0.105620004 -0.09545936 -0.078604266 0.12277934 -0.11210195 -0.16088077 0.16661386 0.14092433
-0.09107592 -0.15465207 0.193022 0.13505341 0.118605465 0.09488184 0.082186185 0.049971037
0.14091323 0.075514585 -0.08215597 0.20188145 0.04595426 0.23683116 -0.09333285 -0.079472154
0.12800099 0.05966644 0.10810477 0.13635774 -0.044451896 0.12635791 0.094897375 0.14692546
0.18870641 -0.09474818 -0.14051792 0.073829375 -0.2824657 0.090407476 0.2085899 0.14385848
0.0028919245 0.057283334
00000000: 0e12 1a3e 3c1f 573e 5bbd 1e3e 9ff5 ba3d
00000010: 49a8 413e ddf4 1e3e 8151 84bd ee28 083e
00000020: 4d4f d8bd 3280 c3bd 46fb a0bd bc73 fb3d
00000030: b595 e5bd eebd 24be d39c 2a3e 784e 103e
00000040: 0386 babd 1d5d 1ebe 8fa7 453e 714b 0a3e
00000050: 6ce7 f23d 6951 c23d 3b51 a83d 6eae 4c3d
00000060: 8f4b 103e 64a7 9a3d 6441 a8bd 03ba 4e3e
00000070: 893a 3c3d de83 723e 4b25 bfbd 4cc2 a2bd
00000080: b112 033e cc64 743d 0966 dd3d 5da1 0b3e
00000090: 3113 36bd f863 013e 8e59 c23d a173 163e
000000a0: 413c 413e 550b c2bd eee3 0fbe db33 973d
000000b0: 589f 90be 8e27 b93d 9798 553e a34f 133e
000000c0: 7186 3d3b eea1 6a3d
