houseprice/result/model_state_noReLU_Stdall_dp0.3.pth (torch, 28728 bytes, 5 tensors)

hidden1.0.weight f4 [100, 12]
0.037487082 0.09218363 -0.15093203 0.27490067 0.108318426 -0.22755775 0.19761175 -0.2563283
0.023184348 0.2789847 -0.093112834 -0.29601958 0.09400978 -0.24240834 -0.24331176 0.26984257
-0.10360454 0.004375552 0.2735007 -0.11950742 -0.099115334 0.054947857 0.20862377 0.18371582
-0.15642674 0.175169 -0.18547322 -0.06135543 -0.025831392 -0.022559531 -0.28706414 0.13803813
0.17433007 -0.18554229 0.15101479 0.16639076 -0.1271091 0.18041764 -0.20279753 0.14043717
0.32033515 0.049866512 0.10559531 -0.2229084 -0.22324687 0.23380212 0.21511695 -0.00813265
-0.09906731 -0.25664982 0.28419355 -0.02288464 -0.26082918 0.14383419 0.08020474 0.02836733
-0.06642113 0.28501838 -0.046917308 0.042025268 -0.08814039 -0.06768629 -0.0626633 0.0075690164
0.1679944 0.2936387 -0.028612686 0.067881376 -0.05735446 0.18903904 -0.12498611 0.23150876
-0.13206814 -0.18180883 0.21383563 -0.17356259 -0.28324124 -0.0038623093 0.15521006 0.17716591
-0.1815153 0.09636705 0.246505 0.16745886 0.008525893 -0.17148654 0.08828235 -0.22108202
0.093796864 0.1438316 -0.105663784 -0.31013286 -0.044489738 -0.079498075 0.17038874 -0.037955362
-0.014598295 0.009594465 0.019373663 -0.100690044 0.11549186 0.124436945 0.14650097 -0.06530043
0.1784672 0.20319504 0.1252912 0.24828346 -0.12817544 0.21936363 -0.05727791 -0.03853985
-0.12069449 0.13485508 -0.2198906 0.033236414 -0.2282615 0.22392385 0.2270177 0.13162273
-0.2133292 -0.17673089 -0.23850548 0.063472405 0.057722937 0.21067674 0.079839125 -0.17423175
-0.18463235 0.0789168 -0.23129366 -0.012975274 -0.26486602 -0.18006499 -0.29269606 0.11983342
-0.13664447 0.15757608 -0.17298564 0.034555774 0.1878176 0.12288274 -0.2979471 0.073771305
-0.027700918 -0.2841998 0.27454478 0.16136807 -0.046512775 0.014837671 -0.15038085 -0.07668824
0.044637956 0.19975175 0.0061519826 0.088707544 0.070705965 -0.1019549 0.18810886 0.08036341
-0.22190751 -0.17896302 0.05644386 0.30997074 -0.07549115 -0.1782394 0.12810504 -0.10985841
-0.047050375 0.07019958 -0.0857534 0.14578491 0.17340136 0.26813105 0.20171662 0.16680661
0.087714314 0.21301498 0.12546937 -0.32034385 0.040317766 -0.06642997 0.29677376 -0.2384986
0.032781176 -0.01150478 0.0054467544 0.076291196 -0.044156235 0.041532326 0.24064319 0.10489991
0.20267312 0.23466413 -0.021113284 0.25671506 -0.26381233 0.14502402 -0.090086095 -0.10322129
-0.23521733 -0.32803044 0.044401295 -0.05775247 0.18175188 0.15618649 -0.26441497 0.19558875
-0.16154338 0.21387103 -0.16068733 0.0066608605 -0.12085056 -0.13515133 0.24964154 -0.066384695
0.04212077 0.12746575 0.13907391 0.028845398 0.019335575 -0.17025554 -0.23658724 -0.11330307
0.26103663 0.22024056 0.03196151 -0.03392759 -0.17501187 -0.14841175 0.20599829 0.2877666
-0.09572633 0.30515748 -0.26694 0.11584214 -0.20865294 0.20384623 0.040457107 -0.018891266
0.084054716 -0.084740445 0.20658498 0.026508918 0.16294909 0.23244336 0.0099892225 0.07655906
-0.07651303 0.132565 -0.04703116 0.33629367 0.2119959 0.19748193 -0.23615377 -0.18063025
00000000: 0e8c 193d c5ca bc3d ed8d 1abe c8bf 8c3e
00000010: 0dd6 dd3d e604 69be bc5a 4a3e 773d 83be
00000020: 1aed bd3c 15d7 8e3e f1b1 bebd e18f 97be
00000030: 3388 c03d e439 78be b826 79be ce28 8a3e
00000040: 9e2e d4bd ca60 8f3b 4908 8c3e 4ec0 f4bd
00000050: fbfc cabd 0111 613d 78a1 553e 0020 3c3e
00000060: 552e 20be 815f 333e b1ec 3dbe d54f 7bbd
00000070: 5b9c d3bc c4ce b8bc 12fa 92be de59 0d3e
00000080: 9583 323e ccfe 3dbe 9fa3 1a3e 5762 2a3e
00000090: e328 02be 67bf 383e 28aa 4fbe c3ce 0f3e
000000a0: f802 a43e d440 4c3d 5b42 d83d 1a42 64be
000000b0: d49a 64be d369 6f3e 9e47 5c3e ce3e 05bc
000000c0: cde3 cabd 9b67 83be d181 913e 9278 bbbc
000000d0: 678b 85be 4549 133e 6242 a43d 9a62 e83c
000000e0: cd07 88bd eeed 913e 5d2c 40bd b022 2c3d
000000f0: f382 b4bd 1c9f 8abd 9e55 80bd 8305 f83b
00000100: b906 2c3e d057 963e 2765 eabc 6405 8b3d
00000110: 83ec 6abd 7393 413e b8f8 ffbd a210 6d3e
00000120: df3c 07be 182c 3abe baf7 5a3e 64ba 31be
00000130: ff04 91be cc1e 7dbb 63ef 1e3e fb6a 353e
00000140: 26df 39be 175c c53d cf6b 7c3e 567a 2b3e
00000150: 30b0 0b3c 2b9a 2fbe 60cd b43d 5363 62be
00000160: 9218 c03d 9748 133e 4166 d8bd bcc9 9ebe
00000170: df3a 36bd e3cf a2bd 637a 2e3e 1577 1bbd
00000180: b02d 6fbc 1a32 1d3c 84b5 9e3c 9536 cebd
00000190: ff86 ec3d ccd8 fe3d 5a04 163e 3bbc 85bd
000001a0: 1bc0 363e 5c12 503e 564c 003e 053e 7e3e
000001b0: 6c40 03be dca0 603e 3e9c 6abd f6db 1dbd
000001c0: ac2e f7bd 7317 0a3e 002b 61be e822 083d
000001d0: 62bd 69be 4b4c 653e 5477 683e 1cc8 063e
000001e0: f872 5abe f1f8 34be c83a 74be d2fd 813d
000001f0: e36e 6c3d a5bb 573e b282 a33d cf69 32be
00000200: 4310 3dbe 229f a13d 3fd8 6cbe 3e96 54bc
00000210: 859c 87be f562 38be 42dc 95be 396b f53d
00000220: 87ec 0bbe a05b 213e 2623 31be 5b8a 0d3d
00000230: 4253 403e f2a9 fb3d 868c 98be 6915 973d
00000240: 09ed e2bc a382 91be 2291 8c3e ac3d 253e
00000250: 2e84 3ebd b419 733c 70fd 19be b90e 9dbd
00000260: 4ad6 363d b98b 4c3e 9296 c93b 4dac b53d
00000270: 4ace 903d bbcd d0bd 9c9f 403e 9295 a43d
00000280: b93b 63be 1542 37be ad31 673d 7cb4 9e3e
00000290: 1b9b 9abd 6484 36be f82d 033e 72fd e0bd
000002a0: e5b7 40bd ccc4 8f3d 7b9f afbd a448 153e
000002b0: 2090 313e 7948 893e cd8e 4e3e 5acf 2a3e
000002c0: 90a3 b33d 9920 5a3e 0b7b 003e 1c04 a4be
000002d0: 3e24 253d 700c 88bd bbf2 973e fa38 74be
000002e0: 8e45 063d 8b7e 3cbc b07a b23b 8f3e 9c3d
000002f0: 2bdd 34bd cd1d 2a3d 2b6b 763e c4d5 d63d
00000300: 8b89 4f3e cb4b 703e c4f5 acbc 2870 833e
00000310: 6912 87be 2d81 143e 0f7f b8bd af65 d3bd
00000320: d0dc 70be 9bf3 a7be 22de 353d db8d 6cbd
00000330: 2a1d 3a3e 5aef 1f3e 6661 87be 6b48 483e
00000340: a16b 25be 0201 5b3e 388b 24be 5943 da3b
00000350: 8080 f7bd 1c65 0abe 08a2 7f3e b3f4 87bd
00000360: d486 2c3d 6286 023e 6469 0e3e 2f4d ec3c
00000370: a465 9e3c 7857 2ebe ed43 72be 710b e8bd
00000380: 98a6 853e be86 613e 13ea 023d a8f7 0abd
00000390: 5036 33be 40f9 17be 37f1 523e 2556 933e
000003a0: 2b0c c4bd 9a3d 9c3e 5cac 88be a53e ed3d
000003b0: 1ea9 55be 11bd 503e 5ab6 253d dbc1 9abc
000003c0: e124 ac3d 668c adbd 038b 533e 3b29 d93c
000003d0: 20dc 263e a205 6e3e d6a9 233c ffca 9c3d
000003e0: ddb2 9cbd 1fbf 073e bfa3 40bd af2e ac3e
000003f0: 7415 593e b438 4a3e 4bd2 71be 23f7 38be

hidden1.0.bias f4 [100]
0.19118372 0.044037595 0.14379653 0.07350866 -0.20936888 0.2915982 0.29147455 -0.18447366
0.18742205 -0.27429172 0.2391386 0.12333305 -0.0075807106 0.11567285 0.034905367 -0.119943336
-0.27090183 0.2483321 0.258457 -0.011399081 -0.20390975 0.0862797 -0.15831976 -0.2590567
-0.0039057485 0.072729506 -0.07173674 0.22175154 -0.26673597 0.14756632 -0.1529996 -0.06659021
-0.11070085 -0.042521264 0.0016292573 -0.04378766 -0.111333355 0.33499336 0.2834094 -0.108158305
-0.13237163 -0.0361394 -0.13182086 -0.077322125 0.23917302 -0.05767708 0.22674984 0.041168362
-0.12201896 0.26970533 -0.0786726 -0.040273413 -0.07869983 -0.20816755 -0.20305781 -0.012677539
-0.1158055 0.10089026 0.058254253 0.24421959 -0.10685677 -0.2725921 -0.026996225 0.09521516
0.22347672 -0.16887058 0.27581328 -0.07137648 0.1287548 -0.046699222 -0.23503254 0.00051153236
-0.04287632 0.21517134 0.11864124 0.32737112 0.010921255 -0.149029 -0.15899573 0.020319644
-0.16013253 0.17789592 -0.09177721 0.09863505 -0.1371922 -0.11322185 0.15457714 0.26379701
0.23192473 -0.26467794 -0.16348189 0.067360505 0.028160242 0.10434233 -0.04283441 0.0024589328
-0.20866229 -0.0067995866 0.00328937 0.037619248
00000000: aac5 433e c460 343d 663f 133e b58b 963d
00000010: cc64 56be 5c4c 953e 273c 953e aae6 3cbe
00000020: 91eb 3f3e f76f 8cbe c0e0 743e 0a96 fc3d
00000030: 9c67 f8bb e3e5 ec3d eef8 0e3d daa4 f5bd
00000040: a5b3 8abe c54a 7e3e 7a54 843e 36c3 3abc
00000050: b8cd 50be 69b3 b03d 931e 22be 14a3 84be
00000060: 96f7 7fbb 35f3 943d b6ea 92bd d612 633e
00000070: 9e91 88be a01b 173e edab 1cbe 7360 88bd
00000080: 21b7 e2bd c72a 2ebd ce8c d53a b05a 33bd
00000090: be02 e4bd 4084 ab3e 091b 913e 1a82 ddbd
000000a0: 6e8c 07be e806 14bd 0cfc 06be 105b 9ebd
000000b0: c6e9 743e cd3e 6cbd 1c31 683e 28a0 283d
000000c0: 14e5 f9bd d116 8a3e 1a1f a1bd bcf5 24bd
000000d0: 602d a1bd e029 55be 63ee 4fbe 74b5 4fbc
000000e0: 6f2b edbd 8d9f ce3d 039c 6e3d b314 7a3e
000000f0: b9d7 dabd 3191 8bbe 3027 ddbc 2a00 c33d
00000100: 15d7 643e 69ec 2cbe 6637 8d3e d52d 92bd
00000110: 4cd8 033e af47 3fbd 5fac 70be 5b18 063a
00000120: 159f 2fbd e055 5c3e 2efa f23d 309d a73e
00000130: 10ef 323c 0f9b 18be c7cf 22be 6275 a63c
00000140: c8f9 23be 592a 363e b1f5 bbbd 2c01 ca3d
00000150: 1d7c 0cbe dbe0 e7bd 7849 1e3e 6710 873e
00000160: ad7d 6d3e de83 87be cc67 27be 4ef4 893d
00000170: 4fb0 e63c 6eb1 d53d 2273 2fbd 0c26 213b
00000180: 91ab 55be 11cf debb 7992 573b a416 1a3d

hidden2.0.weight f4 [50, 100]
-0.023442652 0.086738154 0.05084403 -0.09628836 -0.047698118 0.02158158 0.00048111725 -0.11072881
0.021566477 -0.050507575 0.012642963 -0.06266772 0.022005742 0.016783716 0.03372874 0.09252875
-0.044732925 0.028125573 0.07168051 -0.079932556 0.06353046 0.07505079 0.0026775275 -0.03918769
-0.046751134 -0.01962761 -0.04378246 -0.061885647 -0.03533595 0.014067335 0.058841888 -0.04146851
0.07131305 -0.10335577 0.05079006 -0.05679327 0.04551193 0.09711247 0.080971874 0.0834146
-0.11261945 0.07310935 -0.09139654 -0.017491603 0.0935737 -0.07110148 -0.10002863 -0.034157403
-0.03028911 0.0099080745 -0.06852893 -0.040256042 -0.0795222 -0.035062246 0.05813729 0.019122517
0.08748887 -0.0494236 0.0065128924 -0.10282486 -0.008880928 0.013095566 0.09405067 -0.044025455
0.013545933 -0.052774247 0.06244237 0.041269436 0.064401805 -0.08462676 0.054135595 0.10312636
-0.051231686 0.05048056 0.03024829 -0.08829805 0.13539307 -0.04139687 -0.08678774 0.09108361
-0.023865359 -0.047217097 -0.0336656 0.0595285 -0.06865842 0.078179605 0.0106020905 -0.019555835
-0.08108448 0.11526673 0.10077755 0.093978085 -0.042660035 -0.045990083 -0.027479488 -0.023890547
-0.11339511 0.01948607 0.051914133 -0.0059670624 -0.035377484 -0.101118624 -0.027538573 -0.011043484
0.015613197 -0.105573565 -0.00016449274 0.079267845 -0.006099892 0.09541407 -0.03436534 -0.021467928
0.05060025 -0.035817698 0.13366969 -0.11314145 0.03596874 0.09504267 0.031298496 0.10336862
-0.033743676 -0.010354935 0.03380637 -0.14950527 -0.010715514 0.012877997 -0.04635347 -0.043097302
0.01561438 0.018833777 -0.010291188 -0.09471195 -0.051347155 0.05757972 0.009140701 -0.065462716
0.134593 -0.0092824735 0.10081544 -0.06208507 0.12047174 -0.06656761 0.06898452 0.09083776
0.06616982 -0.029672405 0.016521886 0.10663553 0.10785961 -0.0913314 -0.17302625 -0.0027201716
0.012885071 0.14293307 0.058458675 0.018263534 -0.016121766 -0.10832557 -0.1236928 -0.011400594
0.103270896 -0.08407409 -0.10361227 0.020609086 -0.012910901 -0.02135297 -0.06763762 0.02273672
0.05056227 0.07058842 0.05054619 -0.094936736 0.120805085 0.03734311 0.08989675 0.00455187
-0.03418529 -0.031571914 0.13098557 0.071641445 -0.049985215 0.12521575 -0.070589684 -0.05142282
0.020076685 0.07752513 0.06998132 -0.0069538555 0.077092744 -0.008378533 -0.13305475 -0.0016114032
-0.09545685 0.0327151 -0.014806751 -0.0067694243 -0.003835078 0.013082872 0.088313684 0.003648025
0.12553668 0.031193865 0.02997609 -0.071753025 0.0647445 -0.12292105 -0.07957508 -0.029466782
-0.10108505 0.101308495 0.035758503 -0.026023567 0.061569285 0.0066171573 0.080072135 -0.09095041
0.04680444 -0.040816363 -0.03268526 -0.028285807 -0.1712713 -0.023616653 -0.018948333 0.035621107
-0.12375954 -0.038257767 0.049010944 -0.027367923 0.07175013 0.06525816 0.07415486 -0.07064213
0.005327483 0.07243499 -0.05651615 0.047193762 0.11741321 -0.10376919 -0.044095777 -0.056349907
0.13131784 -0.044140402 0.0554232 0.01454803 -0.002707685 0.039263763 -0.0693497 0.13802779
0.080487266 0.015710875 -0.012245707 0.06807668 0.045868386 -0.0077034333 0.0936511 0.10009689
00000000: ce0a c0bc c6a3 b13d d441 503d d532 c5bd
00000010: 1a5f 43bd dbcb b03c 773e fc39 c9c5 e2bd
00000020: 2eac b03c 08e1 4ebd 6e24 4f3c ef57 80bd
00000030: 6345 b43c 017e 893c 2627 0a3d b77f bd3d
00000040: df39 37bd 9a67 e63c 3bcd 923d aeb3 a3bd
00000050: 421c 823d 3bb4 993d 7579 2f3b 4583 20bd
00000060: 1e7e 3fbd 15ca a0bc 3d55 33bd ce7b 7dbd
00000070: 6ebc 10bd ae7a 663c 3104 713d e2da 29bd
00000080: 940c 923d 31ac d3bd 3d09 503d 0fa0 68bd
00000090: b86a 3a3d e7e2 c63d 95d4 a53d 46d5 aa3d
000000a0: 07a5 e6bd 5bba 953d 1c2e bbbd 8d4a 8fbc
000000b0: 91a3 bf3d a79d 91bd cfdb ccbd a2e8 0bbd
000000c0: de20 f8bc 7a55 223c e558 8cbd 85e3 24bd
000000d0: 89dc a2bd 6e9d 0fbd 5e21 6e3d d3a6 9c3c
000000e0: 5d2d b33d 6770 4abd 1a6a d53b d795 d2bd
000000f0: 5081 11bc c98e 563c a39d c03d 0954 34bd
00000100: c3ef 5d3c cf29 58bd 92c3 7f3d 240a 293d
00000110: 18e5 833d cb50 adbd 49bd 5d3d ea33 d33d
00000120: 51d8 51bd b4c4 4e3d 43cb f73c 9cd5 b4bd
00000130: 7ba4 0a3e c48f 29bd c5bd b1bd 0b8a ba3d
00000140: 4981 c3bc b766 41bd f1e4 09bd 28d4 733d
00000150: c99c 8cbd a11c a03d 64b4 2d3c 8f33 a0bc
00000160: 9f0f a6bd f710 ec3d 7664 ce3d 9577 c03d
00000170: 4abc 2ebd 1960 3cbd aa1c e1bc 1cb6 c3bc
00000180: b23b e8bd 40a1 9f3c eaa3 543d 5987 c3bb
00000190: fbe7 10bd 4817 cfbd 9398 e1bc bbef 34bc
000001a0: 7fce 7f3c f436 d8bd af7b 2cb9 2e57 a23d
000001b0: 9ae1 c7bb 7468 c33d acc2 0cbd 82dd afbc
000001c0: 3542 4f3d 94b5 12bd b5e0 083e b4b6 e7bd
000001d0: f553 133d bba5 c23d da32 003d edb2 d33d
000001e0: cf36 0abd bfa7 29bc 8c78 0a3d e917 19be
000001f0: 2090 2fbc 3cfe 523c 23dd 3dbd cc86 30bd
00000200: 75d3 7f3c 4b49 9a3c 5f9c 28bc 57f8 c1bd
00000210: 6551 52bd b6d8 6b3d e1c2 153c 5111 86bd
00000220: bfd2 093e 8415 18bc 5378 ce3d ea4c 7ebd
00000230: e3b9 f63d 9954 88bd c247 8d3d 2609 ba3d
00000240: 0b84 873d 8b13 f3bc e858 873c bb63 da3d
00000250: 80e5 dc3d f50b bbbd cb2d 31be e844 32bb
00000260: e81b 533c 0c5d 123e 5d72 6f3d 689d 953c
00000270: cb11 84bc ccd9 ddbd a752 fdbd 8fc9 3abc
00000280: b17f d33d 092f acbd ab32 d4bd 63d4 a83c
00000290: 3e88 53bc 6cec aebc 9885 8abd 5c42 ba3c
000002a0: 621a 4f3d a990 903d 8609 4f3d 316e c2bd
000002b0: a868 f73d 17f5 183d ca1b b83d da27 953b
000002c0: e005 0cbd 8d51 01bd 1521 063e c0b8 923d
000002d0: 4cbd 4cbd 8f38 003e 5391 90bd bca0 52bd
000002e0: dc77 a43c 7fc5 9e3d 5e52 8f3d 2bdd e3bb
000002f0: cde2 9d3d 1d46 09bc 813f 08be b835 d3ba
00000300: e27e c3bd 4500 063d 0498 72bc 0cd2 ddbb
00000310: ef55 7bbb 8b59 563c cedd b43d b413 6f3b
00000320: b08c 003e 478a ff3c 6b90 f53c 40f3 92bd
00000330: c498 843d 08be fbbd 42f8 a2bd 5264 f1bc
00000340: ae05 cfbd d47a cf3d 8277 123d 602f d5bc
00000350: 1330 7c3d bdd4 d83b dcfc a33d 3544 babd
00000360: 03b6 3f3d 0f2f 27bd fbe0 05bd a3b7 e7bc
00000370: be61 2fbe b677 c1bc 8939 9bbc 70e7 113d
00000380: a475 fdbd 2db4 1cbd b3bf 483d b232 e0bc
00000390: bbf1 923d 12a6 853d 81de 973d d2ac 90bd
000003a0: 2b92 ae3b cc58 943d 7a7d 67bd 3f4e 413d
000003b0: 5676 f03d f184 d4bd c69d 34bd 29cf 66bd
000003c0: 2f78 063e 91cc 34bd 7003 633d dc5a 6e3c
000003d0: 6b73 31bb 0ad3 203d 3707 8ebd 2857 0d3e
000003e0: 82d6 a43d 18b4 803c 38a2 48bc c96b 8b3d
000003f0: 7de0 3b3d 156d fcbb 26cc bf3d 99ff cc3d

hidden2.0.bias f4 [50]
-0.08995567 -0.05585633 -0.039571073 0.053961553 0.042510223 -0.013832374 -0.067012936 -0.09260386
0.008790724 -0.01791134 0.03563582 -0.08563194 -0.0842255 0.0604599 0.07718529 0.038087185
-0.09744974 -0.026672374 -0.06257357 0.08641596 -0.049502775 -0.01902271 -0.057305254 0.08541928
-0.009488103 -0.006413654 0.0899672 0.081269056 -0.09307795 -0.09293602 0.0700771 -0.048212033
-0.08860261 0.0024223893 -0.087604836 0.020825565 -0.0428791 0.06162584 0.082612455 -0.032348655
0.033031605 -0.011846935 0.03826402 0.037088916 -0.042918857 -0.084292546 0.013003428 -0.06562639
-0.01966883 -0.021924218
00000000: ae3a b8bd 9bc9 64bd 4715 22bd ca06 5d3d
00000010: 331f 2e3d 2ea1 62bc 143e 89bd 18a7 bdbd
00000020: f806 103c cdba 92bc def6 113d cc5f afbd
00000030: 6b7e acbd cda4 773d 5213 9e3d 4f01 1c3d
00000040: bb93 c7bd 0680 dabc 9226 80bd dafa b03d
00000050: 6cc3 4abd 84d5 9bbc eab8 6abd 4ef0 ae3d
00000060: fd73 1bbc a129 d2bb b940 b83d 6470 a63d
00000070: a79f bebd 3d55 bebd 9584 8f3d fb79 45bd
00000080: 4975 b5bd f3c0 1e3b 2a6a b3bd 609a aa3c
00000090: ffa1 2fbd 606b 7c3d b830 a93d 0680 04bd
000000a0: 264c 073d a619 42bc bcba 1c3d 8cea 173d
000000b0: afcb 2fbd 92a1 acbd 540c 553c 2167 86bd
000000c0: 8720 a1bc 6b9a b3bc

predict.1.weight f4 [1, 50]
-0.12096507 0.13433547 0.13840309 -0.15110822 0.16853416 0.105913036 -0.12512024 -0.11548465
0.20377016 0.14667557 -0.16777563 -0.18081631 0.1478445 -0.13446286 -0.07768848 -0.06622774
0.055021044 0.14654982 0.14705084 0.086556375 0.12348265 -0.08477511 -0.08406637 -0.08368264
-0.15438443 -0.12190187 0.23697866 0.10543767 -0.010139216 0.16227129 -0.10000327 0.16015822
0.10815801 0.091816306 0.09587582 0.14519621 0.19140302 -0.12747316 0.08127959 -0.20639998
0.103276245 0.1381515 0.15698975 -0.07257168 0.14075328 0.05196593 0.072325 -0.12450914
-0.09905986 -0.09556226
00000000: 89bc f7bd 3d8f 093e 8ab9 0d3e 1dbc 1abe
00000010: 3894 2c3e efe8 d83d 851f 00be 3783 ecbd
00000020: 20a9 503e 1f32 163e 60cd 2bbe e927 39be
00000030: 8c64 173e a2b0 09be 231b 9fbd 69a2 87bd
00000040: bf5d 613d 2811 163e 7f94 163e 7844 b13d
00000050: 79e4 fc3d 939e adbd fd2a acbd ce61 abbd
00000060: f416 1ebe b0a7 f9bd 89aa 723e b5ef d73d
00000070: f41e 26bc 722a 263e 84ce ccbd 8400 243e
00000080: f281 dd3d 300a bc3d 8b5a c43d 51ae 143e
00000090: 27ff 433e 5388 02be ea75 a63d 845a 53be
000000a0: 7f82 d33d 9677 0d3e ecc1 203e 76a0 94bd
000000b0: a121 103e 3ada 543d 211f 943d a6fe febd
000000c0: e5df cabd 25b6 c3bd
