result/LSTM_covidprection_state_dict_otherfeature.pth (torch, 54603 bytes, 13 tensors)

lstm.weight_ih_l0 f4 [120, 7]
0.088697955 0.097115844 -0.056679785 0.1456982 -0.05689717 -0.01885192 -0.09536253 0.09252551
0.14258666 -0.14208002 0.15645641 0.022480194 0.14839914 0.013356619 0.11993979 -0.07673088
0.141168 0.032438856 -0.03421087 0.06791419 -0.08956755 -0.07057061 -0.101260945 0.07344845
-0.16137028 -0.075677685 -0.03337569 -0.107995965 0.04897144 -0.21691266 0.17018151 -0.16805798
0.08120152 -0.012356403 -0.08281359 0.11759985 0.047349196 0.10110508 0.0021661236 -0.041068774
0.086764455 -0.050464243 0.00481255 0.12286104 0.042671125 -0.11515339 0.07507956 0.074192606
0.08055422 -0.12962201 -0.21066615 -0.075375855 -0.15752642 0.15334767 0.1020765 0.03382126
0.04090966 -0.041666258 0.16338669 -0.12311482 0.0052185794 -0.12918118 0.042782925 -0.04172891
0.038729385 -0.0350807 0.13694695 -0.12683919 -0.109700136 -0.14093256 0.17039806 0.0592948
0.15154698 -0.15345772 -0.25290194 -0.16149886 -0.13401502 0.03614882 0.054338995 0.086840816
-0.09850939 -0.12710546 0.09548879 -0.076332614 0.1311786 -0.025517914 0.08614311 -0.14564767
-0.097352125 0.062477373 0.0025040333 -0.07046702 0.113552 0.08633324 -0.13721317 -0.14907794
0.13842751 -0.06520054 -0.067108065 -0.14880401 -0.12664783 0.015302592 -0.015793297 -0.11214233
-0.042354412 -0.091923155 -0.13392054 -0.083122395 -0.13435002 -0.12693293 0.2734812 0.039167654
0.02407254 -0.20854123 -0.12627076 -0.09150108 -0.0023409857 -0.15921184 -0.12106069 -0.09361844
-0.0063286093 -0.102940775 -0.011477911 -0.13599436 -0.082279816 -0.11713919 -0.058250025 -0.14132737
0.16023651 -0.024189567 0.18574065 0.110077545 -0.13922763 0.1309072 -0.054765154 -0.058988653
-0.1753488 -0.16705054 0.045515396 -0.06972689 0.088614166 -0.14352284 0.11254958 -0.15290932
-0.0492734 0.039566547 0.056376766 0.12154339 0.14969066 -0.14147739 0.045703392 -0.08320258
0.01154871 -0.15277626 0.16297655 -0.12808475 0.10001727 0.06636301 0.059257265 -0.093766846
0.15649715 0.017110128 0.016493073 -0.058684006 0.081725135 0.012825311 -0.051210903 0.14270334
-0.00041535753 -0.11673808 -0.1168903 -0.029124098 0.11166347 -0.03448775 -0.12121197 -0.11869597
-0.1808397 0.008709244 0.06734568 -0.20041654 0.010208587 0.029462906 0.018171342 -0.09114012
0.0656344 0.064051904 0.027774533 -0.054045703 -0.07758223 0.018716289 -0.051345564 -0.07408629
0.116226956 0.14293724 -0.03988281 -0.0333979 0.041681584 -0.06774673 -0.010303043 -0.0025314942
-0.22555391 -0.10143936 0.09498297 0.073322736 -0.0051480182 -0.11268277 -0.101228796 -0.13511613
-0.015132223 0.08641827 0.0524607 0.010326111 -0.18448198 -0.1528183 -0.052034985 0.13064744
-0.0049295644 -0.06319149 0.05451529 -0.081813246 -0.11974423 0.12279002 -0.079699606 -0.0491132
-0.15173022 0.07317751 0.14450434 0.07197954 -0.08108802 -0.15839022 -0.14891899 0.09279689
0.06440283 0.11049375 0.07611285 0.056401912 0.0085427435 -0.14045157 -0.13641936 -0.22352202
0.08033977 -0.10688623 -0.09444999 -0.14821687 -0.06508435 -0.1278929 -0.11573593 0.012715401
-0.07471549 0.12114998 -0.023818053 -0.15885712 -0.07383712 -0.1170449 -0.118433304 -0.20030668
00000000: 46a7 b53d ace4 c63d 1029 68bd e931 153e
00000010: 020d 69bd 576f 9abc 6e4d c3bd 047e bd3d
00000020: 3d02 123e 6d7d 11be 1c36 203e 6228 b83c
00000030: f2f5 173e b8d5 5a3c fea2 f53d 1425 9dbd
00000040: 588e 103e 9bde 043d b220 0cbd 9816 8b3d
00000050: 316f b7bd 5387 90bd e661 cfbd 246c 963d
00000060: 403e 25be e7fc 9abd f3b4 08bd fd2c ddbd
00000070: 4796 483d 5a1e 5ebe 1044 2e3e 6417 2cbe
00000080: fc4c a63d 8372 4abc 2c9a a9bd 31d8 f03d
00000090: 3bf1 413d 2e10 cf3d 86f5 0d3b bb37 28bd
000000a0: 90b1 b13d 98b3 4ebd 98b2 9d3b 929e fb3d
000000b0: ebc7 2e3d 8ad5 ebbd 50c3 993d 4bf2 973d
000000c0: 9cf9 a43d a2bb 04be deb8 57be a85e 9abd
000000d0: 9b4e 21be 2c07 1d3e 7c0d d13d 2988 0a3d
000000e0: e390 273d 3daa 2abd d74e 273e 9f23 fcbd
000000f0: 9e00 ab3b 1248 04be 263d 2f3d efeb 2abd
00000100: b4a2 1e3d c8b0 0fbd d23b 0c3e 22e2 01be
00000110: 77aa e0bd a050 10be d47c 2e3e 1bdf 723d
00000120: 222f 1b3e 0524 1dbe 5d7c 81be f55f 25be
00000130: 3c3b 09be c910 143d 9192 5e3d 99d9 b13d
00000140: 4bbf c9bd ef27 02be a08f c33d 4654 9cbd
00000150: af53 063e f20a d1bc cd6b b03d aa24 15be
00000160: 8d60 c7bd 46e8 7f3d b51a 243b 0351 90bd
00000170: f38d e83d 7bcf b03d 9c81 0cbe e3a7 18be
00000180: f1bf 0d3e dc87 85bd f46f 89bd 1460 18be
00000190: f8af 01be b9b7 7a3c f260 81bc e1aa e5bd
000001a0: d27b 2dbd 3542 bcbd 7722 09be 133c aabd
000001b0: 0d93 09be b5fa 01be ba05 8c3e 436e 203d
000001c0: c733 c53c d58b 55be 1f4d 01be eb64 bbbd
000001d0: 396b 19bb 6e08 23be abee f7bd 06bb bfbd
000001e0: 3960 cfbb 9dd2 d2bd d90d 3cbc 1b42 0bbe
000001f0: 5282 a8bd ace6 efbd 9497 6ebd 1fb8 10be
00000200: 0a15 243e 3329 c6bc cc32 3e3e 5670 e13d
00000210: b091 0ebe 890c 063e 6d51 60bd 169e 71bd
00000220: a38e 33be 4c0f 2bbe 5a6e 3a3d f9cc 8ebd
00000230: 587b b53d a7f7 12be 6580 e63d 4394 1cbe
00000240: e8d2 49bd 8810 223d 53eb 663d beeb f83d
00000250: 8248 193e 73df 10be 7b33 3b3d 1d66 aabd
00000260: cd36 3d3c 6171 1cbe 53e3 263e a628 03be
00000270: dbd5 cc3d 54e9 873d bfb7 723d d508 c0bd
00000280: ca40 203e 8a2a 8c3c 7b1c 873c a45e 70bd
00000290: 825f a73d 4121 523c 86c2 51bd d320 123e
000002a0: 58c4 d9b9 6014 efbd 2e64 efbd a995 eebc
000002b0: d1af e43d 0743 0dbd fb3d f8bd df16 f3bd
000002c0: 0b2e 39be 38b1 0e3c 88ec 893d fe39 4dbe
000002d0: eb41 273c 315c f13c 11dc 943c aca7 babd
000002e0: 546b 863d a52d 833d 6b87 e33c 075f 5dbd
000002f0: 6fe3 9ebd e752 993c ba4f 52bd 8eba 97bd
00000300: 6608 ee3d 245e 123e 285c 23bd 3dcc 08bd
00000310: 4fba 2a3d ccbe 8abd 18ce 28bc 6de7 25bb
00000320: 9bf7 66be 70bf cfbd 6e86 c23d 3b2a 963d
00000330: b5b0 a8bb 39c6 e6bd 0b51 cfbd e25b 0abe
00000340: 25ed 77bc 10fc b03d 08e1 563d d92e 293c
00000350: d8e8 3cbe 677c 1cbe a322 55bd 71c8 053e
00000360: 2f88 a1bb 8a6a 81bd 6d4b 5f3d b48d a7bd
00000370: 763c f5bd 5679 fb3d 8c39 a3bd ec2a 49bd
00000380: 2b5f 1bbe 17de 953d f2f8 133e 026a 933d
00000390: 7a11 a6bd 0c31 22be 387e 18be 4c0c be3d
000003a0: a2e5 833d 8c4a e23d 0ee1 9b3d b105 673d
000003b0: ddf6 0b3c 89d2 0fbe 84b1 0bbe f5e2 64be
000003c0: 2d89 a43d 2be7 dabd ff6e c1bd 2ac6 17be
000003d0: f24a 85bd 5bf6 02be f606 edbd 4254 503c
000003e0: 6f04 99bd 7b1d f83d 141e c3bc 71ab 22be
000003f0: ea37 97bd 3db5 efbd 298d f2bd 321d 4dbe

lstm.weight_hh_l0 f4 [120, 30]
0.07727004 -0.15518667 -0.14721842 -0.19460133 -0.037168656 -0.086083114 0.023535466 -0.06508108
0.10372752 0.16621141 0.028723162 -0.08492119 -0.16354154 0.08742426 -0.08339163 0.08958188
0.0858755 0.07911728 0.17492765 0.16043492 0.048375465 -0.1036584 0.1480155 -0.065695256
-0.11600229 0.16669361 0.1637184 0.0365226 0.04700804 -0.16181916 -0.013687321 0.19154522
0.029569646 0.011433927 -0.009969706 -0.090884335 0.10063409 -0.0013421052 0.1260117 -0.02501555
0.07297298 0.0585987 0.043952666 0.11724279 0.122904554 0.17633305 0.111924574 -0.022356596
-0.16570635 0.028995479 -0.0018493152 -0.01727403 -0.030714212 0.023439063 0.119508974 0.06864545
-0.039563872 -0.088298984 -0.047843803 -0.07737278 0.20199846 0.12624086 0.10227173 0.015829131
0.061906092 0.030066997 -0.19046317 0.008864519 0.036829352 -0.07174954 -0.14010751 0.13417849
0.14903772 0.05492777 0.22212017 -0.08409413 -0.074252926 0.11810538 -0.029675812 -0.049797114
-0.14871736 0.05130882 -0.07331432 0.026465414 0.1724522 -0.029817216 -0.05788244 0.084716775
-0.03023858 -0.074325204 0.18661197 -0.02759881 -0.16681443 -0.1315493 -0.024456799 -0.12327923
-0.10947326 0.052678075 0.06039122 -0.031094497 -0.17417623 -0.08138641 -0.03910644 -0.02917883
-0.09205058 0.017250264 -0.17295533 -0.12701486 -0.12357482 0.057246763 -0.08324071 -0.037888788
0.15522802 0.12262584 0.06697305 -0.103067264 -0.09239174 -0.0955917 0.15231624 -0.014762658
-0.16558518 0.0009372642 -0.18530382 -0.05996274 -0.00267367 0.13644055 0.07587347 -0.059844892
0.044569504 -0.073727 0.064056255 0.07046925 0.062573895 -0.05762027 0.14248897 -0.037304085
-0.08209077 0.17135262 0.1790574 0.15707132 0.07554202 -0.036228128 0.07040783 0.15281186
-0.20542923 -0.03974618 -0.10032981 0.025066314 0.057703312 -0.056205824 0.013828383 0.05455637
-0.05971431 -0.1712533 0.17931242 -0.14424191 -0.02875018 0.0050092707 -0.003172791 -0.17485572
0.05891852 -0.07916201 -0.054995283 0.056435496 -0.0878536 -0.08589328 -0.09925838 -0.063628264
-0.08122489 -0.06490632 0.059604358 -0.12966755 -0.122362494 -0.01091573 0.0055061867 0.11575674
-0.10541181 0.10042043 0.08117214 0.13317268 -0.10571622 -0.0418929 -0.17667113 -0.15767331
0.14483592 -0.0755581 0.05530332 -0.13672881 0.0469977 -0.09806728 0.05174852 -0.099721946
0.0008216902 -0.13209406 0.029061468 0.18711782 0.035303008 -0.10003375 -5.4323096e-05 -0.037496395
-0.12954319 0.2065983 0.011389366 0.056027725 -0.1220171 -0.025310453 0.08827979 0.050121218
0.055876765 -0.09156678 0.22067122 0.000492449 -0.1405545 -0.08947804 0.19358055 -0.022717055
-0.07360883 -0.104324624 -0.012115774 -0.17213845 -0.17401251 0.07744127 0.15688019 0.18961635
-0.10212427 0.11657988 -0.120008275 0.13578065 0.14222962 0.11495385 0.15237632 0.12144065
0.0074854847 0.11068377 -0.05692564 0.07651099 -0.05782866 -0.033304527 -0.10748222 -0.100178264
-0.11551904 -0.039564762 -0.13698982 -0.17195992 0.012058591 0.1328789 0.18602058 0.064758524
-0.06523976 -0.17931357 0.020894306 0.09217188 -0.16765238 0.09990537 0.15445192 0.006565707
00000000: c13f 9e3d 41e9 1ebe 6dc0 16be 9245 47be
00000010: 293e 18bd 584c b0bd 73cd c03c 3b49 85bd
00000020: 186f d43d 5333 2a3e d64c eb3c 29eb adbd
00000030: 6f77 27be 7e0b b33d 3bc9 aabd b476 b73d
00000040: 7fdf af3d 3e08 a23d 3c20 333e 0d49 243e
00000050: 5a25 463d db4a d4bd 6091 173e 3c8b 86bd
00000060: 9c92 edbd bbb1 2a3e cca5 273e b998 153d
00000070: 818b 403d ecb3 25be c940 60bc 6e24 443e
00000080: 0b3c f23c 5e55 3b3c fa57 23bc 9121 babd
00000090: 3f19 ce3d 94e9 afba 3609 013e 69ed ccbc
000000a0: dc72 953d 3105 703d b607 343d fd1c f03d
000000b0: 62b5 fb3d a790 343e b638 e53d 2e25 b7bc
000000c0: edae 29be ed87 ed3c b964 f2ba 4482 8dbc
000000d0: 5f9c fbbc 4703 c03c 1fc1 f43d fc95 8c3d
000000e0: ba0d 22bd 19d6 b4bd ddf7 43bd 9f75 9ebd
000000f0: afd8 4e3e 4945 013e d773 d13d 18ac 813c
00000100: 3e91 7d3d 104f f63c c708 43be 7d3c 113c
00000110: 60da 163d 6cf1 92bd 5878 0fbe 1666 093e
00000120: 589d 183e f1fb 603d 7873 633e 8b39 acbd
00000130: eb11 98bd 3ce1 f13d b01a f3bc 0ff8 4bbd
00000140: 5d49 18be 3229 523d d125 96bd ffcd d83c
00000150: 4f97 303e 3c43 f4bc 2316 6dbd fd7f ad3d
00000160: e6b6 f7bc d037 98bd 3517 3f3e e616 e2bc
00000170: 67d1 2abe dcb4 06be a059 c8bc d279 fcbd
00000180: 8433 e0bd f7c4 573d c95c 773d e3b9 febc
00000190: 415b 32be ebad a6bd 132e 20bd 7108 efbc
000001a0: 0485 bcbd 6d50 8d3c 341b 31be 2f10 02be
000001b0: cc14 fdbd 957b 6a3d 1b7a aabd 4631 1bbd
000001c0: 18f4 1e3e 4223 fb3d 2b29 893d ee14 d3bd
000001d0: e137 bdbd 95c5 c3bd caf8 1b3e 13df 71bc
000001e0: 298f 29be bcb2 753a 49c0 3dbe 7d9b 75bd
000001f0: bd38 2fbb 12b7 0b3e 8d63 9b3d eb1f 75bd
00000200: 838e 363d 2efe 96bd ed2f 833d 2f52 903d
00000210: be26 803d 3b03 6cbd a1e8 113e 2bcc 18bd
00000220: 351f a8bd 1077 2f3e d35a 373e 4ed7 203e
00000230: c6b5 9a3d f263 14bd fb31 903d b67a 1c3e
00000240: 0a5c 52be e4cc 22bd b779 cdbd df57 cd3c
00000250: 4f5a 6c3d 1438 66bd 7190 623c 8076 5f3d
00000260: fe96 74bd 065d 2fbe ad9d 373e 27b4 13be
00000270: 7f85 ebbc cf24 a43b 9aee 4fbb 610d 33be
00000280: 8c54 713d b11f a2bd bc42 61bd e828 673d
00000290: 97ec b3bd d1e8 afbd fa47 cbbd 894f 82bd
000002a0: 3c59 a6bd 9bed 84bd b323 743d 92c7 04be
000002b0: 3099 fabd e4d7 32bc 3e6d b43b df11 ed3d
000002c0: 26e2 d7bd 3aa9 cd3d 943d a63d 6b5e 083e
000002d0: bf81 d8bd e497 2bbd 47e9 34be 1d75 21be
000002e0: de4f 143e 35be 9abd bc85 623d a302 0cbe
000002f0: a980 403d 80d7 c8bd 42f6 533d 053b ccbd
00000300: b266 573a aa43 07be 5112 ee3c d09b 3f3e
00000310: e399 103d 7fde ccbd fbd8 63b8 d295 19bd
00000320: f8a6 04be 818e 533e 779a 3a3c 547d 653d
00000330: 1ae4 f9bd de57 cfbc 09cc b43d e84b 4d3d
00000340: 09df 643d 5d87 bbbd a3f7 613e b117 013a
00000350: 85ed 0fbe 4340 b7bd fb39 463e 1e19 babc
00000360: 3ac0 96bd 26a8 d5bd 3d81 46bc 1045 30be
00000370: 5630 32be 8799 9e3d 33a5 203e ca2a 423e
00000380: 8726 d1bd 6fc1 ee3d e6c6 f5bd 150a 0b3e
00000390: a4a4 113e ed6c eb3d 8a08 1c3e e0b5 f83d
000003a0: cc48 f53b 2cae e23d dc2a 69bd cbb1 9c3d
000003b0: bfdd 6cbd 546a 08bd a31f dcbd 432a cdbd
000003c0: 3f95 ecbd a90e 22bd 0f47 0cbe 4316 30be
000003d0: 6591 453c 6811 083e 2e7c 3e3e 1ea0 843d
000003e0: 6c9c 85bd fa9d 37be 892a ab3c 9cc4 bc3d
000003f0: 11ad 2bbe 309b cc3d a528 1e3e 2425 d73b

lstm.bias_ih_l0 f4 [120]
-0.14499675 0.085730754 -0.072929084 -0.03712242 0.047398444 -0.058445282 0.12956062 0.082914464
-0.14572427 -0.13075005 -0.19908717 0.04003385 -0.1639599 -0.18652987 -0.123295814 -0.1860153
-0.17802113 0.14222355 0.0893237 0.1408019 -0.13029698 -0.09133668 -0.06602095 -0.023260918
-0.15524465 -0.027387293 -0.15650594 0.010164586 0.11692128 0.043359023 0.09926163 -0.14946584
-0.057964314 -0.14626662 -0.055746954 -0.11982328 -0.1258192 -0.18024565 -0.09130693 0.008152293
-0.073783286 -0.19884108 0.11420776 0.08959703 -0.12174813 0.021653103 0.103235275 -0.19405468
-0.16940656 0.07804752 -0.032860734 0.04316319 -0.080532916 0.014664817 0.09629256 -0.09300225
-0.09107812 -0.20508842 -0.077275604 0.12450179 -0.21502493 -0.032222122 0.18667704 -0.024803571
-0.11577264 -0.0011002312 -0.024310678 0.063337095 -0.19678342 0.07856185 -0.022549005 -0.03023603
-0.053315606 0.08863679 -0.095417544 -0.16825399 -0.18135934 -0.12072812 -0.12908114 0.17562266
-0.1862647 -0.12798262 -0.13276011 -0.090717874 0.014746282 -0.12576568 -0.0013278204 0.07584137
-0.10937467 0.086053334 0.022574916 0.15476814 -0.051085044 0.11851786 0.11797281 0.05900045
0.080043666 -0.15660278 -0.14829281 0.057673067 0.051285714 0.14662881 -0.052485883 -0.06388362
0.118313804 -0.000812503 0.1427628 -0.11170206 -0.077350564 -0.010043268 0.04771472 -0.17483476
-0.05343076 0.10123478 0.0129315695 0.07388218 -0.10209523 -0.13756493 -0.17746235 -0.0815731
00000000: 077a 14be 9b93 af3d d85b 95bd ae0d 18bd
00000010: df24 423d 5264 6fbd 8aab 043e 0fcf a93d
00000020: be38 15be 57e3 05be 82dd 4bbe 89fa 233d
00000030: 1be5 27be b001 3fbe 8482 fcbd cb7a 3ebe
00000040: 2c4b 36be 0da3 113e 58ef b63d 602e 103e
00000050: 926c 05be ba0e bbbd fe35 87bd ae8d bebc
00000060: 74f8 1ebe 515b e0bc 1843 20be 5d89 263c
00000070: 6d74 ef3d 3b99 313d ae49 cb3d 930d 19be
00000080: fd6b 6dbd ebc6 15be eb56 64bd e865 f5bd
00000090: c0d6 00be 5192 38be 21ff babd 3291 053c
000000a0: b11b 97bd ff9c 4bbe c2e5 e93d a67e b73d
000000b0: 1557 f9bd d961 b13c 046d d33d 45b6 46be
000000c0: ea78 2dbe 61d7 9f3d fa98 06bd e3cb 303d
000000d0: 71ee a4bd b344 703c 0935 c53d f777 bebd
000000e0: 2a87 babd b302 52be ac42 9ebd cbfa fe3d
000000f0: 7f2f 5cbe 58fb 03bd 4428 3f3e dc30 cbbc
00000100: 351a edbd a235 90ba 3027 c7bc e1b6 813d
00000110: 9881 49be 09e5 a03d b1b8 b8bc 8db1 f7bc
00000120: 7761 5abd 3587 b53d 466a c3bd c64a 2cbe
00000130: 43b6 39be 4e40 f7bd d92d 04be 6dd6 333e
00000140: 2cbc 3ebe e00d 03be 44f2 07be 4bca b9bd
00000150: 649a 713c b8c8 00be 420a aeba b852 9b3d
00000160: d4ff dfbd bb3c b03d 08ef b83c 8a7b 1e3e
00000170: 8d3e 51bd 7eb9 f23d bb9b f13d 75aa 713d
00000180: efed a33d 7b5c 20be 12da 17be 983a 6c3d
00000190: f810 523d dd25 163e 70fb 56bd 6ad5 82bd
000001a0: 824e f23d 27fe 54ba 6930 123e 0dc4 e4bd
000001b0: f969 9ebd 858c 24bc 8370 433d e207 33be
000001c0: 36da 5abd 2e54 cf3d efde 533c 8a4f 973d
000001d0: 4e17 d1bd d2dd 0cbe b1b8 35be cc0f a7bd

lstm.bias_hh_l0 f4 [120]
-0.15206756 0.07276598 0.0057900157 -0.15221424 0.13703285 0.026819931 0.042384036 -0.10634539
0.09919344 -0.14842807 0.114890635 -0.11763357 0.050915815 -0.09954876 0.112341054 -0.15862906
-0.06495962 -0.06990605 -0.12183383 -0.11064301 -0.092964865 0.0024773488 0.12763068 -0.05682862
0.15476012 -0.14103456 -0.1334863 -0.028209353 -0.08336824 0.07051382 0.13478008 0.04307671
-0.1849713 -0.09590905 -0.071761884 -0.21344726 0.034294073 0.1554802 0.06706641 -0.019912964
-0.055564415 -0.1142998 -0.04322082 0.114344984 -0.1055394 0.032302745 -0.15195404 -0.0706004
0.0024884013 -0.16111833 0.02036056 -0.17175604 -0.07919083 0.10861519 0.1464663 -0.062610336
-0.16259898 -0.18115003 -0.093970895 -0.08435822 0.10265044 -0.14827035 0.16348991 0.062018454
-0.103847556 0.20279469 0.15126102 0.035099823 -0.14474504 -0.044942833 0.082428 0.15120421
-0.10260865 -0.0892302 -0.16039318 0.11010368 0.1289027 0.138905 -0.14192392 0.16221488
-0.10037327 0.07479282 0.122828975 -0.14785115 0.06505308 0.058449477 -0.11301535 0.18294117
0.064219415 0.15986899 -0.020966973 -0.11928416 -0.14153688 0.024800336 -0.05495438 0.11683424
0.12962554 -0.020243328 -0.17548521 0.052175235 0.14837743 -0.06398968 -0.124264926 -0.07303015
0.019310014 -0.14217229 0.06885932 0.05946487 -0.08725152 -0.085565634 -0.13629004 0.1279397
0.105958365 0.020535298 -0.033272956 -0.009584384 0.13589635 0.03533278 -0.14387272 0.09170088
00000000: 99b7 1bbe 5506 953d 2cba bd3b 0dde 1bbe
00000010: 5752 0c3e 79b5 db3c e29a 2d3d 9dcb d9bd
00000020: ee25 cb3d 87fd 17be c84b eb3d dfe9 f0bd
00000030: 1a8d 503d 38e0 cbbd 1113 e63d a86f 22be
00000040: 8d09 85bd e72a 8fbd 0484 f9bd cd98 e2bd
00000050: 5d64 bebd 045b 223b 9eb1 023e 21c5 68bd
00000060: 7079 1e3e 5d6b 10be a2b0 08be 4d17 e7bc
00000070: f8bc aabd 8d69 903d ca03 0a3e 3471 303d
00000080: 1e69 3dbe f76b c4bd e5f7 92bd eb91 5abe
00000090: f177 0c3d 3436 1f3e 1d5a 893d 8320 a3bc
000000a0: 8397 63bd 0316 eabd 5108 31bd b42d ea3d
000000b0: 0a25 d8bd e24f 043d d799 1bbe f196 90bd
000000c0: 7214 233b 34fc 24be 30cb a63c d1e0 2fbe
000000d0: cd2e a2bd a471 de3d 43fb 153e d939 80bd
000000e0: 5980 26be 657f 39be d073 c0bd 01c4 acbd
000000f0: 653a d23d 2fd4 17be e669 273e 1007 7e3d
00000100: 07ae d4bd 69a9 4f3e 2be4 1a3e d5c4 0f3d
00000110: 0b38 14be fa15 38bd 03d0 a83d 47d5 1a3e
00000120: 7c24 d2bd 53be b6bd 1c3e 24be 0a7e e13d
00000130: 12ff 033e 1d3d 0e3e 8154 11be a81b 263e
00000140: 8090 cdbd fa2c 993d c28d fb3d 4b66 17be
00000150: 8d3a 853d b868 6f3d 9874 e7bd ee54 3b3e
00000160: 7885 833d b2b4 233e eec2 abbc 414b f4bd
00000170: 0bef 10be 132a cb3c d817 61bd ca46 ef3d
00000180: 8fbc 043e 56d5 a5bc 65b2 33be b3b5 553d
00000190: 41f0 173e 050d 83bd 9c7e febd d590 95bd
000001a0: 0930 9e3c 9d95 11be 1d06 8d3d 6f91 733d
000001b0: edb0 b2bd 093d afbd 9e8f 0bbe a002 033e
000001c0: b300 d93d a439 a83c 3949 08bd d207 1dbc
000001d0: 6a28 0b3e 1bb9 103d 5f53 13be accd bb3d

lstm.weight_ih_l1 f4 [120, 30]
-0.06772717 0.044171777 -0.16466372 -0.034513805 0.05165284 -0.15246171 0.09733065 0.13071913
-0.101449065 0.035898082 -0.17581522 -0.08437157 0.12995553 0.05621267 0.06462488 -0.04510782
0.17014243 -0.074129164 0.08399405 -0.03060978 0.16981299 0.07188015 0.10347612 0.10287703
0.098344244 0.008760611 0.10392959 0.1333197 -0.0025653502 -0.1113702 0.14589253 0.10311392
-0.21916863 0.065854706 -0.14142628 -0.1622668 0.048335377 0.057197534 0.0046661533 0.1515716
0.14811774 0.09492686 -0.20223668 -0.06982061 0.012623641 0.16770881 -0.053303078 0.11865467
0.09297914 -0.11886833 -0.11259894 0.20873088 -0.0029478918 0.17537004 -0.18066342 -0.068169266
0.1319931 -0.047219455 0.092469096 -0.20370255 0.20090982 -0.16121075 -0.010871625 -0.15439871
-0.06064409 -0.22600998 -0.21464087 -0.035319023 -0.05943573 0.10010445 0.0011901386 0.12768248
0.015250077 0.09143318 0.15921253 -0.11136287 -0.011288785 0.05525307 0.013799965 -0.08816485
0.06762843 -0.1093197 -0.027962105 -0.086064965 0.05200197 -0.030604325 -0.04840658 -0.008193909
0.0007626106 0.10612699 -0.184202 -0.045531083 -0.26248494 0.09248985 0.21994312 -0.16713004
0.027389372 -0.021342492 -0.032044772 0.035627685 0.12981702 0.13569546 0.11420616 0.022232536
-0.03827283 -0.06292074 0.012074339 0.058389768 0.21966061 -0.20670834 0.08091175 -0.0062736277
0.07087852 0.2272741 0.02290549 -0.017096275 -0.013095779 -0.28072757 -0.09354363 -0.057668306
-0.116348416 0.105307534 -0.08215006 0.053876188 0.15645784 -0.0021929226 0.04847356 0.14520617
-0.03535815 0.11447858 -0.15923761 0.15503922 -0.028634865 0.009249946 0.11014638 0.017557891
0.17348215 -0.0765746 -0.051521886 0.13680942 -0.07524045 0.13303728 0.16623496 0.13032563
-0.07946317 -0.008591027 -0.15554279 -0.095931545 -0.06028561 -0.17170312 0.13148066 0.05562239
-0.08277653 -0.027371895 0.19799604 -0.060121186 0.11862663 0.19176008 -0.07263258 -0.18487872
0.19527325 -0.0902624 0.21013975 -0.1362523 0.05144157 0.06503781 -0.024272954 0.107873775
-0.13845545 -0.087372854 -0.013174752 0.118941195 0.076812685 0.084587224 0.075812116 0.1781174
-0.042243283 -0.02368779 -0.055889048 0.069803536 -0.017818013 0.10779478 0.07456139 0.015133762
0.14978659 -0.028096959 0.12800556 -0.085076645 -0.12791549 0.15489766 -0.0020752598 0.14917333
0.098879784 0.08071186 -0.10450587 -0.18117428 -0.018677073 0.06675818 -0.05643045 -0.032724246
0.09692919 -0.02047175 0.0645396 -0.15668759 -0.18836959 -0.026605198 0.045792233 0.042698383
0.11717695 -0.017315261 -0.055211414 0.07771959 -0.03806291 -0.007817416 0.12693562 -0.066028886
0.10282805 0.14817543 0.03554871 -0.03414123 -0.11309474 -0.13962705 -0.035783052 0.05782378
0.094054714 0.0008235297 0.13748355 -0.093697 0.048064586 -0.093823485 0.048760984 0.17167982
0.034830846 0.026613297 -0.09522991 -0.14143863 -0.08619722 -0.15175359 0.06977199 -0.016183035
-0.02357782 -0.17607448 -0.06884232 0.16887915 0.048903096 -0.02214431 0.07878406 0.1478977
0.1413686 -0.15224975 0.0398438 -0.15624343 -0.118385196 0.12274134 -0.13196985 -0.07476363
00000000: 8bb4 8abd 77ed 343d 9b9d 28be 595e 0dbd
00000010: ee91 533d ec1e 1cbe 4b55 c73d 3cdb 053e
00000020: 87c4 cfbd de09 133d e808 34be 00cb acbd
00000030: 1013 053e 423f 663d 0d5a 843d fac2 38bd
00000040: d139 2e3e 08d1 97bd 1305 ac3d 5dc1 fabc
00000050: 75e3 2d3e e635 933d 4aeb d33d 31b1 d23d
00000060: b568 c93d aa88 0f3c 09d9 d43d f684 083e
00000070: 6f1f 28bb 0f16 e4bd da64 153e 642d d33d
00000080: be6d 60be d5de 863d 0dd2 10be 4529 26be
00000090: 51fb 453d f647 6a3d 88e6 983b 9635 1b3e
000000a0: 2dac 173e 0369 c23d 2217 4fbe 1cfe 8ebd
000000b0: 63d3 4e3c dcbb 2b3e 5454 5abd 3801 f33d
000000c0: d96b be3d 3d71 f3bd 469a e6bd 8cbd 553e
000000d0: 6b31 41bb 3494 333e d5ff 38be 549c 8bbd
000000e0: 3329 073e 3069 41bd 7060 bd3d 6797 50be
000000f0: 4ebb 4d3e 6e14 25be e61e 32bc b21a 1ebe
00000100: f065 78bd 296f 67be d1ca 5bbe aeaa 10bd
00000110: e172 73bd 9003 cd3d 6dfe 9b3a 32bf 023e
00000120: 75db 793c 5241 bb3d 9c08 233e 3712 e4bd
00000130: 99f4 38bc 0b51 623d 4019 623c c68f b4bd
00000140: c680 8a3d 02e3 dfbd c910 e5bc d442 b0bd
00000150: 0500 553d ecb5 fabc fa45 46bd bf3f 06bc
00000160: eee9 473a 1b59 d93d 739f 3cbe cd7e 3abd
00000170: 6d64 86be 526b bd3d c538 613e 2324 2bbe
00000180: ad5f e03c 73d6 aebc 6141 03bd 56ee 113d
00000190: c1ee 043e c0f3 0a3e ebe4 e93d 0221 b63c
000001a0: f9c3 1cbd 97dc 80bd 73d3 453c 1c2a 6f3d
000001b0: b6ee 603e 5aab 53be 0fb5 a53d 0193 cdbb
000001c0: c228 913d 8bba 683e 4ba4 bb3c 7d0d 8cbc
000001d0: ae8f 56bc 86bb 8fbe cd93 bfbd 9a35 6cbd
000001e0: 1448 eebd 7aab d73d 4a3e a8bd 47ad 5c3d
000001f0: 7c36 203e 23b7 0fbb 368c 463d edb0 143e
00000200: b5d3 10bd bf73 ea3d 2f0f 23be 9ac2 1e3e
00000210: aa93 eabc 168d 173c 6d94 e13d 91d5 8f3c
00000220: 4ea5 313e 25d3 9cbd 9d08 53bd c517 0c3e
00000230: aa17 9abd ed3a 083e 7f39 2a3e 1574 053e
00000240: 96bd a2bd 61c1 0cbc 9c46 1fbe c277 c4bd
00000250: 0bee 76bd f1d2 2fbe dea2 063e 4ed4 633d
00000260: be86 a9bd 063b e0bc 79bf 4a3e a241 76bd
00000270: 85f2 f23d c15c 443e 64c0 94bd d950 3dbe
00000280: b6f5 473e 7edb b8bd e02e 573e b985 0bbe
00000290: 65b4 523d 8b32 853d 13d8 c6bc edec dc3d
000002a0: 44c7 0dbe 8af0 b2bd eada 57bc 7197 f33d
000002b0: f84f 9d3d 113c ad3d 6243 9b3d 6864 363e
000002c0: 4b07 2dbd e50c c2bc eaeb 64bd 28f5 8e3d
000002d0: 15f7 91bc 82c3 dc3d a4b3 983d 99f3 773c
000002e0: a861 193e 982b e6bc e413 033e aa3c aebd
000002f0: 47fc 02be 7e9d 1e3e 1501 08bb e5c0 183e
00000300: 7c81 ca3d 424c a53d 2c07 d6bd c085 39be
00000310: a900 99bc 83b8 883d 9e23 67bd dc09 06bd
00000320: d082 c63d 5fb4 a7bc 562d 843d b672 20be
00000330: f5e3 40be 25f3 d9bc a390 3b3d 80e4 2e3d
00000340: 78fa ef3d bcd8 8dbc 5d25 62bd 732b 9f3d
00000350: dbe7 1bbd 9f14 00bc 69fb 013e 273a 87bd
00000360: 8397 d23d 4dbb 173e 869b 113d add7 0bbd
00000370: 379e e7bd 65fa 0ebe 4091 12bd a1d8 6c3d
00000380: c29f c03d 25e2 573a 7dc8 0c3e 36e4 bfbd
00000390: 5fdf 443d 8726 c0bd 99b9 473d d6cc 2f3e
000003a0: caaa 0e3d 2104 da3c e607 c3bd 4ad5 10be
000003b0: 2b88 b0bd 4b65 1bbe 9ee4 8e3d 4992 84bc
000003c0: 4626 c1bc de4c 34be 34fd 8cbd a8ee 2c3e
000003d0: 9d4e 483d fc67 b5bc 8a59 a13d 7f72 173e
000003e0: eec2 103e 5ce7 1bbe 4133 233d 47fe 1fbe
000003f0: f073 f2bd d05f fb3d 1b23 07be ad1d 99bd

lstm.weight_hh_l1 f4 [120, 30]
0.08343004 -0.09568267 0.044843417 -0.052786224 -0.14653946 -0.007404276 0.0780611 0.09871306
-0.07847259 0.098724596 -0.10304671 -0.054972686 -0.06979412 0.2028141 0.08275454 -0.059453342
0.05812928 0.1739942 0.1077116 0.04373524 -0.12150249 -0.07928598 -0.13550265 0.02748157
-0.13131356 -0.006797127 -0.025031773 0.09675935 -0.09393192 0.23174983 -0.057786543 -0.0069220704
-0.036617443 0.10609315 0.14822233 0.12591112 -0.18149953 0.057035327 0.18842408 -0.13058476
0.03605414 0.00018261316 0.06379692 0.18821919 -0.04557957 -0.02020512 -0.09022068 0.08676824
0.016878026 -0.09787715 -0.040181734 0.14820762 0.07166204 0.15481514 -0.14432505 0.112163216
0.052206255 -0.1104359 0.066665985 0.13888806 -0.094503574 -0.028249765 0.17521675 -0.1684033
0.059009936 -0.03246981 -0.16064213 -0.08063475 0.09706381 0.09766373 0.08493678 -0.16907044
-0.17217486 0.14726168 0.15241802 0.128383 0.09329914 0.16404986 -0.06853438 0.017473329
-0.13985151 -0.035768077 -0.06302694 -0.16987692 0.028887477 0.0014954307 0.06703275 0.07416177
-0.11992138 -0.014695291 0.030363053 -0.2387228 0.2228378 0.18593626 -0.21925293 -0.06188396
-0.0823146 -0.05390292 0.055550024 0.06804634 0.05437318 0.048135415 -0.099280715 -0.08190951
0.09597563 0.15546022 0.23023401 0.16608961 0.11443145 0.22066644 0.051327962 0.083154045
0.10735678 0.04009031 0.03027179 0.0184796 0.056262743 0.07008812 0.25414836 0.2429223
0.02792454 -0.009779866 -0.04306129 0.131013 -0.14960815 -0.21665612 0.025742147 -0.20208576
0.10272297 -0.08911752 -0.027759273 -0.10634106 0.11269442 -0.11502415 0.012061989 -0.0022218833
-0.15986939 0.1591078 0.055397872 -0.13384897 -0.20940214 0.11359754 0.19309354 -0.0047049015
-0.07809524 -0.18896197 0.13384864 -0.10943844 -0.056907747 0.09762474 0.12810826 0.0807188
0.11449873 0.14771226 0.003055974 -0.05599098 -0.032734483 -0.15234478 0.087468274 -0.15192719
0.06614036 -0.19250244 -0.17457047 0.01618685 0.15860787 -0.16941395 -0.05156817 0.00082310295
-0.077135816 0.0964598 0.17009641 0.13702258 -0.00010812612 -0.13533284 -0.155858 -0.068736926
-0.091386035 -0.18582831 0.08685562 -0.054594014 0.074542016 -0.03691855 0.021262001 -0.07497287
0.10545379 -0.2166374 -0.13249242 0.0038231625 -0.028255988 -0.009424404 0.08453964 -0.008307953
-0.0031765937 0.106755495 -0.1447995 -0.11031935 0.10951578 0.04654814 0.12462847 0.03784302
0.18051533 0.16620034 -0.003061673 -0.08398934 0.00924058 -0.20148328 -0.078194864 0.0055540125
0.014982958 0.12144563 -0.053431913 0.17145917 -0.07903811 -0.12567173 0.11931149 -0.078996226
0.023141492 -0.06857933 -0.11875335 -0.021206012 0.059810787 0.10215627 0.13429657 0.0128294425
0.12214593 -0.0015067002 0.019324608 0.027092753 -0.01819765 0.05469108 0.004736632 0.15167415
0.0012834977 -0.10187007 0.048455935 -0.12995718 0.085645 0.12769988 0.019923417 -0.025111478
-0.037367176 0.063269004 -0.10830845 -0.05007341 -0.117426716 -0.2090666 -0.12061735 -0.12327763
0.18481265 0.0869342 -0.13983019 -0.17528415 0.1570818 0.06269387 0.10146642 -0.012362512
00000000: 5edd aa3d 47f5 c3bd bbad 373d 5e36 58bd
00000010: 710e 16be 929f f2bb 7fde 9f3d 132a ca3d
00000020: 3db6 a0bd 1f30 ca3d 270a d3bd 0a2b 61bd
00000030: 38f0 8ebd 80ae 4f3e 367b a93d 5985 73bd
00000040: f818 6e3d 892b 323e e697 dc3d b923 333d
00000050: 4cd6 f8bd b060 a2bd 35c1 0abe 0821 e13c
00000060: 1077 06be 6fba debb 6f0f cdbc c429 c63d
00000070: 615f c0bd d44f 6d3e 95b1 6cbd 89d2 e2bb
00000080: 2cfc 15bd 5e47 d93d 98c7 173e d8ee 003e
00000090: 03db 39be e09d 693d 3ef2 403e 03b8 05be
000000a0: 82ad 133d d97b 3f39 f6a7 823d 88bc 403e
000000b0: a5b1 3abd 3585 a5bc 9fc5 b8bd 8cb3 b13d
000000c0: c943 8a3c d173 c8bd 9a95 24bd bdc3 173e
000000d0: 8cc3 923d dc87 1e3e f2c9 13be d4b5 e53d
000000e0: 3ad6 553d 382c e2bd 2d88 883d ac38 0e3e
000000f0: 178b c1bd 0d6c e7bc 056c 333e ea71 2cbe
00000100: 67b4 713d 10ff 04bd 5f7f 24be d523 a5bd
00000110: 64c9 c63d ec03 c83d 56f3 ad3d cd20 2dbe
00000120: 9b4e 30be c4cb 163e 7813 1c3e d576 033e
00000130: 9f13 bf3d b0fc 273e c15b 8cbd 3a24 8f3c
00000140: 3c35 0fbe 8c81 12bd 4514 81bd 37f4 2dbe
00000150: 6ea5 ec3c 5402 c43a 7748 893d 20e2 973d
00000160: 5799 f5bd 85c4 70bc f0bb f83c c073 74be
00000170: 982f 643e 1366 3e3e d783 60be 097a 7dbd
00000180: 8f94 a8bd 4fc9 5cbd 6c88 633d e15b 8b3d
00000190: 69b6 5e3d a429 453d b053 cbbd 2cc0 a7bd
000001a0: df8e c43d f730 1f3e 77c2 6b3e 6513 2a3e
000001b0: 095b ea3d 62f6 613e 453d 523d ab4c aa3d
000001c0: dfdd db3d bd35 243d 8cfc f73c 8862 973c
000001d0: c373 663d 5c8a 8f3d bc1f 823e a0c0 783e
000001e0: 01c2 e43c bb3b 20bc 0961 30bd 4628 063e
000001f0: e132 19be 1adb 5dbe 32e1 d23c 92ef 4ebe
00000200: 6c60 d23d 3f83 b6bd 6a67 e3bc 57c9 d9bd
00000210: 55cc e63d c891 ebbd a69f 453c 049d 11bb
00000220: cdb4 23be 28ed 223e e1e8 623d b40f 09be
00000230: 846d 56be d4a5 e83d 50ba 453e 932b 9abb
00000240: 66f0 9fbd 3f7f 41be 9e0f 093e 4321 e0bd
00000250: 1918 69bd 7bef c73d d02e 033e e64f a53d
00000260: 4f7e ea3d e241 173e bc46 483b cc56 65bd
00000270: 9814 06bd 4500 1cbe 9122 b33d cd92 1bbe
00000280: 9974 873d 5c1f 45be 9ac2 32be 499a 843c
00000290: 1a6a 223e da7a 2dbe 2539 53bd 81c5 573a
000002a0: 62f9 9dbd b78c c53d c12d 2e3e a64f 0c3e
000002b0: c5c1 e2b8 b194 0abe 3d99 1fbe f2c5 8cbd
000002c0: 9a28 bbbd c749 3ebe 5ce1 b13d f99d 5fbd
000002d0: 7ca9 983d e837 17bd a62d ae3c 608b 99bd
000002e0: 28f8 d73d 32d6 5dbe 18ac 07be 068e 7a3b
000002f0: 1a79 e7bc d168 1abc 1e23 ad3d 151e 08bc
00000300: 662e 50bb a0a2 da3d 5246 14be 1def e1bd
00000310: cf49 e03d 43a9 3e3d 363d ff3d 4801 1b3d
00000320: 03d9 383e 6c30 2a3e 59a6 48bb 9a02 acbd
00000330: cd65 173c a251 4ebe a124 a0bd 6ffe b53b
00000340: 157b 753c 7db8 f83d 6cdb 5abd fe92 2f3e
00000350: bcde a1bd 17b0 00be 9559 f43d c6c8 a1bd
00000360: 3a93 bd3c 5273 8cbd f534 f3bd 3bb8 adbc
00000370: 28fc 743d 4e37 d13d 0a85 093e 9532 523c
00000380: a527 fa3d 787c c5ba a44e 9e3c 9ff1 dd3c
00000390: 3d13 95bc c103 603d c035 9b3b 7850 1b3e
000003a0: 093b a83a 41a1 d0bd bb79 463d 7f13 05be
000003b0: a566 af3d c2c3 023e 6f36 a33c 96b6 cdbc
000003c0: 530e 19bd 2e93 813d d2d0 ddbd c719 4dbd
000003d0: 6b7d f0bd 8e15 56be 3b06 f7bd fb78 fcbd
000003e0: 873f 3d3e 8f0a b23d a52f 0fbe b07d 33be
000003f0: 0dda 203e a565 803d a0cd cf3d 228c 4abc

lstm.bias_ih_l1 f4 [120]
-0.14139172 0.11456024 0.1198781 0.028065747 -0.20805828 0.017781068 -0.17588611 -0.021435047
-0.14818643 0.10476783 -0.057205826 -0.029562684 0.035347227 0.036917422 0.15371905 -0.061671972
-0.18563785 0.03972465 -0.10661931 -0.06915382 -0.04701283 0.08901697 0.04827854 -0.03633438
-0.1415462 0.11967954 0.007239679 -0.18339953 -0.0961847 -0.22048748 -0.07583296 -0.22272156
-0.19956838 -0.15996163 -0.072810695 0.0014386753 -0.20774099 -0.107095286 0.003843536 -0.00532864
-0.012510714 -0.20335759 -0.04177114 -0.034185667 -0.140268 -0.1919231 -0.0601625 -0.01707598
0.11077066 0.020532606 0.020710321 -0.18453407 -0.12922557 -0.031039303 -0.09782491 -0.10132994
-0.0027891768 -0.122689016 -0.13109729 -0.13787496 0.0030657381 0.042451363 -0.070029736 0.024476305
-0.15042542 0.16722755 0.15263903 0.14979264 -0.2027326 0.15494718 0.09395204 0.13068159
0.16521041 -0.0840441 0.052951626 -0.02050447 0.028380489 -0.22934687 -0.053008065 -0.17538078
-0.12405253 -0.12783775 -0.137951 0.028143665 0.19587247 -0.04034777 -0.051952384 0.1263243
0.04196711 0.08975198 -0.015139631 -0.026633231 -0.19716458 -0.028331894 0.023932584 0.0010936123
-0.05674056 -0.060746465 -0.0064774747 -0.023979722 -0.07647621 -0.2631383 0.0685023 -0.17765817
0.08704572 0.019919831 0.029971093 -0.06025899 -0.045937628 0.07658614 -0.16244061 -0.2065979
0.017039994 0.16456975 0.089481175 0.064178474 -0.18718517 0.09126559 -0.18678923 -0.0052826675
00000000: fec8 10be 8f9e ea3d a682 f53d 23ea e53c
00000010: 3b0d 55be 9aa9 913c 7d1b 34be 8d98 afbc
00000020: 2fbe 17be 8490 d63d a850 6abd 712d f2bc
00000030: 41c8 103d b936 173d 8768 1d3e c09b 7cbd
00000040: d917 3ebe 51b6 223d 3a5b dabd 85a0 8dbd
00000050: 8690 40bd 874e b63d b8bf 453d 5cd3 14bd
00000060: 7df1 10be 8c1a f53d d43a ed3b 16cd 3bbe
00000070: 7cfc c4bd 78c7 61be 504e 9bbd 1f11 64be
00000080: a75b 4cbe fbcc 23be c61d 95bd ef91 bc3a
00000090: 0eba 54be c654 dbbd d5e3 7b3b df9b aebb
000000a0: bdf9 4cbc f93c 50be 3718 2bbd 4506 0cbd
000000b0: 6aa2 0fbe 7d87 44be f46c 76bd ede2 8bbc
000000c0: badb e23d ff33 a83c b1a8 a93c 80f6 3cbe
000000d0: b553 04be 2346 febc 6d58 c8bd 1286 cfbd
000000e0: 9fca 36bb 6144 fbbd 5e3e 06be 182f 0dbe
000000f0: 8dea 483b 7be1 2d3d c06b 8fbd 8882 c83c
00000100: 1f09 1abe b33d 2b3e 684d 1c3e 3e63 193e
00000110: 2299 4fbe 79aa 1e3e ed69 c03d 65d1 053e
00000120: eb2c 293e 501f acbd cee3 583d fef8 a7bc
00000130: 337e e83c e8d9 6abe fc1e 59bd 0597 33be
00000140: 410f febd e6e7 02be 0743 0dbe 8b8d e63c
00000150: cb92 483e b443 25bd 06cc 54bd 285b 013e
00000160: b4e5 2b3d e3cf b73d 370c 78bc ef2d dabc
00000170: 83e5 49be 4a18 e8bc 440e c43c 8a57 8f3a
00000180: ca68 68bd 49d1 78bd ff40 d4bb 1f71 c4bc
00000190: 8f9f 9cbd 10ba 86be ef4a 8c3d 06ec 35be
000001a0: 0745 b23d ea2e a33c f085 f53c 21d2 76bd
000001b0: 1829 3cbd 32d9 9c3d d556 26be 668e 53be
000001c0: 7597 8b3c f984 283e e841 b73d 0170 833d
000001d0: 78ad 3fbe 74e9 ba3d ad45 3fbe 3a1a adbb

lstm.bias_hh_l1 f4 [120]
0.116108984 -0.10074981 -0.19280116 -0.2172064 -0.09769988 -0.05083603 0.12833135 0.0005760003
-0.13063082 -0.02861586 -0.087687664 -0.04327925 0.05133969 -0.18898375 0.09766844 0.033295907
-0.06694675 -0.15318346 0.07825795 -0.21826525 0.031055812 -0.045341846 -0.1387265 -0.07994134
-0.014032487 -0.15278417 -0.09932217 0.11071546 -0.10178656 -0.20743456 0.11321387 0.048101224
0.10334068 -0.08850277 -0.21276027 -0.1250301 0.08004769 0.014699646 0.115472816 0.030554349
-0.19047293 -0.24217191 -0.052814208 -0.2170361 -0.09613224 -0.055825964 -0.12778269 0.1255089
-0.12585767 0.049020175 -0.1685212 -0.13987465 0.07278677 0.016538713 0.12869829 -0.22251523
-0.15728758 -0.16669255 0.07392648 0.020238236 -0.016014596 0.18628523 -0.17229879 -0.20363724
0.16048285 -0.012509416 0.22229967 0.10954077 0.02117099 -0.092744105 -0.06811937 0.17227201
0.14068525 -0.047181927 0.15694873 -0.07096161 -0.029864348 -0.022875842 0.109710746 0.17207383
0.16691376 -0.097945094 -0.06631207 -0.1884583 0.04865194 0.029973796 -0.13751249 0.22650284
-0.08028502 -0.2589005 -0.13106443 -0.076316014 -0.20879473 0.022316176 -0.008390095 -0.17023069
-0.034268714 -0.19509923 0.014491615 -0.01862607 -0.054352555 -0.083588384 -0.10838794 0.04774818
-0.09981758 -0.05907449 0.094592325 -0.0018039349 -0.17248869 0.13486692 -0.16677842 -0.15605345
0.010692658 -0.12014885 -0.041281752 0.018655472 0.0109294765 -0.13166733 0.08171728 0.048788942
00000000: 8cca ed3d eb55 cebd ab6d 45be 5b6b 5ebe
00000010: e016 c8bd 7139 50bd 4b69 033e bafe 163a
00000020: 16c4 05be cf6b eabc 9795 b3bd 9545 31bd
00000030: 9149 523d f584 41be 6406 c83d 4a61 083d
00000040: 611b 89bd 20dc 1cbe b445 a03d ed80 5fbe
00000050: c268 fe3c 5fb8 39bd 520e 0ebe 49b8 a3bd
00000060: 84e8 65bc 7473 1cbe 6c69 cbbd c9be e23d
00000070: 7975 d0bd ba69 54be acdc e73d ca05 453d
00000080: 47a4 d33d f140 b5bd d4dd 59be e407 00be
00000090: 0bf0 a33d c9d6 703c 037d ec3d 1d4d fa3c
000000a0: 560b 43be eafb 77be b653 58bd b63e 5ebe
000000b0: fbe0 c4bd c4a9 64bd 77d9 02be 6885 003e
000000c0: d5e0 00be 61c9 483d d290 2cbe 4d3b 0fbe
000000d0: 3b11 953d 327c 873c 7cc9 033e 08db 63be
000000e0: ff0f 21be 74b1 2abe c466 973d a8ca a53c
000000f0: 0b31 83bc 8ec1 3e3e 186f 30be 4886 50be
00000100: 9e55 243e 4bf4 4cbc 86a2 633e e956 e03d
00000110: c96e ad3c 9ff0 bdbd 2b82 8bbd 1368 303e
00000120: cb0f 103e d641 41bd 2bb7 203e 5254 91bd
00000130: 14a6 f4bc 1e66 bbbc 07b0 e03d 1f34 303e
00000140: 71eb 2a3e 7097 c8bd 9fce 87bd 36fb 40be
00000150: 4247 473d 9b8b f53c 13d0 0cbe 5cf0 673e
00000160: 796c a4bd 9b8e 84be c135 06be 924b 9cbd
00000170: 49ce 55be 6ad0 b63c 9c76 09bc f450 2ebe
00000180: 5a5d 0cbd 18c8 47be 3d6e 6d3c b395 98bc
00000190: c9a0 5ebd 6330 abbd 7ffa ddbd 9893 433d
000001a0: 296d ccbd 18f8 71bd 9fb9 c13d 0372 ecba
000001b0: e0a0 30be 8e1a 0a3e f6c7 2abe 7acc 1fbe
000001c0: 4230 2f3c 9a10 f6bd 0e17 29bd 5cd3 983c
000001d0: 8c11 333c cdd3 06be 645b a73d ead6 473d

batch_norm.weight f4 [30]
0.94874924 0.86327344 0.92421514 0.9612967 0.9785001 0.94358045 0.9019496 0.965213
0.9639116 0.95969 0.9567302 0.938833 0.8764344 0.94087887 0.8332185 0.95268863
0.9778553 0.8914434 0.9655121 0.96639806 0.9569082 0.9232076 0.937239 0.9725719
0.95337725 0.9577491 0.9477678 0.8821555 0.9305253 0.9492425
00000000: 3be1 723f 7dff 5c3f 5d99 6c3f 8a17 763f
00000010: fc7e 7a3f 7d8e 713f 2be6 663f 3318 773f
00000020: e9c2 763f 3eae 753f 45ec 743f 5c57 703f
00000030: 015e 603f 70dd 703f cf4d 553f 67e3 733f
00000040: ba54 7a3f a235 643f cd2b 773f dd65 773f
00000050: f0f7 743f 5557 6c3f e5ee 6f3f 79fa 783f
00000060: 8810 743f 0c2f 753f e9a0 723f f1d4 613f
00000070: e836 6e3f 8e01 733f

batch_norm.bias f4 [30]
-0.13000527 -0.19638807 -0.12436356 -0.12578228 0.118989155 0.11464182 0.13343664 0.11742416
-0.117734216 0.18846941 -0.12943074 0.11757392 0.16485003 -0.12042681 0.18343723 0.13691987
-0.1312144 -0.1658616 -0.121041745 0.11860594 -0.119684435 -0.112974085 -0.112743005 -0.12984574
-0.115856074 0.14572503 0.115846306 0.20061679 0.14525329 0.11572159
00000000: 1a20 05be f419 49be 52b2 febd 12cd 00be
00000010: 96b0 f33d 55c9 ea3d 9da3 083e 147c f03d
00000020: a31e f1bd 20fe 403e 7e89 04be 98ca f03d
00000030: 72ce 283e 55a2 f6bd f8d6 3b3e b934 0c3e
00000040: 115d 06be a0d7 29be bce4 f7bd ace7 f23d
00000050: 1d1d f5bd f55e e7bd cee5 e6bd 48f6 04be
00000060: f345 edbd f138 153e d440 ed3d 7d6e 4d3e
00000070: 47bd 143e 71ff ec3d

batch_norm.running_mean f4 [30]
-0.011351379 0.027972087 -0.08311969 -0.056838177 0.0121966675 0.11700219 0.1440464 0.12947065
-0.10964729 0.00018694374 0.033861384 0.08290638 0.16906929 -0.033161286 0.21663108 -0.032813095
-0.012486981 -0.12133827 -0.036190797 -0.030086622 0.02304697 -0.11872812 -0.096059926 -0.049721595
0.12015559 0.016616544 -0.027585438 0.10517374 -0.009277547 -0.077618845
00000000: 22fb 39bc b825 e53c a83a aabd 26cf 68bd
00000010: 88d4 473c d89e ef3d e680 133e f493 043e
00000020: c28e e0bd 5406 4439 3cb2 0a3d d2ca a93d
00000030: 8020 2d3e 21d4 07bd 8ad4 5d3e 0667 06bd
00000040: 3296 4cbc 3380 f8bd cd3c 14bd 3878 f6bc
00000050: 00cd bc3c bb27 f3bd 11bb c4bd dfa8 4bbd
00000060: 2214 f63d 6b1f 883c dbfa e1bc 5465 d73d
00000070: da00 18bc a1f6 9ebd

batch_norm.running_var f4 [30]
1.0086108e-07 4.2564827e-07 4.7858055e-08 7.543888e-08 3.5507373e-08 6.909474e-08 1.4005421e-07 4.3698165e-08
4.6548376e-08 1.2381155e-07 5.0650453e-08 5.965528e-08 5.0567746e-07 5.790789e-08 6.508031e-05 4.6451422e-08
9.24185e-08 2.0455413e-07 5.8740834e-08 3.0223962e-08 4.7351293e-08 7.871984e-08 4.625001e-08 1.252167e-07
8.880991e-08 5.0885042e-08 7.557206e-08 7.107931e-08 6.173084e-08 3.9738257e-08
00000000: f798 d833 a784 e434 7d8c 4d33 f600 a233
00000010: c580 1833 3c61 9433 cf61 1634 a4ae 3b33
00000020: 7bec 4733 0ff1 0434 c38a 5933 d61b 8033
00000030: e4bd 0735 66b6 7833 ba7b 8838 e181 4733
00000040: 9c77 c633 69a3 5b34 3b4a 7c33 99cf 0133
00000050: 4c5f 4b33 b10c a933 6ca4 4633 4e73 0634
00000060: c4b7 be33 b28c 5a33 2e4a a233 44a4 9833
00000070: e390 8433 adac 2a33

fc.weight f4 [1, 30]
-0.12377053 -0.06022905 -0.10463064 -0.13791682 0.20620479 0.14959177 0.078155234 0.19866715
-0.230886 0.09857884 -0.15554571 0.13511261 0.047375698 -0.19229092 0.019510472 0.15634963
-0.108553134 -0.08743527 -0.17349246 0.19234167 -0.23660526 -0.114749834 -0.14879917 -0.13621424
-0.10879208 0.14797077 0.1746709 0.11007089 0.10540866 0.15682276
00000000: 677b fdbd bdb2 76bd 9748 d6bd 113a 0dbe
00000010: 5927 533e 962e 193e da0f a03d 676f 4b3e
00000020: 616d 6cbe b4e3 c93d 6047 1fbe f65a 0a3e
00000030: 050d 423d e9e7 44be 6dd4 9f3c 1e1a 203e
00000040: 1b51 debd 4311 b3bd 02a8 31be 37f5 443e
00000050: a648 72be f601 ebbd cf5e 18be bf7b 0bbe
00000060: 62ce debd a685 173e eedc 323e d96c e13d
00000070: 7fe0 d73d 2596 203e
