result/lstm_weather_model.pth (torch, 277153 bytes, 5 tensors)

lstm.weight_ih_l0 f4 [512, 4]
000000 e8 3b c8 3d 31 cd c3 bd 79 72 87 3c a9 18 37 3d
       0.09777051 -0.095606215 0.016534077 0.044701252
000010 95 cb 98 3d 06 eb a8 3d 17 b9 fa b9 10 a7 de 3c
       0.07460705 0.08247952 -0.00047821619 0.027179271
000020 12 be 0b 3c 42 71 81 bc ca 65 02 3b 1a 08 85 3d
       0.008529203 -0.015801076 0.0019897097 0.06495686
000030 ad d4 1b bd ed 1f 8b 3c 5e 23 97 3d ba 14 73 bd
       -0.03804462 0.016982997 0.07379793 -0.05934594
000040 a7 36 b3 3d 92 df de bd 6a 63 65 bd 5d a9 38 3c
       0.087506585 -0.108824864 -0.05600301 0.011270848
000050 22 c2 2a 3e 20 b1 46 3d a4 e0 8b 3d ba 3a 0d 3d
       0.16675618 0.048508763 0.06829956 0.034479834
000060 06 f4 40 3c 88 d0 e8 3d a8 3e 60 bc 20 e5 51 3c
       0.01177693 0.11367899 -0.013686813 0.012810975
000070 d7 92 cd 3d eb b0 d3 3d 53 3d 79 bd 97 48 d2 bc
       0.10037773 0.10336479 -0.0608495 -0.02566938
000080 e6 bd 44 3d c3 13 33 3e 12 20 ea 3d 37 08 1b 3d
       0.048032664 0.17488007 0.11431898 0.03784963
000090 c2 ed 64 bc 67 fc ba 3d da fb 5c bd aa eb 2b bc
       -0.0139727015 0.09130173 -0.053951122 -0.010493198
0000a0 80 ae 22 3e a9 5d cd 3d 4b 5c 11 bd 17 8e 6e 3d
       0.15886879 0.1002763 -0.035488408 0.058240976
0000b0 fd 5f 28 3e 02 b2 b8 bd 73 58 ee 3c 03 e5 9d 3c
       0.16442867 -0.09018327 0.02909491 0.01927424
0000c0 7f c1 61 3d 33 56 76 3c e2 6a 89 bc 5e ab f6 3d
       0.055116173 0.0150352 -0.016774599 0.120444044
0000d0 99 7f 15 3e d0 b2 3f 3d 7e e7 f5 3c 2f 2c 6f 3c
       0.14599456 0.04680139 0.03001761 0.0145979365
0000e0 59 3e 1d 3e ea ea a2 3d 94 4e 74 bd 50 96 5e bd
       0.15355815 0.079549626 -0.05964525 -0.054342568
0000f0 6e c6 fa 3d f9 a2 48 bd b7 cd 7f 3d 1c 2d 6f bd
       0.12244879 -0.048983548 0.062452044 -0.05839263
000100 e3 9c d2 bc 37 b0 bb bb a5 7a c1 bd cb 32 c8 bd
       -0.025709575 -0.0057277936 -0.09447221 -0.09775313
000110 39 2d 28 3e 17 29 e5 bc cb 98 28 3c 52 93 3a 38
       0.16423501 -0.027973695 0.010290335 4.448306e-05
000120 9d f9 c2 3d b7 fa 1c bd 4c c6 0f bd ac 25 0b 3d
       0.09520266 -0.038325038 -0.03510122 0.033971474
000130 c5 6d 00 3e 6b c1 07 3e b5 95 db 3d 38 90 f3 3d
       0.12541874 0.13257377 0.10721914 0.11892742
000140 94 4d 28 bd da df 63 3c a0 4c c0 bd 29 ba ef 3c
       -0.04108961 0.013908351 -0.09389615 0.029263573
000150 71 b5 60 3d 92 b2 a0 bc 79 5b 01 3d f1 b9 30 3c
       0.054860536 -0.019616399 0.031581376 0.010786519
000160 55 e9 a2 3d 8b 90 8c 3d 5b 5a ae 3c 9f 0d cb 3b
       0.07954661 0.06863507 0.02128332 0.006196692
000170 09 bd eb 3d c7 77 96 3d a0 cd 2d bd 5b 80 bb 3c
       0.11510665 0.073470645 -0.042432427 0.022888353
000180 92 53 31 3c 4a a3 f1 3b c7 46 c9 3d a1 7d 29 3d
       0.010823147 0.007374202 0.09827953 0.041379575
000190 3f 5a 9a 3c 03 bd f5 3a 3b c3 30 3d 43 7a 1b 3d
       0.01884186 0.0018748346 0.043154936 0.037958395
0001a0 3e d0 fa 3c cd 22 c9 bb 4a 50 c7 bd cc 56 2c 3c
       0.030616876 -0.006138182 -0.09732111 0.010518741
0001b0 d3 9e cb 3d d2 e6 ce bd 86 51 4c bc 12 2b 6b bd
       0.09942403 -0.10102619 -0.012470609 -0.057414122
0001c0 6b 93 6d 3d 49 6e 10 3d 86 1c 50 3b 56 e7 07 bd
       0.058001917 0.035261426 0.0031755283 -0.033179604
0001d0 b2 6b 1f bd 0c f0 5d bd 7e 96 b1 b9 78 3e 0e be
       -0.038921066 -0.054184005 -0.00033872196 -0.13891017
0001e0 ef e0 9c 3d 38 76 7f 3c 0c 81 82 bd 3a 32 c1 bb
       0.0766009 0.01559215 -0.0637227 -0.00589588
0001f0 bd e6 30 3e 91 f2 b3 3c 64 5d 7b bc 24 56 30 3c
       0.1727552 0.02196625 -0.01534209 0.010762725
000200 1e c4 b7 3d 35 e0 5c be 50 e2 0b be 88 7d 14 be
       0.08972953 -0.21569903 -0.1366055 -0.14501011
000210 4d bb 99 3e 78 83 d7 3e 02 c8 da 3e c9 42 e6 3e
       0.30025712 0.4209249 0.4273072 0.44972828
000220 26 8d 97 3c cf 87 d5 bc 13 29 19 be e0 f0 be bd
       0.018499922 -0.026065735 -0.14957075 -0.09323287
000230 6f 14 bc 3d f8 2b 8c bc b6 09 c0 3d 0b 3d fe 3d
       0.09183585 -0.01711081 0.09376852 0.12413987
000240 76 29 6e 3d e1 32 3d 3d a6 fe dd 39 54 34 33 3c
       0.05814501 0.0461911 0.00042342133 0.010937769
000250 c7 81 76 3d 17 c6 d2 bc a6 6b 26 bd bc 8d 61 3d
       0.06018236 -0.025729222 -0.040630005 0.05506681
000260 17 81 19 3e 9e eb b0 3c ab bb a2 3d 33 cb e6 bc
       0.1499065 0.021596726 0.07945951 -0.028173065
000270 0d fa c7 3d 61 a5 99 bd 64 93 b7 bd 17 17 e4 3c
       0.0976449 -0.07502247 -0.089636594 0.027843041
000280 8c 14 eb 3d 33 65 49 3d 8d 90 a4 bd d3 8b 86 3d
       0.114785284 0.049168777 -0.080353834 0.06569638
000290 98 b2 c6 3d c4 c7 53 bc f4 e5 31 bd 39 94 62 bd
       0.09702033 -0.012926046 -0.04343219 -0.055317137
0002a0 e5 7b ab 3d 47 d1 af bd bb e7 9e bd 57 78 4d bc
       0.083732404 -0.08584838 -0.07759043 -0.012540898
0002b0 f5 e6 be 3b 79 68 db bd 86 b2 0a be 43 00 4e 3c
       0.005825872 -0.10713286 -0.13544664 0.012573305
0002c0 ac b1 39 3d e8 5c f5 3c b3 8b a8 bd 4d c1 e7 3c
       0.045335457 0.029951528 -0.082297705 0.028290415
0002d0 63 35 89 3d fb 08 9f 3d b1 dd 8b 3d 7c 61 9e bd
       0.06699636 0.07765385 0.06829394 -0.077334374
0002e0 41 71 d0 3d ca ac 97 bd 79 60 a2 bd d5 d0 8d bc
       0.101778515 -0.07406004 -0.07928557 -0.017311493
0002f0 88 ab f2 3c 1a d6 a6 3c ff 76 cf 3c 2b c4 72 3c
       0.029622808 0.020365763 0.025325296 0.014817278
000300 e7 bd da 3c d6 4c 6c bd 83 30 a1 3d 6e c3 75 3d
       0.02670188 -0.057690464 0.07870581 0.06000083
000310 32 de 43 3e 21 fd 03 be a7 bd ac bc f4 40 9b bd
       0.1912773 -0.1288953 -0.021086527 -0.07580748
000320 af ad 34 3d 0e 3c 40 3c ca b0 6f 3d d0 f4 fc 3b
       0.04411095 0.011733068 0.05851821 0.0077196136
000330 28 5e 37 bd 6e e9 58 3c 59 98 a1 3d d5 e3 a1 3d
       -0.04476753 0.013239248 0.07890386 0.07904784
000340 ac 81 13 3e 1b ff aa 3c 92 46 82 bd ec 87 7c 3d
       0.14404935 0.020873597 -0.063611165 0.061653063
000350 06 f1 16 3e 7b 5c 31 bd 2c 6b 3d bc 08 5b 1d 3d
       0.1474038 -0.043301087 -0.011561196 0.038416892
000360 ba 89 15 3d 2c fc 80 3d db be 89 3d da a3 18 bc
       0.0365083 0.06298098 0.06725856 -0.009316409
000370 f7 df ec 3d a9 cb a1 3d fe ea 7e bd 1e ed 81 bd
       0.115661554 0.07900173 -0.062235825 -0.06344055
000380 a0 23 cf 3d 6f 5e 6b 3e 26 cc 2c bd 78 1b a3 3d
       0.10114217 0.22985242 -0.04218688 0.079642236
000390 85 f5 e2 3d 74 25 85 bd 4f 30 e3 bd 13 3f 55 bd
       0.110819854 -0.06501284 -0.110931985 -0.052062105
0003a0 e7 f0 07 3e 0c e9 88 bd 6a a8 d4 bb 01 00 19 bd
       0.1327549 -0.06685075 -0.006489803 -0.03735352
0003b0 c9 26 b1 3d c9 4a d5 bd 4a cf 97 bd b6 bc b9 3d
       0.08649976 -0.10414655 -0.07412584 0.09069197
0003c0 1b 01 16 3e 2d f1 f4 bc da 34 c6 3d 5b 32 ec 3d
       0.14648859 -0.029900158 0.096780494 0.11533042
0003d0 c6 5b e0 3d c4 7c 7c 3d 7b fa 87 3d 08 47 5a 3c
       0.109550044 0.061642423 0.06639572 0.013322599
0003e0 ef a4 11 3e db 8d 90 bd 68 b8 a3 3d b7 67 86 bd
       0.14223073 -0.07058307 0.07994157 -0.06562751
0003f0 13 7a bc 3d 95 9f ce 3c c5 09 ad bc 48 c2 88 3d
       0.09202971 0.025222579 -0.021122823 0.06677681

lstm.weight_hh_l0 f4 [512, 128]
000000 5a 81 3d 3d af 2e 72 3d 71 24 65 3b 95 3c ca bc
       0.046265937 0.059126552 0.0034964348 -0.02468709
000010 cd 8b c3 bd d2 d9 07 bd 1d 77 33 3d 28 b4 d0 bc
       -0.09548149 -0.033166714 0.043814767 -0.02547653
000020 47 ff 2d bd 6d 9c 46 3b e0 79 e8 3d 58 e1 5d bd
       -0.04247978 0.003030564 0.11351371 -0.054169983
000030 46 0f 9d bd e1 ca e9 bd 5a 53 de 3d 4c 31 d8 3c
       -0.07668929 -0.11415649 0.10855742 0.026390694
000040 64 37 cd 3c e2 35 8b bd 0a 80 ba bd d5 52 35 bd
       0.025050826 -0.06797387 -0.09106453 -0.044268448
000050 ba 21 a5 bd e0 26 ad 3a 6b 4a 05 3d 2e 36 80 bc
       -0.080630735 0.0013210438 0.032541674 -0.015650835
000060 90 02 95 3d 5c f3 bb bd 04 63 3e 3d 5a 4d 84 bb
       0.072758794 -0.091772765 0.046481147 -0.0040375413
000070 30 46 65 bd 7e d2 5d bd 14 ac 34 3d e1 e2 8d 3a
       -0.05597514 -0.05415582 0.04410942 0.0010825061
000080 d3 7b 5f 3d bb 4f 55 3d 16 cb a1 bb da 10 63 3d
       0.054561447 0.05207799 -0.00493754 0.055435993
000090 09 a7 92 3d 4c 6a 19 bd 81 4f 10 3d 90 3a 9d bd
       0.07160766 -0.03745489 0.03523207 -0.076771855
0000a0 06 df 6e bd 99 3b 89 bd 39 14 15 3d 8b f3 a0 bd
       -0.05831816 -0.067008205 0.03639624 -0.07858952
0000b0 b7 fa 70 bd 24 04 d7 3d 5f 26 2e 3a 4d 8e da 3d
       -0.05883285 0.10498837 0.0006643291 0.10671673
0000c0 ae fc 3a bb 8b e8 b6 bd ed 7f a3 3d 34 42 4c bc
       -0.0028531956 -0.08931073 0.07983384 -0.012466956
0000d0 fd ab bc 3d 97 80 be 3c 7b a3 13 3d 3e 4d e6 bc
       0.09212492 0.023254676 0.03604458 -0.028113004
0000e0 64 8a d9 3d 4c 16 23 3d 08 aa 87 bd 2d 6a de bb
       0.10622099 0.039816186 -0.06624228 -0.0067875595
0000f0 aa 78 9c bd fe 1c 8a bd f0 e7 32 bd c8 8d 02 bd
       -0.07640202 -0.06743811 -0.043678224 -0.031873494
000100 b5 d8 58 3d af 7f 82 bd 65 a3 52 bc e0 90 dc bd
       0.052941043 -0.0637201 -0.012856339 -0.1076982
000110 69 ae be bd b9 3a df bd 5e b8 a6 3d 13 12 87 bd
       -0.0931061 -0.10899872 0.08140634 -0.06595244
000120 8d e3 47 3d 90 24 e1 bd b4 03 c5 bd a8 b6 82 bd
       0.048800994 -0.10993302 -0.09619847 -0.06382495
000130 0d 1c 80 bd 51 5f ca 3d 3f 90 8e 3d ff e4 32 3d
       -0.0625535 0.098814614 0.069611065 0.04367542
000140 5c d6 f6 bc 11 50 0c bd 8b ea 95 3d d2 5c 2b 3d
       -0.030131511 -0.034256045 0.07320126 0.041836567
000150 95 7a 6b 3c ab a6 af 3d d9 b2 8a bd a2 62 78 3d
       0.014372488 0.08576711 -0.06772394 0.06064094
000160 7f 7a 24 bd fd 43 49 3d ba c4 26 bd e9 ce 16 bd
       -0.040155884 0.049137104 -0.040714957 -0.03681842
000170 7b d3 eb 3c 2a f7 41 3d 58 4d 3c bd 53 20 33 3d
       0.028787365 0.047354855 -0.0459722 0.043732
000180 98 5f 38 bd 8d 33 71 bd 8b 1f 45 3d ad 8e 23 3d
       -0.04501304 -0.058887053 0.048125785 0.039930988
000190 76 bb 9c bc bb 07 e8 bc 75 02 65 bd 44 1c 74 3d
       -0.019132357 -0.028323999 -0.055910546 0.05959727
0001a0 95 a3 59 3c 9c 9d 56 3d bc 27 fd 3c ac 99 92 bd
       0.01328363 0.0523964 0.030902736 -0.07158217
0001b0 01 9a 1e bb 76 64 8c 3b db ff e9 3c 67 06 a2 bd
       -0.002420068 0.004284437 0.028564384 -0.079113774
0001c0 91 ca 9d bd 8b d3 29 3d 85 83 e6 bc 7f 36 1f 3d
       -0.07704652 0.04146151 -0.028138885 0.03887033
0001d0 c3 85 51 3d 92 05 98 bd 0c c3 73 bb 8c 7e 67 bd
       0.051152956 -0.074229375 -0.0037195114 -0.05651717
0001e0 47 5f ba 3d cf 97 83 3d a6 36 ca bb 1d 7d 28 bb
       0.09100204 0.064254396 -0.0061710654 -0.002570934
0001f0 8b ac 0a 3d 19 dd cf 3d 91 aa 80 bb 2f a9 64 3d
       0.033855956 0.10149593 -0.003926583 0.05582541
000200 f2 8b 11 3d 77 10 91 bd 31 31 33 bd 32 2e 63 3c
       0.035533853 -0.070832185 -0.043748084 0.013865994
000210 b8 f9 89 3d 4b 59 48 bd 20 0c 9a bc 43 83 0b bc
       0.06737083 -0.04891328 -0.01880461 -0.008515182
000220 25 40 09 bd b1 12 81 3d a2 84 3e 3d ef 5d 3d 3d
       -0.03350844 0.06302393 0.046513207 0.04623216
000230 1d 62 7e 3d 07 81 20 3d 84 2b 2e 3c e9 b6 19 bd
       0.062105287 0.03918555 0.010630492 -0.037527952
000240 48 c4 d3 3d 70 7f 7c 3d a1 d6 a4 3d 3a 23 94 3c
       0.10340172 0.06164497 0.0804875 0.018083204
000250 0a 4e b9 3b 80 4f 9f bd c1 67 51 3d bb fd aa bd
       0.005655055 -0.07778835 0.051124338 -0.083491765
000260 6c 4d 17 3d 14 5a c4 3b d3 4a 96 bd 32 5d 85 bd
       0.03693907 0.0059921835 -0.0733849 -0.06511916
000270 f6 2a d9 38 38 a4 97 3d 01 ab 27 3d 6e 1a 4d 3d
       0.000103553684 0.07404369 0.040934566 0.050074033
000280 65 bd 27 bd 92 e0 93 3d ec 9e 94 3d 65 2b 0b bd
       -0.040952105 0.07220568 0.072568744 -0.03397693
000290 d2 a5 93 bc a7 38 f7 bc a7 14 3d bd 5b dd 9e bb
       -0.018023405 -0.030178381 -0.046162274 -0.004848165
0002a0 cc 03 69 3d 85 e7 d8 3c f6 67 5c bb 4d 4c 98 3d
       0.056888387 0.026477585 -0.0033631301 0.07436428
0002b0 17 f6 51 3d 4b 64 54 3c e6 ff d2 3b 22 59 6e 3d
       0.05126008 0.012963365 0.006439197 0.058190472
0002c0 34 5f 8b bc d2 a1 c0 3c 5a 21 1b bd b2 22 1d 3c
       -0.01701317 0.023514662 -0.037873603 0.009590792
0002d0 f1 e6 b1 bd 3e ca b2 bd 28 70 95 bd d3 49 ac bb
       -0.08686627 -0.08729981 -0.07296783 -0.005257824
0002e0 76 43 65 bd 94 01 d5 3c 43 c0 e2 3c 9c bc 48 bd
       -0.05597254 0.02600173 0.027679568 -0.049007997
0002f0 19 c2 11 3d 75 af 9b bc 8b 3d 88 bd 26 d8 90 bd
       0.035585497 -0.019004563 -0.066523634 -0.07072477
000300 40 bb 37 bd 97 f8 97 bc 63 b4 c1 3b d5 c2 39 bb
       -0.04485631 -0.018551154 0.0059113964 -0.0028344889
000310 30 53 fa bc 0f 35 ac bd 10 ca 47 bd 88 dc 21 3d
       -0.030557245 -0.084085576 -0.048776686 0.039516956
000320 09 7e 27 bd fb a6 71 3b 1c e8 58 3d 7a 0a e1 3c
       -0.04089168 0.003687321 0.05295573 0.027470816
000330 48 8c b0 3d 54 60 31 bd d6 6c ad bc 46 f7 9e bc
       0.086205065 -0.043304756 -0.021170061 -0.019405019
000340 6c a7 88 3d fa 78 70 bd a3 b0 a1 bd d6 b2 00 bd
       0.06672558 -0.058709122 -0.07895019 -0.03142055
000350 48 b9 9f bd 7b 84 d1 3c c9 3d 51 bc 1a 81 b9 bd
       -0.077990115 0.025575867 -0.012771078 -0.09057827
000360 89 d0 96 bd 81 71 69 bd 94 0c ac bd a6 97 97 bd
       -0.07363994 -0.05699301 -0.084008366 -0.074019715
000370 aa 2e 24 3c d6 1a c0 ba 30 47 46 bd ae 8c b5 bd
       0.010020891 -0.0014656435 -0.048407733 -0.08864723
000380 bf f4 89 3c fc f0 06 3d de c0 a8 bb 97 d8 9d 3d
       0.016840337 0.032944664 -0.0051499447 0.07707327
000390 5a 26 f1 bb c3 2f 9a bc 08 47 fc 3c 9a c0 d9 3d
       -0.007359308 -0.018821603 0.03079559 0.10632439
0003a0 73 ee e4 3c 46 75 43 bd 05 12 c5 3d 4a 5d dc 3c
       0.027945733 -0.047719263 0.096225776 0.026899952
0003b0 f6 bc ef 3c f1 88 05 3d c5 82 0a 3d e0 ac 4d bd
       0.029264908 0.0326013 0.033816118 -0.050213695
0003c0 ab 19 99 3d a2 de 54 3d c1 c5 78 ba 44 0e b3 3c
       0.07475599 0.05197013 -0.0009489917 0.021857388
0003d0 d6 64 b3 bd 60 35 b0 3d 5b ab 61 3b 46 f2 9c bd
       -0.08759467 0.086039305 0.0034434411 -0.076633975
0003e0 c5 b1 dc bb 0e e5 fa 3c c2 e6 2d 3d b4 d6 c4 3d
       -0.006735059 0.0306268 0.042456396 0.09611264
0003f0 47 24 9c 3d b3 cd 1d 3d 22 4e ba 3d 6d 52 15 3d
       0.07624107 0.03852625 0.09096934 0.03645556

lstm.bias_ih_l0 f4 [512]
000000 f4 69 c6 bc 0a 9a 7f bd 9e 08 5b 3c e9 25 6e 3c
       -0.024220444 -0.062402762 0.013368754 0.014535406
000010 e3 49 c3 3c 8e 54 d2 3c e1 05 91 3d 7f d9 0a 3d
       0.023838943 0.025675084 0.070811994 0.033898827
000020 2f 2e 89 bc 4e cf b6 bc b3 d6 c3 3d a9 53 9a bd
       -0.016745655 -0.022315647 0.09562435 -0.07535488
000030 67 72 f3 bc ea 3b f3 3d 72 5d 70 3d 39 12 39 bd
       -0.029717637 0.11876662 0.058682866 -0.045183394
000040 46 c5 49 3d f8 7c 9c 3d e8 f9 77 bc a3 ef e2 3d
       0.0492604 0.076410234 -0.015135266 0.11080863
000050 0c 3b 77 bd 07 8b 20 bd 83 1d 8c 3d d4 3e 75 bd
       -0.060359046 -0.039195087 0.068415664 -0.05987437
000060 21 11 c8 bc ef d0 4e bd 03 66 03 bd e5 9c 7c 3b
       -0.02442223 -0.050492223 -0.032079708 0.0038545665
000070 50 2b 17 bd d8 a7 49 3c a9 e2 7b 3c 9a 3d 91 3d
       -0.03690654 0.0123080835 0.015373864 0.07091828
000080 fb 9f b0 bc 58 04 e2 3e 21 77 9c bd 5e 11 81 3c
       -0.02156066 0.4414394 -0.076399095 0.015755352
000090 46 ff 53 3d c0 58 48 bd 45 ef 37 bd 15 38 4d bd
       0.05175712 -0.048912764 -0.04490592 -0.050102312
0000a0 9a 8f aa bc c4 e3 1b 3c 32 3b 4a 3d 96 50 68 3d
       -0.020820428 0.009514753 0.04937286 0.056717478
0000b0 cb 4d db 3b 96 43 6a 3d 56 dd 23 3d a7 58 75 3b
       0.0066926233 0.05719336 0.040006004 0.0037436874
0000c0 49 7b c6 bd 69 02 8d bd 6f 29 0c 3d ab 42 28 3d
       -0.096914835 -0.06885225 0.0342192 0.041079205
0000d0 76 19 8b 3d 60 f9 9c bd b9 25 3c 3d bf 22 11 3d
       0.06791966 -0.07664752 0.045934413 0.035433527
0000e0 b6 82 80 3c 96 b7 f8 3c 1b c1 a8 bd 8d d2 31 bb
       0.015687328 0.030360978 -0.08239957 -0.0027133555
0000f0 43 89 cb 3d 1c b6 b2 3d 10 78 9d 3d 73 2a 4b 3d
       0.0993829 0.08726141 0.07688916 0.04960103
000100 78 d6 c4 bc b3 01 1b 3e 5b 78 8a 3d dc ae 2a bd
       -0.024028048 0.15137367 0.06761237 -0.041670665
000110 86 9a aa 3d 87 6c 6f 3d bc 74 02 3e 2c 0f 05 3e
       0.08330254 0.05845311 0.12739843 0.12994069
000120 e7 39 8b 3d 1c 0f 3b 3d 39 9b 4a 3c 99 32 b9 bc
       0.06798153 0.045668706 0.0123661095 -0.022607135
000130 e0 3a 3d 3c a5 a7 13 3d 23 5b 4d bd 09 c1 b1 3d
       0.011549681 0.03604855 -0.050135743 0.08679397
000140 1a 28 87 3d 72 69 00 bd e1 5f 73 3d a7 c2 95 3c
       0.06599446 -0.03135056 0.05941761 0.018281294
000150 d6 43 63 b9 87 db 2c bd cc c5 80 bd cd ff a8 3d
       -0.00021673678 -0.042201545 -0.06287727 0.08251915
000160 4b d4 29 3c eb b4 f1 bb aa fa 94 3d a9 ba 15 bd
       0.010365556 -0.0073763034 0.07274373 -0.036554966
000170 b7 b5 40 bd 88 93 aa 3b f8 e8 83 3c b4 d6 64 bd
       -0.047048297 0.0052055754 0.0161023 -0.05586882
000180 7d 6f 66 3d 6d dd 3e 3b 25 7c f7 3d 5e 85 6a 3e
       0.056258667 0.002912368 0.120842256 0.22902438
000190 35 d1 2b b9 9e 18 c9 3d 5d 1c 74 3d 9b 8b 81 3d
       -0.00016385767 0.098191485 0.05959736 0.06325456
0001a0 65 3f 8b bb 61 36 9a 3d 00 d1 90 bd f2 15 ac 3c
       -0.0042495006 0.07529903 -0.070711136 0.021006558
0001b0 b4 42 9b 3e 25 7c 15 bd 0a 13 d7 3c cf bf 05 bd
       0.30324328 -0.036495347 0.026254196 -0.032653626
0001c0 df 1c b2 bd 45 76 a7 bd 84 b1 a0 bd b8 62 3a 3c
       -0.08696913 -0.08176855 -0.078463584 0.011376075
0001d0 08 f2 a1 3d 95 ac 4a bc f6 7f 15 3d 2a 41 af bc
       0.07907492 -0.012370248 0.036498986 -0.021393377
0001e0 35 58 77 bd 0d b9 b7 3d 80 c6 b3 bd 08 37 50 bd
       -0.060386855 0.089708425 -0.08778095 -0.050833732
0001f0 49 54 84 3c 87 63 d9 3d 06 13 8b 3d 60 7a 17 3c
       0.016153472 0.106146865 0.06790738 0.009245485
000200 f2 04 be bd df 93 23 bb ff e8 94 3d 4b 65 48 3d
       -0.09278287 -0.0024959964 0.07271003 0.048924726
000210 21 de 9e bb d8 1a 71 bd 9f d7 b0 3c 83 15 af 3c
       -0.004848257 -0.05886349 0.021587191 0.021372562
000220 e9 46 3b bd d6 23 92 bd 92 79 a7 bc a8 ac c5 bb
       -0.045721922 -0.071357414 -0.020443711 -0.006032545
000230 75 92 b5 3c 17 1d 16 3d 24 1a 8f bd 21 ce c2 bc
       0.022164563 0.036648836 -0.06987408 -0.02377993
000240 b3 60 4a 3d 46 05 a0 bd f8 05 ac bc 7a b4 9c 3a
       0.049408626 -0.07813506 -0.02099894 0.0011955642
000250 d3 6c 8c bd 6b b1 77 bd 74 02 40 bd e6 df 82 3d
       -0.06856694 -0.060471933 -0.04687734 0.063903615
000260 4f 54 b9 bd ff db 99 3d 31 6f b8 bc 26 4c 29 3d
       -0.09049284 0.07512664 -0.022513958 0.041332386
000270 9a 9c 6a 3c fe 78 54 bc ae 88 1b be 29 09 83 3d
       0.014319563 -0.0129683 -0.15188858 0.063982315
000280 93 ab 6c bd 78 ac 3e be 60 5e e8 bc fa 97 68 3c
       -0.057780813 -0.18620479 -0.028365314 0.01419639
000290 fa 24 9a 3b f1 f5 a5 bd 11 0c bc bd 58 f9 90 3d
       0.004704115 -0.0810355 -0.09181989 0.070788085
0002a0 de e6 c4 bc 18 48 4c 3d 03 70 56 3d ac b1 af 3d
       -0.024035867 0.04987344 0.052352916 0.0857881
0002b0 56 05 5e 3c ed f2 91 3d cd 5b 01 be 90 de f3 bc
       0.013551077 0.071264125 -0.12632675 -0.029769212
0002c0 e6 e6 d5 bc 1b 8d 94 bb 32 28 a3 3d f7 ea 25 bd
       -0.026111078 -0.0045334226 0.07966651 -0.040507283
0002d0 31 8b 9c bc c5 a0 4a 3c 73 3a 3c bd 86 63 e7 bc
       -0.01910934 0.012367432 -0.04595418 -0.028245699
0002e0 a8 b2 0a 3e 59 74 51 bc 78 c4 49 bd e1 75 36 3d
       0.13544714 -0.012784087 -0.049259633 0.04454601
0002f0 28 ca 12 bc b2 8e f0 bb 12 86 ac 3c 5b ac 44 bd
       -0.008959331 -0.0073412294 0.021060023 -0.048015933
000300 4e 3c 53 3d 80 6d 49 be e3 b6 88 bb 8a 65 4c 3d
       0.051571183 -0.19670677 -0.0041721924 0.049901523
000310 cf b7 88 bd 91 22 6d bd 66 be 12 be ce 52 86 3d
       -0.06675684 -0.057894293 -0.14330444 0.065587625
000320 5b 64 d2 3c 05 49 6e 3c 30 95 6a 3c ec d6 11 3d
       0.025682619 0.014543776 0.014317796 0.035605356
000330 d3 28 84 bd a6 6d ce bb 53 16 01 bd 47 07 91 3d
       -0.06453099 -0.006299692 -0.03151543 0.07081466
000340 cb e5 4c 3d bd f0 61 bd 95 53 00 3d 21 1c 4a ba
       0.050023835 -0.055161227 0.03132971 -0.000770988
000350 8a 4b 8c bb 79 e2 d6 3c 04 26 de 3c 91 47 95 3d
       -0.004281466 0.026231037 0.027117737 0.07289041
000360 e2 30 80 bd 09 78 35 3d 9c 87 55 bd 5f 34 ce bd
       -0.06259324 0.044303928 -0.05213128 -0.10068583
000370 c9 db 1c 3b d3 a2 5f 3d 68 c1 1f 3d 3c eb 94 bd
       0.0023934713 0.05459864 0.039002806 -0.0727143
000380 a6 65 cf bd c4 33 49 bc 6c 20 80 bd 4a c6 16 bd
       -0.1012681 -0.012280408 -0.06256184 -0.036810197
000390 48 88 53 3d ca 19 0e 3d b1 16 6e 3d a2 ae 6f bd
       0.05164364 0.034692563 0.05812711 -0.058516152
0003a0 de e9 8c 3d f0 84 de 3c a3 1e a8 bd b4 5d b8 bc
       0.06880544 0.027162999 -0.082089685 -0.022505619
0003b0 f7 50 a7 bd cc 4b f0 3c 29 14 1b 3d 78 d8 38 bd
       -0.0816974 0.029333018 0.037861023 -0.045128316
0003c0 f9 8c 7d 3d 17 a5 c4 bd 49 83 c3 bc 0e df 32 3d
       0.06190202 -0.09601801 -0.023866313 0.043669753
0003d0 81 58 30 3d 41 72 15 3d 85 1f d2 3c b9 41 44 3c
       0.043053154 0.036485914 0.025649795 0.01197856
0003e0 33 bc ae bd 20 f8 ad 3c ad a8 8e 3d 06 c3 fa bd
       -0.0853199 0.02123648 0.06965766 -0.12244229
0003f0 68 66 bd bc 0a 6b d3 bd fc 15 a7 bc b6 24 8a bd
       -0.02312012 -0.103231505 -0.020396225 -0.06745283

lstm.bias_hh_l0 f4 [512]
000000 7f 0d f8 3b d1 10 8f 3d c6 ac 7d 3d 64 3e 7e bd
       0.0075699682 0.06985629 0.061932348 -0.06207122
000010 0f 9e e7 3c 36 5b f9 3c 2f 20 60 bc 22 7c b8 3c
       0.02827361 0.030439 -0.013679548 0.022520129
000020 2c ed c4 3c 3c 95 55 3d 56 55 11 bd 33 ee 95 bd
       0.024038874 0.052144274 -0.035481773 -0.073208235
000030 4d 0e 8b 3d cb 0b 43 3c d4 90 83 bd 60 45 11 3d
       0.06789837 0.011904667 -0.06424108 0.03546655
000040 1c 2f 10 bb 6b cd 30 bd 11 e7 16 3d 96 19 e3 3c
       -0.0022000736 -0.04316465 0.036841456 0.027722161
000050 21 60 0e 3d ef 7b 34 3d a8 ac 85 bd 21 e2 40 3d
       0.034759644 0.044063505 -0.06527072 0.047090653
000060 fa 64 09 bd a7 5e a0 bd d7 b2 a0 bd 57 f1 61 bd
       -0.033543564 -0.078305535 -0.07846611 -0.0551618
000070 a7 d3 4f bd c3 8b b6 bd 85 a4 f5 3c c1 d6 10 3e
       -0.050738957 -0.08913376 0.029985676 0.14144422
000080 83 df 9d bd 39 89 ce 3e 3e 74 b4 bd e7 55 a3 3d
       -0.07708647 0.40339068 -0.08811234 0.07975369
000090 46 d3 bf 3a 9e 91 65 3d 1c 2e a8 3d ce 0f 6a bd
       0.0014635108 0.056047074 0.0821192 -0.05714398
0000a0 b7 b1 af 3d 1a 1e 5e 3d 74 02 6c 3d bd 25 82 3d
       0.08578818 0.054227926 0.057619527 0.06354854
0000b0 a8 8a 86 3c 80 54 7b bd 93 8f 09 3e 93 5a 88 3d
       0.016423538 -0.061359882 0.13433675 0.06657901
0000c0 5c 95 c2 bd c8 11 63 bd 2e 05 53 3c fb 41 9b 3d
       -0.09501144 -0.05543688 0.012879653 0.07580944
0000d0 2a cb 3a bd f5 9a 07 bd 43 0f 20 bd 10 45 84 3d
       -0.04560391 -0.033106763 -0.039077055 0.06458485
0000e0 62 12 d1 3d 40 8f 25 3d a6 9f bd bc 2e ac 1a 3d
       0.10208584 0.040419817 -0.023147415 0.03776186
0000f0 c3 5f a2 3d 65 51 a4 3c 00 bc 60 3c e2 a4 5d 3d
       0.07928421 0.020058343 0.013716698 0.054112323
000100 d5 0a a2 3c e6 d0 cb 3b c1 ef 4b 3d db 2f 44 3d
       0.019780556 0.006219971 0.049789194 0.0478972
000110 47 5f 9d 3c d5 79 77 3d 4b 8f d5 3d f5 8d 86 3d
       0.01921047 0.060418922 0.104277216 0.06570045
000120 0f 56 13 bd a1 6d 19 3d dd a6 19 3e 04 ee 8e bc
       -0.035970744 0.037458066 0.1500506 -0.01744748
000130 b0 a6 9b bb 9a 40 b6 3d a6 cc d3 3c 0b 98 f0 bc
       -0.0047500953 0.088990405 0.02585442 -0.029369375
000140 c9 e5 cd 3c 17 06 77 bd d2 2e 06 3c 07 cb 63 bd
       0.025133984 -0.060308542 0.008189874 -0.055613544
000150 68 83 95 3d 8d 4b e7 3d df e1 5e 3c 81 bd a7 3d
       0.073004544 0.11293707 0.013603657 0.08190442
000160 96 27 a9 3d b8 20 a6 3d 9f e6 82 bd 1d 99 84 bd
       0.082595035 0.08111709 -0.06391644 -0.064745165
000170 e1 95 7f bd 85 58 1f 3c 9e fd 53 bd 83 cf 07 bc
       -0.062398795 0.009725695 -0.05175554 -0.008289221
000180 f2 4d 6a 3d 87 73 d6 bc 7f ef 55 bd 73 78 4f 3e
       0.05720324 -0.026178135 -0.052230354 0.20260791
000190 d3 56 bf 3d c4 24 67 3c ad a8 69 3d 17 bd 26 3d
       0.09342732 0.014107887 0.057045627 0.040707674
0001a0 89 c6 83 3c 04 54 05 bd 51 e7 59 3c 5c 55 ac 3d
       0.01608588 -0.032550827 0.013299779 0.084147185
0001b0 a9 be d8 3e 6f 48 a9 3d c9 88 2d bd 20 c9 e0 3c
       0.42332962 0.08265769 -0.042366777 0.027439654
0001c0 a5 63 59 3c ab 27 92 bd 7d 91 72 bd 60 34 d5 3b
       0.013268386 -0.07136472 -0.05922078 0.0065064877
0001d0 9c 28 b0 3d 97 2e d4 bc 6b 7e 98 bc 29 58 b2 3c
       0.086014956 -0.025901122 -0.018614968 0.021770554
0001e0 2e 46 07 3d fe 76 62 3d c7 e4 f4 bb 34 47 4d bd
       0.033025913 0.05528926 -0.0074735614 -0.050116733
0001f0 fb b8 b0 3c 20 79 4a 3d 0f 0b c4 bc 52 df 7a 3d
       0.02157258 0.04943192 -0.023931054 0.06124813
000200 36 2f c1 bd 5c f1 95 bd c2 07 92 3a 2c 17 6f 3d
       -0.09432833 -0.07321426 0.0011141228 0.058371708
000210 91 c8 af bc f6 f0 54 bb b3 01 cc 3b 33 43 7a bd
       -0.021457942 -0.0032492257 0.0062257885 -0.061099242
000220 ac ba 93 3d 1a 9c fa bd a4 6d d4 bd 6d 0b ee 3c
       0.07213339 -0.12236805 -0.10372475 0.029058183
000230 68 57 92 bc 00 5b 48 bd 4e 42 55 bd 90 54 5d 3d
       -0.017863944 -0.04891491 -0.052065186 0.054035723
000240 3b d9 b8 bd 0d e6 ff 3b 58 80 4e 3d bc d1 99 3d
       -0.090258084 0.0078094066 0.050415367 0.07510707
000250 4e 68 cc bc 2b c1 c4 bc df 29 c7 bd 85 98 b1 bc
       -0.02495208 -0.02401789 -0.09724783 -0.021679172
000260 8a 0e b4 3c 9e 6a 13 bc a8 23 9b bc 11 40 f2 3c
       0.021979589 -0.0089975875 -0.0189379 0.029571565
000270 b6 b9 a3 3d cc b9 e1 3c e6 40 19 3c c3 84 ab 3d
       0.07994406 0.027554415 0.009353852 0.08374932
000280 da 49 9e bd 90 93 f0 bd 77 77 83 bd 0f 46 42 3d
       -0.0772893 -0.11746895 -0.064192705 0.047430094
000290 f6 33 51 bd 92 51 5b bd 1b 43 03 3d cc e8 5a 3d
       -0.051074944 -0.05354459 0.03204642 0.05344467
0002a0 a2 24 3d 3c df fc 88 bc 32 22 0c bd a6 b6 0c bd
       0.0115443785 -0.01672214 -0.0342123 -0.034353875
0002b0 31 62 be 3c 2b 21 bf 3c cb c4 8a bc 57 64 9a bd
       0.02324018 0.023331245 -0.016939541 -0.075386696
0002c0 28 1d 0e 3d 39 6d 3d bd 96 11 a8 bd 03 3a 6d 3c
       0.034695774 -0.04624674 -0.08206479 0.014479163
0002d0 58 d6 cd 3b 54 7f 4e 3d 24 a2 98 3d 42 00 2e ba
       0.0062816553 0.0504144 0.07452801 -0.00066376117
0002e0 36 ec c1 3d ee f7 ef 3c 99 d5 05 3d c7 7d 99 3c
       0.09468882 0.029293027 0.032674406 0.018736733
0002f0 7e c5 09 bd 81 0c 09 bd 3a 53 9f bd 0c c6 1b bc
       -0.03363561 -0.03345919 -0.07779546 -0.009507667
000300 9c 68 55 3d ef 55 bf bd d1 2d f0 bd 2a 6a 9f 3d
       0.052101716 -0.093425624 -0.11727489 0.07783921
000310 71 a7 4c 3c 26 19 ab 3c a8 a8 0f be fb fc 59 bd
       0.012491093 0.020886015 -0.14029181 -0.053219777
000320 90 aa 65 3c ec 2d 99 3d a4 e5 c6 bc 05 0d 4d bc
       0.014017716 0.07479462 -0.024279423 -0.012515311
000330 1b da 09 bd eb 97 1b bd 70 4b a1 bd 8c 26 de bb
       -0.033655267 -0.037986677 -0.07875717 -0.0067794975
000340 88 02 cf 39 a3 50 92 3d ee 1d 18 bd 89 49 ce 3c
       0.00039484003 0.071442865 -0.03713792 0.025181549
000350 d6 98 bd 3b 7d e7 3c bd b5 8e a4 3c 26 f0 26 bd
       0.0057860417 -0.046119202 0.02008758 -0.040756367
000360 ff 9c b1 bd db 62 d1 3b b0 86 0a be e6 d1 af 3c
       -0.08672523 0.0063899583 -0.13527942 0.021462392
000370 87 6e 8d 3d 30 35 96 3d d7 bb b0 bd 68 14 8e bd
       0.06905847 0.073343635 -0.086295776 -0.06937486
000380 47 31 e9 bd b0 1d c2 3c 28 31 8c bd f5 d8 b7 bd
       -0.11386352 0.023695797 -0.06845313 -0.08976928
000390 5d 8f 71 bd 4f 52 88 3d d8 57 47 3d 1c c7 50 3d
       -0.058974613 0.06656324 0.04866776 0.050971135
0003a0 b2 c0 fa 3c 4f c4 22 3d 0b d4 f2 bd e3 05 03 bd
       0.030609462 0.039737996 -0.1185685 -0.031988036
0003b0 f5 a3 e7 bd 1e 31 e0 3c 7a d2 85 3d 29 a0 51 bd
       -0.11310569 0.02736717 0.06534286 -0.05117813
0003c0 bb e2 b4 bd d7 10 12 3d 6c ae 33 bd f8 0c 17 bd
       -0.08832308 0.03566059 -0.043867514 -0.036877602
0003d0 19 3b 91 bd a4 e9 62 3d 86 3e 7b bd 05 19 ca bb
       -0.0709135 0.0553986 -0.061338924 -0.0061675333
0003e0 77 7f 85 bd cf d8 80 3d fa 5b 51 bd a5 74 b9 3b
       -0.065184526 0.06291353 -0.051113106 0.005659657
0003f0 1d 68 fa bd 20 f6 2d 3d 5c 99 97 bc b6 ef 14 bd
       -0.12226889 0.04247105 -0.018505745 -0.03636142

fc.weight f4 [1, 128]
000000 ff 6c 95 bd 85 a4 e0 3d 09 78 f1 bd 6d b2 96 bd
       -0.0729618 0.109688796 -0.11790473 -0.07358251
000010 4e d0 80 3d 6c 6c c6 3d be 93 ed bd 8d 14 f6 bd
       0.06289731 0.096886486 -0.11600445 -0.120156385
000020 d8 f1 be bd 8b b8 52 ba af 2b f4 3d 43 00 a6 3d
       -0.09323472 -0.00080383633 0.119223945 0.08105519
000030 b5 97 0c be e3 a0 cc 3d 3d 47 a2 bd f0 7e 5d bd
       -0.13729747 0.09991624 -0.07923744 -0.054076135
000040 9e 48 67 bd 56 61 d2 3d 95 d5 f4 3d 3a 3c 14 3e
       -0.056465738 0.102724716 0.119548 0.144761
000050 3b 23 98 3d 0f 18 b1 bd bf 20 86 3d 2a 13 7a bd
       0.07428595 -0.08647167 0.065492146 -0.061053433
000060 5c 28 14 3c d6 2e 8c 3d 81 e7 90 bd 49 64 b9 3d
       0.009042826 0.06844871 -0.07075406 0.09052331
000070 06 9a a3 bd 82 99 99 bd 01 30 e0 bd bc 8e 17 3e
       -0.07988362 -0.074999824 -0.10946656 0.14800543
000080 21 30 af 3d ca 21 5e be 7b 4f b1 bd f7 a4 12 3e
       0.08554102 -0.21692577 -0.08657738 0.14320742
000090 71 a7 84 bd 1b 71 dd bd 52 fb 9f 3d f9 61 cf 3d
       -0.064772494 -0.10812589 0.078116074 0.10126109
0000a0 56 f3 d6 bd 43 f1 bb bd ce b1 c6 3d 9a 62 8f 3d
       -0.104956314 -0.091768764 0.09701882 0.07001229
0000b0 0a cb a6 bd ec a9 b2 bd e5 cc c4 bd fa d2 a7 bd
       -0.081441954 -0.08723816 -0.09609393 -0.081945375
0000c0 90 15 54 bd 36 d5 c0 3d 69 ec ab bd 00 19 bb bd
       -0.051778376 0.09415667 -0.08394701 -0.09135628
0000d0 ee 93 9e bd 45 70 a1 3d ec 67 a6 3d 84 34 42 bd
       -0.07743059 0.07882742 0.0812529 -0.047413364
0000e0 52 eb 65 3d c7 2d 98 3d ac 51 84 bd e4 98 8d 3d
       0.056132622 0.07430606 -0.0646089 0.06913927
0000f0 55 27 f9 bd e9 44 9b 3d 23 31 db bd 03 51 b7 3d
       -0.12165705 0.07581503 -0.107027315 0.08950999
000100 b5 d4 a8 3d 79 f5 b0 bd 71 8a 14 3e 4b 56 ab 3d
       0.08243696 -0.0864057 0.14505936 0.083660685
000110 f3 ea d5 3d 80 ed fb 3d 10 37 25 3e 11 50 25 3e
       0.10445204 0.12301159 0.16134286 0.16143824
000120 3e f5 c1 bd 33 d6 dc 3d 81 f1 17 3e 05 a7 cd bd
       -0.09470604 0.10783043 0.1483822 -0.10041622
000130 38 16 cb bd 97 2d d5 bd 71 61 dc bd 1e 9c f0 3d
       -0.09916347 -0.10409086 -0.10760773 0.11748527
000140 5e f9 9a 3d 9d 43 f3 bd 9b c6 fd 3d fc 68 96 bd
       0.07567094 -0.118781306 0.123913966 -0.07344243
000150 72 2a 7c bd 8d b1 ed bd dd fc b0 3d 0b 10 c5 bd
       -0.061563917 -0.11606131 0.0864198 -0.096222006
000160 42 08 cc bd a1 d4 cc 3d 97 8d c2 3d 9c 31 af 3d
       -0.099625126 0.10001493 0.09499662 0.08554384
000170 5e 72 bb bd d0 66 0a 3e 42 ff b2 3d e7 e4 96 bd
       -0.09152673 0.13515782 0.08740093 -0.073678784
000180 38 a5 f3 3d 84 73 e1 bd ae 5f 03 3e f1 81 4c 3e
       0.11896747 -0.11008361 0.12829468 0.19971444
000190 e1 8c b7 3d 03 28 df bd fc ac d2 3d 2b 99 bf bd
       0.089624174 -0.108963035 0.102869004 -0.09355386
0001a0 ea e9 60 bd 8c 2e 8d bd 30 ee c4 bd 62 56 01 3e
       -0.054910578 -0.06893644 -0.09615743 0.12630609
0001b0 b1 04 78 be e8 6a 24 bd 2e 81 98 3d 89 8b c3 3d
       -0.2422054 -0.040141016 0.07446514 0.095480986
0001c0 0c 0b 7b bd e3 75 8f 3d 6d 18 be 3d cc 0f a4 bd
       -0.061289832 0.07004907 0.092820026 -0.080108255
0001d0 1e 61 9a bd 5f 55 b4 3d 1f 0b f2 3d 55 a3 ca 3d
       -0.07538055 0.08805346 0.118185274 0.09894434
0001e0 2b 45 a6 bd fc 7f d5 bd e7 1d ad 3d 36 15 b8 bd
       -0.081186615 -0.10424802 0.08452969 -0.08988421
0001f0 63 b6 fa 3d 62 0c 26 3e 1e 34 3f 3d 57 3f aa 3d
       0.12241819 0.16215661 0.046680562 0.08312862
