result/LSTM_weather_state_dict_14_uncertainty.pth (torch, 91781 bytes, 17 tensors)

lstm.weight_ih_l0 f4 [128, 4]
00000000: f6e9 e83d 4655 fa3d f055 7ebd 15ed 0e3e
00000010: 2d1f 58bd bb2b d03c 8e11 f1bd 8770 a33d
00000020: 8ff7 153e e18f 18be 9db4 133e a411 843c
00000030: 11ad 073e f825 c23c d9da 9f3d f874 0fbd
00000040: 0b00 023e d068 953c da40 e1bd 4245 193d
00000050: 005f cbbd aa96 aabc 25f7 a6bd cff5 ca3d
00000060: 58b9 15be ec26 bcbd 96f9 74bd 873a f2bd
00000070: 3626 803b 8a72 3abe dc13 2d3e 3523 25be
00000080: f4fa fd3d 7f6c 9b3c a5cf a8bd 08f2 cb3d
00000090: c081 9f3c 87ce 183e e7cf aebc 105e 83bd
000000a0: 625f 2f3d 2306 60bd dd41 893d f6ec 143e
000000b0: 7de4 cc3d 0bba 99bd 90b8 bf3d 422a 183d
000000c0: fc71 ad3d 1898 e5bd 301b 3abe c8b8 98bd
000000d0: 6b28 09be 6ca9 243e 9e77 493d 447b 8e3d
000000e0: 384a 6e3d d1f1 44bb 25dc a13d 2f3f 0ebe
000000f0: 8153 a93b 1ac7 0abe 8d5c 223d 57a5 a4bd
00000100: 52ee 573d 8152 e9bc 7b21 1d3e e54c d7bd
00000110: 5e03 edbd bc21 fcbd 1748 0d3e 8dc8 193d
00000120: af80 253e 8d2f 0dbe 9b4c 2dbe 4e9e dcbd
00000130: 0e9c 19be 09e0 173d 4aa3 743c c208 e13d
00000140: 4309 c9bd e2c3 06be b86e ae3d 32a1 aabd
00000150: 2cef 0b3e be39 59bd e4e4 ed3d ccd1 15be
00000160: 018e a8bd aad4 483d c51e b83b af9a 93bd
00000170: ca1f aa3d 5e9d e13d 8697 0dbe f9ea d5bd
00000180: 3387 1a3e 8317 95bd ceff 95bd 2bd9 40be
00000190: 68dd a6bd 0485 003d 8e15 67bd 6c0d 19be
000001a0: 07f5 943c 2740 08be 3da8 21be 66df 9fbd
000001b0: 00a3 22be da11 f1bd 42ae 323e a45b e93c
000001c0: c7f9 133d 90d9 29be c0b0 04be 2c08 81bd
000001d0: e2d3 3e3c 40a5 0cbe 6439 f2bd ed49 07be
000001e0: dc18 853a 1f05 80bd c79a 10bc a95d f0bd
000001f0: 9179 12be 15d7 d7bd 3c97 cfbd 5f13 27be
00000200: 29ce 013e 036c 60bd 9866 073e ff62 073d
00000210: d227 24be a546 023e 3198 9abd 0d52 adbd
00000220: 2feb 20be 3c3f 47be 88c7 213d 1997 68bd
00000230: 3646 8a3d 9e06 19be 968c fb3d c80b 0bbe
00000240: ae34 25bd 6f8f e93c 922c 833d 1db9 023e
00000250: 37f4 103e fc4f 12be a952 0d3d 4d17 c0bd
00000260: eb84 e9bc 4a0a 15be ddb6 173e 5d48 15be
00000270: a9e3 af3d 489d 603d c2e9 933d 8e48 d8bd
00000280: 5ca9 eb3d 4c59 bb3c 9341 93bc 5b72 30be
00000290: 3815 673d f3e6 f9bc 1afd 10be da3d fd3d
000002a0: 986a 0e3d 8c26 d6bd 5f06 c7bd 5218 a1bc
000002b0: 43ac c03d fd9a 47bd a27c e6bd 93e7 81bd
000002c0: 5b29 11be 44e6 573d 33f0 013e ea4d 36be
000002d0: e73e 303d cc24 d43d e462 123d a0af 69bd
000002e0: 5d34 bc3d 9409 be3d 32a9 b13b 64de 38bd
000002f0: ebbf 58bd bab3 8d3b 3acf 3dbd c018 92bd
00000300: 99d2 e43d aa9b 213e fb21 18bc defa 22bd
00000310: 2d33 f8bb 2b75 d1bc be59 b03c 002b e53c
00000320: 1a9b 2dbe f5ef 71bd c68e 1d3e 2407 c43d
00000330: bd7a 1dbd 4020 0ebe 8155 1abe 9a97 46be
00000340: 342d 87bd 3d74 423d 9a0a d43d 8647 8e3d
00000350: 17ae 04be 25e7 f4bd 7807 6abc 8a14 2a3e
00000360: dea5 093d 55e9 55bd c690 2c3d 2cb0 c4bd
00000370: fb83 1dbe d3e6 e53d e6ee cebd 6592 5abd
00000380: 4603 3fbe f387 d83d aa83 003e 3b86 473d
00000390: cc7d d5bd cf59 42be aacb 39be 8924 de3d
000003a0: 6dbd cb3d f558 0d3e 988c ad3d 57e4 833d
000003b0: a4b1 bebb 7d0d 0fbe da65 1ebe 1e3a 2dbe
000003c0: 311a 473d 5e96 b7bd 7d97 49bd 3826 dbbd
000003d0: 454f 4dbd d012 ddbd fb6f 1fbe f32f da3c
000003e0: 6ba4 56bd 6bc6 e43d 7c1f 5cbd 11be fbbd
000003f0: e083 54bd c544 aabd 6e17 bdbd bc4e 43be
0.113727495 0.12223296 -0.062093675 0.13957627 -0.052764107 0.025411477 -0.117709264 0.07980447
0.14645217 -0.14898635 0.14424367 0.016121693 0.13249613 0.023699746 0.07805414 -0.03502366
0.12695329 0.018238455 -0.109986976 0.037419565 -0.09930229 -0.020823795 -0.08152608 0.099101655
-0.14621484 -0.09187111 -0.059808336 -0.118275695 0.003910805 -0.18207756 0.16902107 -0.16126712
0.12401381 0.018972633 -0.0824273 0.09958273 0.01947105 0.14922534 -0.02133937 -0.064144254
0.042815574 -0.054693352 0.067020155 0.14543518 0.10004518 -0.07506188 0.093613744 0.037149675
0.084690064 -0.1121065 -0.18174434 -0.07457119 -0.13394324 0.16080254 0.04918634 0.06957105
0.05817625 -0.003005136 0.07903317 -0.1389129 0.005167425 -0.13552514 0.039639045 -0.080393486
0.052717514 -0.028481724 0.15344803 -0.10512713 -0.11572908 -0.12311122 0.13797031 0.037544776
0.1616237 -0.1378767 -0.16923754 -0.10772382 -0.15000936 0.03707889 0.014931509 0.109879985
-0.0981622 -0.13160661 0.08517212 -0.08331527 0.13665456 -0.053033583 0.11615923 -0.14630812
-0.0823021 0.049030937 0.0056189024 -0.07207238 0.083068445 0.110163435 -0.13827333 -0.10445208
0.15090637 -0.07279875 -0.073241815 -0.18832843 -0.08147699 0.031376854 -0.05641704 -0.14946526
0.018183244 -0.13305722 -0.15786834 -0.07806282 -0.15882492 -0.11770983 0.17449287 0.02848608
0.036126878 -0.165869 -0.1295805 -0.06300387 0.0116471965 -0.13734913 -0.11827353 -0.13211794
0.0010154503 -0.06250977 -0.008825964 -0.11736614 -0.14304186 -0.105390705 -0.101362675 -0.16315983
0.126763 -0.054790508 0.1322273 0.033053394 -0.16030815 0.12722261 -0.075485595 -0.084629156
-0.15714715 -0.19457716 0.03949693 -0.056784723 0.06751673 -0.1494393 0.12282674 -0.13578713
-0.040333442 0.028510777 0.064049855 0.12765928 0.1415566 -0.14288324 0.03450266 -0.09379444
-0.028505763 -0.14554706 0.1481585 -0.14578386 0.085883446 0.054837495 0.0722232 -0.10560714
0.11506912 0.022869729 -0.017975604 -0.17231123 0.05641672 -0.030505633 -0.1415905 0.12365313
0.034769624 -0.10456571 -0.09718012 -0.019664917 0.09407856 -0.048731793 -0.112542406 -0.063429974
-0.14175932 0.052709833 0.12689285 -0.1780316 0.04302874 0.10358581 0.03573884 -0.057052255
0.09189675 0.09279171 0.005421781 -0.045133963 -0.052917402 0.0043244036 -0.046340205 -0.07133627
0.11172981 0.15782037 -0.009285445 -0.039790027 -0.00757446 -0.025568565 0.021527167 0.027974606
-0.16953698 -0.05906673 0.15386495 0.095716745 -0.03844713 -0.1387949 -0.1507168 -0.19393769
-0.06600419 0.047474135 0.103535846 0.06947236 -0.12957035 -0.1195815 -0.014284007 0.16609398
0.03360545 -0.052224476 0.042130254 -0.096039146 -0.15382378 0.11225667 -0.1010416 -0.05336227
-0.18653592 0.10572805 0.12550226 0.048711997 -0.104243845 -0.18979572 -0.18144098 0.10846812
0.099482395 0.13803466 0.08474082 0.06440037 -0.0058195163 -0.13969989 -0.15468541 -0.16916701
0.048608962 -0.08964227 -0.049216736 -0.10700649 -0.050124425 -0.10794604 -0.15570061 0.026634192
-0.052402895 0.11170658 -0.053740963 -0.12292112 -0.05188358 -0.08313898 -0.092329845 -0.19073004

lstm.weight_hh_l0 f4 [128, 32]
00000000: 03ed 133d f769 20be 41e2 0abe 8ab3 2cbe
00000010: 1098 063e 8961 17be 241e f83d 4ed2 e3bc
00000020: 6236 493c 1a00 0d3e e65c bc3b e5bf ba3d
00000030: 05b0 183e ef11 06be 4f72 2e3d 0190 273c
00000040: 781b 753d 0a8c 493d 2fc8 913d b91c d9bd
00000050: 1494 24bc 9aa0 103e 17a5 c43d 3547 4ebc
00000060: c8b2 40be 5858 fe3c 541d c6bd 36d0 0b3e
00000070: 52e2 0abe 87d2 193c 74c1 7ebd bfa4 363c
00000080: 2657 1d3e d0e3 1a3b efbd b23d 7d9b fb3d
00000090: 8a7a fd3d a7fd 4ebd 97ff 01bd f69f 9b3d
000000a0: 2583 15bd 15f2 c83d dc89 b3bc 2549 fabd
000000b0: 5958 ad3d ae58 2e3d 3ceb ef3b ffb2 1f3e
000000c0: 2c50 053e d6e0 423e 3a1a e53c 2201 1abe
000000d0: 6cd3 f0bd e964 06be d0fb 3bbe 4710 babd
000000e0: d0f5 36be cc5c f5bd f336 b6bd 9a30 3fbe
000000f0: f448 0fbe ab7d b63d 5921 013e ff32 86bd
00000100: 5fa1 4dbd bdba b23d 78ce cfbd 6c6c a2bd
00000110: 0547 c33d c0cf 1abe 32ae fb3c 9dfa 203e
00000120: 3663 043d cd1f 7c3d c096 bcbd 410f ebbb
00000130: b2eb 4d3c 5fc1 643d 27e7 753d 4f20 0f3e
00000140: 6991 01be 4575 a63c bbc1 99bd 996c 02be
00000150: ff97 afbc 7969 2cbe 4fde e63d 4da1 8a3c
00000160: a491 dcbd 6522 d13d f74e 1fbe f78b 9bbd
00000170: 2706 13bd 7de5 0cbe 6d57 02be 2178 0bbd
00000180: 4279 043e aef5 293e 0ddd f03d 9aaa f0bd
00000190: f8a8 f5bd 7727 213e 2c9a 793d a2d9 2cbc
000001a0: 2397 003d 436e 16be 0010 5cbd ff56 283e
000001b0: 26f6 1bbd c1f1 18bb 6c0d 24be 82db d3bd
000001c0: 7a0b e3ba 7d9b d9bd 87e1 85bc 42c6 623d
000001d0: 9bbf 2ebe 9603 053d 3872 06be 49d2 b2bd
000001e0: 46ca 863d 6ead 233e 14c8 31bd a2a4 89bd
000001f0: 8587 29be cee6 adbd fa8d 24be 25fc 38bd
00000200: 1b22 e13c 38c4 33be 210b 0b3e 20ef ce3d
00000210: b335 4bbe 8f85 98bd df54 833d 4679 9dbc
00000220: 53fe e2bc 146c 75bd 3326 233e af9b acbd
00000230: f419 243e 0a5e 983c 8d0f 2b3d 339d e93d
00000240: 5712 82bc edee 8dbd cd94 1fbc 9187 203e
00000250: fd0f 03be 7f06 1c3d 3b77 2dbe 62e5 d03d
00000260: f9fd 463d 093e 223b e10f ca3d 19b2 c0bc
00000270: 5346 d93d 31fd e9bd 9f80 79bd 0125 933d
00000280: bb28 223e 234e 933d 69ac 08be a723 e63d
00000290: 4796 56bd 9dec 6cbc 1d12 3dbe 36ff 50bd
000002a0: 285f 0f3e 7c62 033d 22f9 b2bd 047e 073d
000002b0: 1e39 0fbd 294f 383e a512 21be d48d 8ebd
000002c0: 1bc9 1abe a869 71bd d22d 933d 2bdf 153e
000002d0: 2058 313d bf47 173e d67a 953c 05b8 043e
000002e0: ffb6 033e f2a8 1f3e 448e a9bd 86c8 383e
000002f0: ea0c 003e aa03 8dbd 8d20 c5bd 555b 2abe
00000300: 198b 2c3d ea52 1dbe d162 833d fa7e 323d
00000310: d4b4 29be b092 523d 1d70 39bc 7db8 863d
00000320: abc7 eb3d abe2 35be 8394 323e 3e63 093e
00000330: 496a 9b3d bb12 18be d6ef 98bd f5a5 82bd
00000340: 1678 1fbd 1dc1 e43d 7c71 9d3d 4830 fa3d
00000350: 9ce9 8ebd 5422 393d de2e 4a3d 272a 20be
00000360: 90f0 3bbe adee a1bd 3498 073e 2886 1ebe
00000370: 14ff 28be 372d e33d 9780 aa3d 6880 0a3e
00000380: 5aa0 07be e669 13be 5589 a23d 74ed 113e
00000390: 41a3 c33d 62a9 0d3d 09ce 833d af0d 223e
000003a0: 128e debd 50f2 9abd 527f 0a3e 1904 07be
000003b0: 92c6 b9bd 4fb3 123e a14a 4d3d 3525 3e3d
000003c0: bf22 5ebd b318 e23b 4373 313e c0a5 dabd
000003d0: 8788 c9bb eb15 983d 3955 04be 8fc8 2b3e
000003e0: ede0 cfbd 4f61 15bd bbe8 12bd dc0e e5bd
000003f0: f74f 35be a437 e03d 10fb 1a3d c548 38be
0.036114704 -0.15665422 -0.13562872 -0.16865364 0.13143945 -0.147833 0.12115124 -0.027810242
0.012281032 0.1376957 0.005748379 0.09118632 0.14910896 -0.13092779 0.042589482 0.010227204
0.05984065 0.049205817 0.0711826 -0.106011815 -0.01004507 0.14123765 0.09601801 -0.012590219
-0.188182 0.031047985 -0.09673563 0.13653645 -0.13562897 0.009388573 -0.06219621 0.011147677
0.15365276 0.0023634322 0.08727633 0.122855164 0.12376888 -0.05053487 -0.03173789 0.075988695
-0.036502022 0.098117985 -0.021916322 -0.122209825 0.084641166 0.04256504 0.0073217433 0.15595625
0.13018864 0.1903108 0.027966607 -0.15039495 -0.117590755 -0.13124432 -0.18357778 -0.09085136
-0.17867208 -0.1198059 -0.088971995 -0.18670884 -0.13992673 0.08910688 0.12610377 -0.065526955
-0.050202724 0.08727024 -0.10146803 -0.07930836 0.0953503 -0.15118313 0.030722711 0.15720601
0.032321177 0.061553765 -0.09208441 -0.0071734493 0.012568401 0.055848476 0.060034897 0.13977169
-0.12653126 0.02031959 -0.07507654 -0.12736739 -0.021434782 -0.1683711 0.11272871 0.016922617
-0.10769966 0.10211638 -0.15557466 -0.075950556 -0.03589454 -0.13759418 -0.12728663 -0.03405011
0.12936881 0.16597626 0.11760912 -0.1175129 -0.11995119 0.15737711 0.060938045 -0.010549935
0.031394135 -0.14690499 -0.053726196 0.16439436 -0.038076542 -0.0023337456 -0.16020745 -0.10344602
-0.0017322146 -0.1062536 -0.016342891 0.055364855 -0.17065279 0.032474123 -0.13129508 -0.08731515
0.06581549 0.15984127 -0.0434037 -0.06720854 -0.16555603 -0.08491288 -0.16069785 -0.04516234
0.027482083 -0.1755532 0.13578464 0.10104203 -0.19844703 -0.07447349 0.06412672 -0.019222867
-0.027709162 -0.059917524 0.1593254 -0.08428132 0.16025525 0.018599529 0.041762877 0.114069365
-0.015877886 -0.06930337 -0.009740067 0.15676714 -0.12799068 0.038092133 -0.16940014 0.10200001
0.04858205 0.0024756214 0.0986631 -0.023522424 0.106091164 -0.114252456 -0.06091368 0.07184792
0.1583585 0.07192638 -0.1334702 0.11237269 -0.05238941 -0.01446071 -0.18463941 -0.051024638
0.14001143 0.032076344 -0.087389246 0.033079162 -0.03496658 0.17998947 -0.15729769 -0.06960645
-0.15115778 -0.058938652 0.07186474 0.14635913 0.043296933 0.14773463 0.01824705 0.12960823
0.12862776 0.15591791 -0.08279088 0.18045244 0.12504926 -0.068854645 -0.09625349 -0.16636403
0.04212484 -0.1536366 0.06415332 0.043578126 -0.16572887 0.051409423 -0.011318234 0.06578157
0.11512693 -0.17762248 0.17439465 0.13416764 0.07588632 -0.14850895 -0.0746762 -0.0637931
-0.038932882 0.11169646 0.07687661 0.1221624 -0.06978151 0.045198753 0.049361102 -0.1564108
-0.18353486 -0.07906852 0.13241655 -0.15480864 -0.16503555 0.110926084 0.08325308 0.13525546
-0.13244763 -0.14395866 0.0793635 0.14250737 0.095526226 0.034585364 0.064357825 0.15825532
-0.108669415 -0.07565749 0.13525131 -0.13185157 -0.090710774 0.14326213 0.05012 0.046422202
-0.054232355 0.006899917 0.17329125 -0.106761456 -0.0061503085 0.074260555 -0.12923135 0.16775726
-0.10150323 -0.036469754 -0.03586648 -0.11184475 -0.17706285 0.109481126 0.037837088 -0.1799651

lstm.bias_ih_l0 f4 [128]
00000000: bf9d 40bc c5a4 1cbe 126c 093d 6d2d 23be
00000010: 39d3 d1bd 2e56 dc3d afb8 1c3e 8798 c0bc
00000020: fff4 09be 2b6b 1cbe 5a8f 4dbd 320c afbd
00000030: 27de 083e 49b0 0bbe 3f72 bf3d 9cf8 b13c
00000040: be58 5ebd 4632 003e 3bce dc3d 45db 34bd
00000050: d579 06be 0946 7bbd 5fe3 e23c e511 143e
00000060: 00db 9dbd 95e4 c2bd 94de 2abe fa40 d53d
00000070: 62ac 2e3e 2959 c83d c6d1 ccbd 85df d13d
00000080: af59 9abd 8cff a63d 6254 b43d c67c 1dbe
00000090: be6a d43b 36eb 5a3d 9dec f9bd 47e6 1d3e
000000a0: 761c fa3d a2f5 fa3d 6bfb ffbb 201e c5bd
000000b0: 5a96 e0bd 5c06 493d e4f7 47bd 39bf 033e
000000c0: d957 153e 484c c5bb 511c 19be 4d6e 0f3d
000000d0: 837c 153e 46e8 6cbd ff7f fbbd a59e 72bd
000000e0: ce9f 183c 9af5 1fbe f0f1 ce3d 7959 923d
000000f0: 9c9b 93bd 3e11 c3bd 91d5 b4bd 7c84 ec3d
00000100: 47bc c73d f1bc 923d 593d 7fba f807 483d
00000110: bd7a 403e 168f 943d 8583 a6bd 638d 9b3d
00000120: a6c1 aebd 6ae0 4cbd dace e5bd 20d0 65ba
00000130: 42a6 d63b 5e03 c7bd 077b f33d 4c78 2f3e
00000140: 5d5d 1fbe 2d7b 2e3d fdb4 0fbe 681d e9bc
00000150: ad86 993d 363c 473c 7063 693d 6618 85bd
00000160: 4ad5 2d3e 3531 87bd 7f9c d33c 780b a93c
00000170: 248d fa3d 3f54 fc3b 42bc ca3d 7661 733d
00000180: 3d04 ba3d 6f32 8ebc 60dc 393d b7b3 2c3e
00000190: 8ae0 9abd 015f b2bd 7e4a ec3d aea7 6e3d
000001a0: 27c0 33be f415 663d 40f1 37be 0244 bdbd
000001b0: e723 803d 7d1e ad3d d219 60bd c7cd 0b3e
000001c0: 6d03 333e 0001 f53d 81cd 22be f836 d2bd
000001d0: e305 54ba ab00 083e d4b2 68bd cbe4 e43c
000001e0: 2f96 9b3d faf3 e7bd e384 d0bd 9d71 2e3e
000001f0: d4ad c2bb 4942 d33d 22bc 33be 22da bbbd
-0.01175636 -0.1529723 0.03355033 -0.15935297 -0.10245366 0.10758625 0.15304826 -0.02351023
-0.13472365 -0.15275256 -0.05018554 -0.08547248 0.13365994 -0.13641466 0.093479626 0.021724992
-0.05428385 0.12519178 0.10781523 -0.044154424 -0.13132413 -0.061346088 0.02769631 0.14459951
-0.077077866 -0.09516255 -0.1668647 0.10412784 0.17057946 0.09782631 -0.100009486 0.10247711
-0.07536637 0.081542104 0.08805157 -0.15379629 0.006482451 0.05344697 -0.122033335 0.15419875
0.1221246 0.12253882 -0.007811954 -0.096248865 -0.10966177 0.04907833 -0.04882039 0.12865914
0.14584292 -0.0060210563 -0.14952208 0.0350173 0.14598279 -0.0578387 -0.12280273 -0.059233326
0.009315444 -0.15621033 0.1010474 0.07145972 -0.072074145 -0.09524773 -0.08829797 0.11548707
0.09752708 0.07164944 -0.00097366195 0.048835725 0.18796821 0.07253854 -0.08130554 0.07595327
-0.08533029 -0.050018705 -0.112210944 -0.000876667 0.006550581 -0.09717439 0.118887 0.17135733
-0.15562959 0.04259794 -0.14033885 -0.028456405 0.074963905 0.0121603515 0.056979597 -0.06498794
0.16975895 -0.06601182 0.02583146 0.020635352 0.12233952 0.0077004726 0.098991886 0.059419118
0.0908284 -0.017358033 0.04537618 0.16865431 -0.07562359 -0.08709527 0.11537646 0.05826538
-0.17553769 0.05617328 -0.17963123 -0.09241487 0.06256848 0.08453081 -0.054712124 0.13652717
0.17481776 0.11963081 -0.15898706 -0.10264391 -0.00080880354 0.13281505 -0.05681117 0.027941128
0.075970046 -0.11325832 -0.10181596 0.17035528 -0.005941132 0.10315377 -0.17552236 -0.09172465

lstm.bias_hh_l0 f4 [128]
00000000: 06ff d03d dbec 15bd 1b94 383d 1860 1fbe
00000010: b739 113e 794d d4bd 97e6 b1bc 1d7d 00be
00000020: dbc6 b1bd 5df9 22be 1e59 25be d084 00bd
00000030: 95be adbd 7825 f63d 08d4 61bc dd96 003e
00000040: dbc8 f6bc 5758 983c d784 373e a3f4 32be
00000050: 3c68 b4bd c836 113e 3d03 8fbd ba1d 66bd
00000060: 8a15 54bb 18cb eebd 081d 983c aebe 9fbd
00000070: 68ae 5d3d ec84 7bbd 1326 79bd 9fdd b9bd
00000080: 42e0 c53c 2867 9f3d d42c 35be d126 08be
00000090: cee2 53be 6fec 853d fa3d ef3d a962 37be
000000a0: 7b5e f63c 026d 2e3c c103 cfbd b39c 153d
000000b0: 466b fc3d e8d4 233e 0c7f 803d 5b18 40bd
000000c0: 1684 d2bd a427 b2bd 0665 5bbb a526 45bd
000000d0: b528 ef3d 6459 31be 08b3 6dbc eec3 97bd
000000e0: e96c a6ba 196d 143e d98d 413c 4063 0ebd
000000f0: a7e5 83bd 431f 53be cc87 28be 3a85 5e3d
00000100: 8b12 ecbd db61 f93d 14cc 30bd 0f30 8c3d
00000110: aaf9 153e 1fc9 2d3d ea5a 8a3d 31ba 203e
00000120: 9ad9 90bd f8aa b03d 388e 16be 3728 2a3e
00000130: 7073 78bd 48b8 5d3b 3bd3 d53d 0c94 ac3c
00000140: 1155 163e a2c9 b0bd 7ddc ecbd ae6f 283e
00000150: 7a6b eebd 5d34 0c3e d5d5 313e c147 e53d
00000160: a8b6 86bd a86e 6b3c 5a90 2abe 5c09 c0bd
00000170: abfd 0dbd f732 02be f651 c13d 871d da3d
00000180: 8a6d 94bd 0c20 42bd 76eb 203e 4512 88bc
00000190: be49 073e 2928 183e d582 99bd 4172 36be
000001a0: c7f6 1f3e 3a5f d0bd 7cb2 263e b6d4 dfbd
000001b0: 9c7d d03c 4ee6 323d 30a6 67bd 247a ff3d
000001c0: 9701 25be cfbe bbbd bd4f c8bc 76c0 c63d
000001d0: aefe 8f3d 17a2 d23d 836f 483d 679c 193e
000001e0: bc43 7abd dd4c 9abd 68f0 9bbc bc46 853d
000001f0: a183 5cbd 051c 303d 4f9f 393d 55db 8d3c
0.10204892 -0.036602836 0.04506312 -0.15564 0.14182173 -0.10366339 -0.0217164 -0.12547727
-0.08680507 -0.15915437 -0.16147277 -0.03137666 -0.08483616 0.12018865 -0.013783462 0.1255755
-0.030125072 0.018596811 0.17921768 -0.17476134 -0.08808944 0.14181054 -0.069830395 -0.056180693
-0.003236147 -0.11659831 0.01856853 -0.07800041 0.054121405 -0.06140606 -0.060827326 -0.09075474
0.024154786 0.07783347 -0.17692882 -0.13296057 -0.20691988 0.06539237 0.11681743 -0.1790873
0.030074349 0.010646107 -0.10108138 0.036526393 0.12325148 0.15999186 0.06274232 -0.046898227
-0.102791 -0.08698967 -0.0033476963 -0.048132557 0.11677686 -0.17319256 -0.014508016 -0.074104175
-0.0012697253 0.14494742 0.011813604 -0.03476262 -0.06440287 -0.20617394 -0.16458052 0.054326274
-0.11526974 0.121768676 -0.043163374 0.06845104 0.1464602 0.042428132 0.06755622 0.15696026
-0.07072754 0.0862636 -0.1470269 0.16616903 -0.060656965 0.0033831764 0.1044068 0.021066688
0.14680888 -0.086322084 -0.11565492 0.16448852 -0.11641593 0.1369185 0.17366727 0.111953266
-0.06577808 0.014369644 -0.16656628 -0.09376785 -0.034665745 -0.12714754 0.09439461 0.10650163
-0.072474554 -0.047393844 0.15714821 -0.016610274 0.13211724 0.1485907 -0.07495657 -0.17817022
0.15621482 -0.10174413 0.16279024 -0.10929243 0.02545052 0.043676667 -0.056554973 0.12474468
-0.16113888 -0.09167253 -0.024452085 0.09704678 0.07030998 0.102848224 0.04893447 0.15001069
-0.061099753 -0.07534192 -0.019035533 0.06507632 -0.05383647 0.04299547 0.045317944 0.0173165

lstm.weight_ih_l1 f4 [128, 32]
00000000: 7784 0c3e 6b63 ac3c 0f0a ef3d 4ff5 78bd
00000010: 9855 29be 5068 f13d fa20 7f3d a3a2 013e
00000020: 31ad 8b3d 7518 52ba 1c30 f5bd e102 3abe
00000030: f4d3 2d3d 833b 203e b8fd 24bc 5de7 83bd
00000040: f956 c63d 174d a8bd 670c 923d 993f 1ebe
00000050: fcf8 1ebe 7657 f7bd f2d2 2dbd 1db0 873d
00000060: f3c0 a83d 3d6e c3bd 4d6e ebbc e796 803d
00000070: b1a9 f1bc 07be 073c 0bf9 dd3d 686f 72bd
00000080: 4a76 b23d 755b 0d3e 5cf9 5c3d 2e11 21bd
00000090: 5275 f0bd c097 e4bd fbbe 28bd 660e 723d
000000a0: fc4d bd3d 0cb5 93bb 0877 173e 554f a8bd
000000b0: 1efa 243d 2d14 afbd def3 5c3d 20fd 153e
000000c0: a0c1 8d3d 44c4 7e3c a096 72bd a516 0cbe
000000d0: 1de4 eebd bd1c 1ebe a487 fe3d 2952 8dbd
000000e0: d27d 00bd aa0f 22be a0f4 34bd 26f0 133e
000000f0: 6f0b 1b3d c661 e4bc f44e b33d 4afa 053e
00000100: 93a6 183e 820b f0bd a843 803c bfb1 01be
00000110: abc2 f6bd 4e89 023e 0985 02be 3f68 ddbd
00000120: 0738 c33d 4f9d 2d3e bdff 36be de18 d4bd
00000130: a390 a6bd 3b1c 013e 3842 b73d 2227 c33d
00000140: c9b6 cd3d d962 07bd bea1 043e f715 4abb
00000150: f134 fc3b 9bdf 57bd 2ae9 8d3d d3b6 8b3d
00000160: fc1f 8ebc 78bc 253e 2126 90bd 6626 793d
00000170: 8540 163e 536e fe3d a5f7 8cbd 92e2 8cbd
00000180: 2a9b 533d bf1a 353c 7b4c 3ebc da7a fc3d
00000190: 4dee 123d 1817 e9bd d583 0bbe fe63 383e
000001a0: c0f3 09bc 2ea9 62bd c600 0cbe 5463 373e
000001b0: 119a 983d 6990 d8bd daf6 24be addb 1b3e
000001c0: 43b4 9f3d ce8d 64bc 7391 0abe a6ce e23d
000001d0: 4abf 0cbe 9f09 b83d 93f1 2cbe da62 2dbe
000001e0: f227 35be 8e7f 373e 4ee6 333e 2b2d 22be
000001f0: 115e 073e bb0b 0bbe 9154 3ebe 95da cc3d
00000200: 10b1 113e 9c7b 163e a167 bf3b 1d4c 543e
00000210: 838a 31be 85cf 053d 5e5d 92bc 0282 43bc
00000220: 38b1 1e3e 81ce f6bd fc9d a83d c3d3 a3bb
00000230: 2ba5 823d 562d 5c3b f616 5b3d 2542 193e
00000240: 65bf dcbd 5e87 17be 336c 3c3e d8c5 cdbd
00000250: a274 643b 9da4 c53d 856a 3cbd c9f2 d83d
00000260: f0f6 ce3d 9d74 06bc a4f7 473d 7e3d f03c
00000270: 8927 0a3e c635 0e3e cbc9 10be df06 7d3d
00000280: f55a e13d c2a8 173e d72a 7a3d d7e8 bb3d
00000290: 38c9 e1bc 4a3a c8bb d381 e9bd 0225 0c3e
000002a0: 1d10 183e 539f cabd a354 28be b338 0f3e
000002b0: bfbe 2ebe b09c 073e 3932 39be 5fd7 b4bd
000002c0: a78a a1bd 56e6 243e fbcd 02bd 062f 1b3e
000002d0: 16a8 103d ee0d 283e 3da8 ec3d 177b f83d
000002e0: f2b8 1f3e 5467 3bbd c33e 69bd ad6a 813d
000002f0: 6c8f 193e 1572 b4bd b914 10be 448b 01be
00000300: 1484 b8bd e0e2 b53c 2826 7dbc 67e6 6cbd
00000310: 9ee7 afbd db3a 583d 8bab 19be 8696 333e
00000320: ad15 00bd 2469 ec3c 1ab5 813d 0efa 8dbd
00000330: a5eb 163e 6e2e 553b 1a92 903c 16d2 2bbe
00000340: 24e1 cb3c effc 753d 72cd ef3c e795 d9bc
00000350: be08 103e 44b0 033e ed16 dd3d 0df1 c5bc
00000360: 73a2 f73c 2540 00be bffa 01be 55f4 16bd
00000370: 063d bc3c d1cb c4bd d232 1bbe ec9b 973d
00000380: bb31 833d cebf f7bd 691f da3d 47eb 02be
00000390: 4719 f63d 5727 c53d df46 54bd ed46 373e
000003a0: 849e d4bd c753 8ebd 4c3d 1a3e 341c 0cbd
000003b0: 01a5 89bd 8341 d43c b285 f7bc 4f2f c33d
000003c0: 9425 1a3e 0876 c53d aec3 423d af6a 633d
000003d0: c046 553b 5287 f63c 18e1 003c 2ccf fb3d
000003e0: 49c8 b43d 9c9e a0bc 5981 a03d 51e3 c5ba
000003f0: 9062 833d 4210 2b3e 6531 0ebe d193 c93c
0.13722406 0.0210435 0.116718404 -0.06078082 -0.16536558 0.11787474 0.06228731 0.12659697
0.06820143 -0.00080145086 -0.11972067 -0.1816516 0.042438462 0.15647702 -0.010070257 -0.064406134
0.096845575 -0.08217829 0.07131272 -0.15453948 -0.15524668 -0.12077229 -0.0424375 0.06625388
0.08239927 -0.09542511 -0.028739119 0.06278782 -0.02949986 0.008285052 0.10838517 -0.059188277
0.08713968 0.1380442 0.053948745 -0.039323024 -0.11741127 -0.111617565 -0.04119776 0.059095763
0.0924339 -0.0045076665 0.147915 -0.082182564 0.040277593 -0.0854877 0.053943507 0.14647341
0.06921697 0.015549723 -0.05922568 -0.13680513 -0.11664603 -0.1544065 0.12428215 -0.069004364
-0.03136999 -0.15826288 -0.044178605 0.14447078 0.0378527 -0.027878653 0.087552935 0.13083759
0.14907293 -0.11720945 0.015657261 -0.12665461 -0.12048849 0.1274769 -0.12746061 -0.10810899
0.09532171 0.1695454 -0.17870994 -0.103563055 -0.08133056 0.12608425 0.08948177 0.09528948
0.10044629 -0.033053253 0.12952325 -0.0030835846 0.007696741 -0.05270348 0.06929238 0.0682198
-0.017349236 0.16185176 -0.070385225 0.060827635 0.1467305 0.124233864 -0.06883172 -0.06879152
0.051661648 0.01105374 -0.011614914 0.123281196 0.035871793 -0.11381358 -0.13624509 0.18006894
-0.008419931 -0.055337124 -0.1367217 0.17908984 0.07451261 -0.10574419 -0.16109791 0.15220518
0.07798054 -0.0139498245 -0.13532047 0.11074571 -0.13744846 0.0898621 -0.16889028 -0.1693224
-0.17691019 0.17919752 0.17568323 -0.15837543 0.13219477 -0.13578694 -0.18586947 0.10002629
0.142277 0.1469559 0.005841211 0.2073216 -0.17337994 0.03266861 -0.017866787 -0.011932852
0.15497291 -0.12051106 0.08233258 -0.004999609 0.063791595 0.0033596358 0.053488694 0.14966638
-0.10778693 -0.14797732 0.1840065 -0.10047501 0.0034859558 0.09650538 -0.046000022 0.105931826
0.10105693 -0.008206514 0.048820153 0.029326197 0.13491644 0.138877 -0.14139478 0.06177413
0.11003677 0.1481047 0.06107601 0.0917527 -0.027561769 -0.006110464 -0.11401715 0.13685992
0.14849897 -0.0989367 -0.16438536 0.13986473 -0.17064951 0.13243365 -0.18085565 -0.08830141
-0.07887774 0.16103491 -0.03193472 0.15154657 0.03531655 0.16411564 0.115555264 0.121328525
0.15597895 -0.04575284 -0.05694462 0.06319175 0.14996117 -0.08810822 -0.14070405 -0.12650782
-0.09009567 0.022202909 -0.015450992 -0.057836916 -0.08589099 0.052790504 -0.15006845 0.17537889
-0.03127067 0.028858729 0.063333705 -0.0693246 0.14738329 0.0032528895 0.017647792 -0.1677936
0.024887629 0.06005567 0.029272769 -0.026560737 0.14065835 0.12860209 0.10795388 -0.024162794
0.030228829 -0.12524469 -0.12693308 -0.036854107 0.022978317 -0.096091874 -0.15156105 0.074027866
0.0640597 -0.12097131 0.10650522 -0.12785064 0.1201654 0.09626644 -0.0518254 0.1789815
-0.10381797 -0.06949573 0.15062445 -0.034206584 -0.06720925 0.025910145 -0.030215118 0.09530508
0.15053397 0.09641653 0.047549896 0.055521663 0.003254339 0.030093823 0.0078661665 0.12295374
0.08827264 -0.01960688 0.07837171 -0.0015097653 0.06415284 0.1670542 -0.1388603 0.024606617

lstm.weight_hh_l1 f4 [128, 32]
00000000: 8794 4fbd 208e 183e 2682 ab3d 951d 193e
00000010: 3d9b be3d 947a 783d 8fed 2a3e 89bd ee3b
00000020: 1569 db3d 75de 4a3d 62eb 22be 1602 043e
00000030: eedb 203b b8da f8bd cde1 003e cb88 1cbe
00000040: 81c9 a03d 72a8 0dbe dd31 1bbd f6e7 1fbe
00000050: 6ceb e73d 134b 0f3d 1110 073e f487 353d
00000060: 460f 9fbd c5e7 103d d67c 013e f978 02be
00000070: 0c5d 01be 844e 22bd 68ba ccbd 93a0 9abc
00000080: 7a9d 343e ff0a d63d b549 16be 5b9e b9bd
00000090: 4ffc 0b3e 2430 09bc 7832 a4bd 0b90 1d3d
000000a0: 3284 b1bc 3db6 6b3d a1dc f73b e24a d73d
000000b0: 200f ba3d adee 8b3d 5956 773d ffa9 55bd
000000c0: 826c 27be 14e3 4dbc 660d fbbd 7904 0bbe
000000d0: 9c23 22be c9dd 43bd 15bf 04be d9b4 d13c
000000e0: 5403 ab3d 8a31 e03d 3ffc 3ebe 2296 1c3e
000000f0: 045d 413d e05b 1c3e 362f bf3d 7b76 193d
00000100: 6820 61bd 467d 233e 629a 06be 9425 123e
00000110: 11dd 273e 57c5 e73c 04e3 50bd e8e6 03be
00000120: 542a 9e3b aa85 2d3e f773 c43c b13c 89bd
00000130: 11c4 adbd 24eb 8639 22fa b73d fca1 123d
00000140: 7180 953c f316 d0bd 2b33 883d 3a48 12bc
00000150: b23f 3bbe e610 fc3d 2e90 ff3d 5181 67bc
00000160: bb2f 82bd 56ba 303e 793b 393e 5bb3 3e3d
00000170: 89ae 063e b7b4 c53d 3df6 d83d 92aa 35bc
00000180: d255 13bc 52e9 e63d ca9c 99bd a919 d9bd
00000190: d4b7 ee3d e746 b8bc b271 dd3d 2d59 41bc
000001a0: 065b f1bd dc8d 4ebc 0ead 27bc a76a 6c3d
000001b0: 135a 11be 3a24 14be 5033 6b3c 29e7 0a3e
000001c0: e72a c4bd 62ee b7bd 0c92 c03c b125 133e
000001d0: 153f 0b3e b327 2dbd 1c07 dbbb b866 12be
000001e0: cdc9 3e3e 5e2e ec3d 3bf2 353d 6684 32be
000001f0: 9ea3 dc3d 372d edbd d45e 9ebc d678 a33d
00000200: dcdf 16bd 67f9 9fbd 3a90 d23d 5310 0b3e
00000210: 74d7 363d 6fb5 bebd 793c dbbd 88c2 0fbe
00000220: 67f6 b0bd a056 07be a2ba 6b3b 6b74 dcbd
00000230: 1105 f23d e271 2fbe aed8 ddbd 38b2 04be
00000240: e29d 88bd 17e7 bb3d 4a78 e73d 453d 3e3e
00000250: 073e 75bd 25ad 9c3c 72d7 e2ba 2a13 a13d
00000260: 0186 c83d dfc3 f93d 11ac 103e 7b7e 2b3e
00000270: 1ecd 42bc 63df 0d3e 7011 a8bd 3807 b6bc
00000280: 3e1d 5ebd 5165 11bd 71a6 823b d5ce 2dbe
00000290: 69ac bebd f524 20bc c45f 363d 1990 023e
000002a0: 1a8d 03be 7882 493d e851 b23d 017c bcbd
000002b0: b1b4 0f3d 79a1 cfbd 8a26 8dbc e22d bbbd
000002c0: 8d8d 4dbd e257 84bd af8b 113e 056e 093d
000002d0: 8a20 37be 01f9 473c 51ad d03d b45f a2bd
000002e0: c5b0 e8bd 2e37 0fbd 428a 19be 4d69 79bd
000002f0: d2e8 a13c 5d98 05be df55 26be 3227 c7bd
00000300: 372e fabd 3912 8bbb e1b5 823d 63e4 f63d
00000310: caca 333e 4197 ce3d 6767 b4bd 5aca 82bc
00000320: df06 c1bd 4da3 c93d 5c86 8f3d 4f19 bb3d
00000330: ae0f dfbd 6e08 0e3e e2f8 18be d3ec ad3d
00000340: 33a0 27be cb65 093e 0ff4 d0bd 6376 05be
00000350: 7aed 973d 3e9e 193e 53ce d0bc 3dc2 883d
00000360: 83c0 2c3e 0e90 0cbe b626 9a3d 7f74 4e3d
00000370: 1b82 d7bd d51b c73d 9ff7 213e fbf6 1b3e
00000380: ddb8 03be 6d31 253e b23d 133e 1608 a03d
00000390: b841 c0bc faf2 163e 604e f6bd 0bf8 aebd
000003a0: 5914 d03d 9dbd f53d e2c8 6fbb 40e9 2c3e
000003b0: 4836 a73d 1417 ba3d 264a 173e cac5 273e
000003c0: 0c0d ed3d 6232 283e 41ec 2f3c 4e48 123e
000003d0: cebd c63d b1b5 eabd c535 d73d 4426 41bc
000003e0: 29fd 70bd 4f5e 1a3e 28a7 193d 71c2 223e
000003f0: 4d36 923c a57a 703d ad21 d93d 73cf 57bd
-0.050678756 0.14897966 0.08374433 0.14952691 0.09306953 0.060663775 0.16692184 0.007285778
0.10713402 0.049528558 -0.15910104 0.1289142 0.002454515 -0.12151092 0.12586136 -0.15286557
0.07850934 -0.13833788 -0.03788935 -0.1561583 0.113242 0.034983706 0.13189723 0.044319108
-0.07766585 0.035377283 0.12645277 -0.1274146 -0.12633151 -0.03962566 -0.09996492 -0.018875396
0.17638198 0.10451316 -0.14676555 -0.09063407 0.13670467 -0.008373294 -0.08017439 0.03846745
-0.021669481 0.057546843 0.007564143 0.1051233 0.09084916 0.06832633 0.060385082 -0.052164074
-0.16349986 -0.012566347 -0.12258415 -0.13575925 -0.15833896 -0.047818933 -0.12963517 0.02559893
0.08350244 0.10946949 -0.18650912 0.15291646 0.047207847 0.15269423 0.09335177 0.037466507
-0.054962546 0.15965757 -0.1314483 0.14272147 0.16392924 0.028292341 -0.05099775 -0.12881052
0.0048268232 0.1694552 0.023981078 -0.06701029 -0.08484662 0.00025733665 0.08983256 0.03579901
0.018249722 -0.10160627 0.066503845 -0.008928353 -0.18286017 0.123079106 0.12478672 -0.0141299525
-0.0635676 0.17258582 0.18089093 0.046557765 0.13152517 0.09653609 0.10593841 -0.01108803
-0.008992629 0.11274971 -0.07500608 -0.106005974 0.11656156 -0.022494746 0.10812701 -0.011801046
-0.117849395 -0.012607064 -0.010234131 0.0577189 -0.14194517 -0.14466944 0.014355496 0.13564743
-0.095784955 -0.08981015 0.02350714 0.14369847 0.13598283 -0.04227419 -0.006684197 -0.14296997
0.18631668 0.11532281 0.044420462 -0.17433318 0.10773395 -0.1158089 -0.019332327 0.07982032
-0.036834583 -0.078112416 0.10281415 0.13580446 0.044639066 -0.093119495 -0.107048936 -0.14039052
-0.086407475 -0.13216639 0.0035969396 -0.107643925 0.118173726 -0.17133287 -0.10832344 -0.1295861
-0.06670739 0.09174936 0.1130224 0.1857806 -0.059873607 0.01912553 -0.0017306639 0.078649834
0.09791184 0.121955626 0.14128138 0.16747467 -0.011889724 0.13854747 -0.08206451 -0.022220239
-0.054227106 -0.035497013 0.0039871265 -0.16973431 -0.093102284 -0.009774436 0.044524923 0.12750281
-0.12846795 0.04919669 0.087070286 -0.09203339 0.03508443 -0.1013822 -0.01723029 -0.09139611
-0.05018382 -0.06462075 0.14213441 0.03355219 -0.17883506 0.012205363 0.101893075 -0.0792841
-0.11361841 -0.034964733 -0.14994147 -0.06089144 0.019764338 -0.13046403 -0.16243695 -0.09724273
-0.12215846 -0.0042441157 0.06382347 0.1205528 0.17557827 0.10087443 -0.08808785 -0.01596563
-0.09425139 0.098456 0.07008049 0.091356866 -0.108916625 0.13870403 -0.14938691 0.08492436
-0.16369705 0.13417737 -0.102028005 -0.13033442 0.07418342 0.15001771 -0.025489008 0.06677673
0.16870312 -0.13726828 0.07526915 0.050404068 -0.105228625 0.097221054 0.15817116 0.15230934
-0.12863488 0.16132136 0.14379004 0.07814042 -0.023468837 0.14741126 -0.120266676 -0.08543404
0.10160131 0.119990565 -0.0036588241 0.16885853 0.0816465 0.09086433 0.14774379 0.16384044
0.11574754 0.1642547 0.01073748 0.14285395 0.09704171 -0.11460436 0.105083026 -0.011788908
-0.058835182 0.15075038 0.03751293 0.15894486 0.017848158 0.058710713 0.10602126 -0.052688073

lstm.bias_ih_l1 f4 [128]
00000000: 25a4 193b c8f5 31be 7a82 02bd a059 913d
00000010: 97bd 1c3e 32d3 483c 55cc d83d b5e5 f83b
00000020: 863f 23be 0fe9 9ebc 7a15 88bd 76b6 3bbd
00000030: 4907 99bd 9d66 fb3d 607f 20be 5945 e2bd
00000040: 8852 a8bd e276 0e3e 1628 97bc c82a 953d
00000050: 175b 883d 7f17 323e e178 6ebd 1170 ff3c
00000060: 17ac b8bd 74f9 17bd 5709 2dbe f366 17be
00000070: 1181 413d 3990 19be 0e0c c93d 8c5e f63d
00000080: 2a8e 473d 8a3b 833d e68e 40be c507 d0bd
00000090: eb56 13be aaa8 30be 5f21 833d efa4 f13c
000000a0: 0828 103e ae10 85bd 6ae9 febd a3a2 2dbe
000000b0: 0f61 233b 926e d8bd 0bbf c63c 330b e33d
000000c0: 4717 f73d f8dc 19bd d423 1abe 2625 c9bd
000000d0: f0d8 bb3d 4f65 843d 7a49 e1bb 4ef0 31be
000000e0: 7cf4 bc3d b10b c63d 8cea dc3a 9754 16bd
000000f0: b5b3 a4bd 447b 59bc 4e41 353b 4a31 223d
00000100: b1c5 2e3c ced4 2e3e fc44 ff3d 0b11 193d
00000110: 74af 4dbe 524a bfbd f2cb 8e3d 05e1 eebd
00000120: aa90 563d fc88 3b3d 1a8b d1bd db90 d93c
00000130: 286f 0cbd 2ec8 063e 588c 22bd 1d83 3a3e
00000140: 1990 253e 05f7 85bd aad7 df3c ee35 8ebd
00000150: 6490 1a3e 0fa0 f13d 8c7d 033d c690 ea3d
00000160: 95be 19be d21f 6bbd e622 ca3c c854 3abe
00000170: 963f 413e 1113 9e3c 3a33 1f3e fcad 44bd
00000180: fbe6 893a 7102 5dbd bb28 b5bd 87e8 a7bd
00000190: 44fc d53d 9fab 223e c8be 333d e323 a23d
000001a0: 9c0d 633d 1b4a 53bc 960d 0dbe ffe6 cc3c
000001b0: 0fed 88bd 13f5 6e3d 8712 02be d554 83bc
000001c0: 8b35 c7bd 4cce 2fbe 4a49 16be c0e8 263e
000001d0: d130 a9bc d170 03be 9e54 353c 2308 8bbc
000001e0: 7fc3 103e 9214 ff3d 5048 81bd 94f0 e2bd
000001f0: ba59 cebd 986d 7bbd 9caf bbbd ca88 183e
0.0023443785 -0.17378914 -0.031862713 0.07097173 0.15306698 0.012257384 0.10585848 0.0075957426
-0.15942201 -0.01939824 -0.06644721 -0.045828305 -0.07472093 0.12275431 -0.1567359 -0.11048383
-0.082188666 0.13912538 -0.018451732 0.072835505 0.06657999 0.17391776 -0.058220748 0.031181367
-0.090171985 -0.03710313 -0.16898094 -0.14785366 0.047242228 -0.14996423 0.098167524 0.12029752
0.048719563 0.064078405 -0.18804511 -0.10157732 -0.14388625 -0.1725184 0.064028494 0.029497592
0.1407777 -0.06497322 -0.12446864 -0.16956572 0.0024929678 -0.105679646 0.024261018 0.110861205
0.12064987 -0.037564248 -0.1505273 -0.098215386 0.09172237 0.064646356 -0.006875214 -0.17376825
0.09226319 0.09670199 0.0016854568 -0.036701765 -0.08042089 -0.013274018 0.0027657333 0.039597787
0.0106672505 0.17073366 0.124643296 0.03736977 -0.20086461 -0.09340347 0.06972493 -0.11664013
0.052384056 0.045784935 -0.1023161 0.02655833 -0.034285694 0.131623 -0.039684623 0.18214078
0.1616825 -0.06541256 0.027324516 -0.0694388 0.15094143 0.11798107 0.032102153 0.114533946
-0.15014108 -0.057403393 0.024674844 -0.18196404 0.18871912 0.019296201 0.15546885 -0.048017487
0.0010521108 -0.053957406 -0.08845659 -0.08198648 0.104485065 0.15885781 0.043883115 0.07917001
0.0554329 -0.012896086 -0.13774714 0.025012491 -0.0668584 0.05833919 -0.1270238 -0.016031662
-0.097270094 -0.1716854 -0.14676395 0.16299725 -0.02065316 -0.12836005 0.011067538 -0.016971653
0.14137076 0.12455095 -0.06312621 -0.11081043 -0.10075708 -0.061383814 -0.09164354 0.14895931

lstm.bias_hh_l1 f4 [128]
00000000: 0123 9ebd 8308 b03d 1737 843d 2071 d93c
00000010: 625b 8c3d d5f8 143e efdf 8c3d a713 793d
00000020: 6746 2cbe 9f72 eebc 5b2d 00bb f4d7 ee3d
00000030: 507e 8e3d 1b28 033e a294 fe3d 3888 b1bd
00000040: 5c72 11bb 7669 233e cb48 a43d ee21 ce3d
00000050: 0908 543d 14ae 06bd b399 c93c b8ec fdbd
00000060: 3a04 233e 5407 5ebc 9bbd f43d 6ff3 02be
00000070: 9d27 27be e014 db3b d73b 8abc 29a9 a7bd
00000080: 496f a23d f7de f2bd 3088 023e ba04 45be
00000090: 5fe2 a33c 88b5 ddbd 730a df3c 1087 273e
000000a0: 8f3a 47bd ca71 cb3c cbae 9dbd cc65 ddbd
000000b0: b738 23be 07f3 be3d 6380 14bc 7ade 613d
000000c0: 6273 2abe 06a7 1fbe 4007 49be 6b31 d5bd
000000d0: 1d4a 32bd 01be febb 075f 743d 5e16 b2bd
000000e0: 8d5b 2d3e 26f8 c3bd a52f 3bbe 62f8 033e
000000f0: a792 e1bd 3b8e 0b3b 3f19 bdbc 681a 41bd
00000100: 7ab3 953c e7cb 2ebe 72ba 2d3e 2d3b f0bd
00000110: b1c8 823d 5f81 e8bd fb08 30bd 7984 d7bb
00000120: eb58 88bd 5cfc 97bd 7355 0fbe f00a 05be
00000130: a184 a1bc e2d9 53bd 04fb d0bc 5e6e 953d
00000140: 33b5 6ebc 9653 32be 61f0 89bd 3223 073d
00000150: ef83 953d 333d f33d 459a 293d bd91 033e
00000160: e644 04be 7466 24be 58cb 6fbd b4c7 59bc
00000170: 8776 263e 8b02 c7bd cdfe febd 5ddd b0ba
00000180: 5554 113d 236e 2abe 67aa b2bd 5813 1fbe
00000190: 35cc c03c 034a 873c c91f 28be 7b8c 0cbe
000001a0: 44bb 59bc 829a 75bd 3353 12be bf4d 95bd
000001b0: a581 2cbe 47eb f1bc 7f8b 05bd 9808 ac3b
000001c0: f136 51bc a982 1fbd 9a86 213e 0cd4 81bd
000001d0: 8469 733d 4de6 b93d 3426 22bd 2ead 0abe
000001e0: 33e4 1cbe a773 e13b f4eb 143d a1e1 d13d
000001f0: 4b21 9fbd 1d6d 033e 6185 3a3e 31ac 1dbd
-0.0772152 0.085953735 0.0645582 0.0265432 0.068533674 0.14548047 0.068786494 0.060809758
-0.16823731 -0.02910739 -0.0019558284 0.116622835 0.06957686 0.12808268 0.12430693 -0.0866856
-0.0022193408 0.15958199 0.08021697 0.10065065 0.051765475 -0.032880858 0.024609422 -0.12398666
0.15919581 -0.013551552 0.11950227 -0.12788175 -0.16323705 0.006685838 -0.016874237 -0.081865616
0.07931382 -0.118589334 0.12747264 -0.19240084 0.020005403 -0.1082564 0.027226662 0.16360116
-0.04863983 0.024834532 -0.07699355 -0.10810432 -0.15939604 0.093236975 -0.009063813 0.05514381
-0.16645578 -0.15591058 -0.19631672 -0.10409816 -0.04352771 -0.007774115 0.059660938 -0.086956725
0.16929455 -0.09568815 -0.18279894 0.1288772 -0.110143 0.0021294493 -0.023083327 -0.047144324
0.018274058 -0.1706997 0.16965654 -0.11730037 0.06385935 -0.113528006 -0.042977314 -0.0065770713
-0.06657585 -0.074211806 -0.1399744 -0.12992454 -0.019716563 -0.05172146 -0.025510319 0.072964415
-0.014569568 -0.17414698 -0.06735302 0.03299255 0.07300555 0.11876907 0.04140689 0.12848563
-0.12916908 -0.16054708 -0.058543533 -0.013292242 0.16256152 -0.09717282 -0.12450943 -0.0013493706
0.035480816 -0.16643576 -0.08723908 -0.15534723 0.023534874 0.016514784 -0.16418375 -0.13725464
-0.0132892765 -0.059961803 -0.1428955 -0.072902195 -0.1684633 -0.029531134 -0.032603737 0.005250048
-0.012769447 -0.038942967 0.15774003 -0.06339273 0.0594268 0.090771295 -0.039587215 -0.13542625
-0.15321426 0.006880242 0.036357835 0.102481134 -0.07770022 0.12834592 0.18214943 -0.038494293

lstm.weight_ih_l2 f4 [128, 32]
00000000: 39ca 8bbd 9d45 81bd ca29 22be eeae 033e
00000010: e915 8f3c 4b3b c23d c5ce d43d 88d4 68bd
00000020: e2fe f73c 81ee 183e 08e2 04be 59ae 343e
00000030: 332e be3d 96b0 4ebd 7412 07be 83fa b43d
00000040: f701 863d 4117 94bd bca5 ba3d 0e74 7b3d
00000050: 7d4a 333e cd52 993d c966 c13c d10d 45be
00000060: 2bad 1d3e 57bc 373e b6a2 53bd 7f44 6b3b
00000070: f63e 16bd 4f6a cbbc 2f2e c83d bc73 a13c
00000080: 3928 26be 6621 db3d 6e58 f1bd 6b7f 863d
00000090: fb52 d43d 2c58 81bd 2457 c83d c44d f63c
000000a0: 6f52 b9bd 8a45 253e 7207 033e ed0d 283e
000000b0: 59ac 02be a22a 15be 1d7f 19be f145 ac3d
000000c0: 1dce 943d ebd8 b4bd 0937 163d 7d07 583d
000000d0: d19d bebd d510 c9bc 03e2 efbd c79e 89bd
000000e0: d1c8 bc3d 04d2 383d 7c5b fcbd 5f8d 863d
000000f0: d6ab 6ebd bda4 20be 014a 1fbe cdd0 5c3c
00000100: 396c 03be 46e3 c3bd 4a68 153d da4b 5a3c
00000110: db49 9bbd 4e72 6d3d 2d29 bd3d 89ed 94bd
00000120: 2ba8 83bd 2b87 eb3c 188d 3e3d 2092 853d
00000130: 867d 033e 0829 82bc c77f 603d 61ec cfbd
00000140: 2995 57bc b424 f63d b75e 2bbe 1ee0 ebbd
00000150: 1973 24be 02b1 1f3e 3d90 b5bc 64e1 263e
00000160: b92b babd 580b 64bd 03b3 f53d ea8b 33be
00000170: e76c 26be 89a9 f5bd de9b 2a3c 252b 1cbe
00000180: 6494 fd3c 63f4 153e 4eaf 16bd 8ab9 04bd
00000190: 4e5b 21be 4a7d 2fbd 3fe3 553c ee9b 163d
000001a0: b762 45bd 1505 dabd 7c5d bfbd 8517 cc3d
000001b0: 5355 d1bd c4a3 923c 7ca6 dabc 7be7 9dbd
000001c0: a278 25bb dd00 103e 3788 0d3e 0f32 12bd
000001d0: d4a9 ffbc 20e0 cdbd 3ea8 9dbd 7826 07bd
000001e0: 10d1 053e de6a f23c ae61 21be 8af8 3bbd
000001f0: 67cf 2abe 7e66 313e c39e 863c f4df 53bd
00000200: 91f5 7e3d 7dec 12be 3bda 98bd 83bf f33c
00000210: 20d3 113e 0c8e 283e 8ffc 9a3c c9d5 23be
00000220: 5f85 5b3d 5cb8 a7bd 8b1b 303e d212 d2bc
00000230: c022 0bbd 8542 2bbd 9fe5 1c3e a54c a03d
00000240: 2bdf 02be 1a21 1d3d 1528 4d3d 2c18 6bbd
00000250: 35ec 383d b021 35be 949b b7bd 0757 c33d
00000260: 98d3 2d3e 7455 9b3d 2cf8 afbd 8e4e a53d
00000270: 702a 03be a2fd 04be 2efb cabd d1c6 86bb
00000280: a9e4 163d 2f5d e53a a55f 313e 16cf c4bb
00000290: ee81 243e 7939 28be ebed cbbd ad89 1d3d
000002a0: 1b3d c93d 7a7c 513d 9a0d 393e 9de2 bdbd
000002b0: 60c8 1c3e 542f 7b3d 0f6d 563d da30 78bc
000002c0: 272d 0dbe cc73 ec3d 6e1a 0a3d ed8c 013e
000002d0: 9a04 0d3e 6f14 35be 740c 2a3e 15fe 3bbd
000002e0: 802e f0bd 3694 283e 34aa 17bd 0baf 663d
000002f0: 059a 533c 7ab7 b7bd 73dc c03d c494 643d
00000300: b303 1d3e ed19 8fbc d63f 21be 99d1 0f3d
00000310: 7846 5dbd 8475 633c 202d 11be 62c2 223e
00000320: cfd4 9dbd 6417 33bd 1d5d b63b 872c 9cbd
00000330: ae2e ac3d 62e0 08be a0bc a9bc 8cad 08be
00000340: 5d37 e73d ce90 f0bd 515f 283e ec5c 11be
00000350: f2b3 61be ac07 7abc 04c3 35be e1b5 203e
00000360: 90d6 343e 18af 95bd d931 f43d fe5b 79bd
00000370: 9dc6 d73c ab8a 99bd 5980 563d 4bfd 21bd
00000380: 3197 f23c 03b2 a43d 9109 34be 3981 a93c
00000390: 0b4e 193e 4c2e 213e 5b38 cb3d 5a0e 883c
000003a0: 8b86 073e a812 da3d 7cff dbbd a558 4f3c
000003b0: 09db 1dbe 18b9 233a 3d98 39ba f5af f0bd
000003c0: 03e4 143d 24a5 043e 8130 26be 7340 31be
000003d0: 6206 c6bd f56e 0c3c b62e 2bbe 4ded 3cbd
000003e0: 5675 0a3e fcb6 08be 8100 15bd 1061 d4bc
000003f0: 62be b63d 6c6f 5bbd edee 173e 28eb a2bd
-0.0682568 -0.06312106 -0.15836254 0.12859699 0.017466502 0.094839655 0.10391001 -0.05684331
0.030272905 0.14934732 -0.12976849 0.17644633 0.092861556 -0.050461374 -0.13190633 0.08836844
0.065433435 -0.07230998 0.091136426 0.061389975 0.17508884 0.07486496 0.023608582 -0.19243552
0.1539809 0.1794294 -0.051668845 0.003589898 -0.036681138 -0.024830965 0.09774434 0.019708507
-0.16226281 0.106997296 -0.11784445 0.06567272 0.1036739 -0.063156456 0.09782246 0.030066378
-0.09048926 0.16139808 0.12795809 0.16411562 -0.12761058 -0.14567044 -0.14989896 0.08411778
0.072658755 -0.08830436 0.03667358 0.052741516 -0.09307445 -0.024544159 -0.1171303 -0.067197375
0.0921799 0.04512216 -0.12322137 0.06569933 -0.058269344 -0.15687843 -0.15555574 0.013477516
-0.12834252 -0.09564833 0.03647641 0.0133237485 -0.07582446 0.057970338 0.09236369 -0.07271869
-0.0642856 0.028750977 0.046521276 0.06522012 0.12840852 -0.015888706 0.054809358 -0.101525076
-0.013158121 0.12018719 -0.1673535 -0.11517356 -0.16059531 0.15594867 -0.022163505 0.16296917
-0.09090371 -0.05567488 0.119970344 -0.17533842 -0.1625248 -0.11995227 0.010413138 -0.15250833
0.030954547 0.14644007 -0.036788277 -0.032403506 -0.15757486 -0.042844094 0.013054668 0.0367698
-0.048189845 -0.106455006 -0.093440026 0.099654235 -0.102213524 0.017900355 -0.026690714 -0.07710167
-0.0025248905 0.1406283 0.13821493 -0.03569227 -0.03120891 -0.10052514 -0.07698105 -0.03299567
0.13068032 0.029591974 -0.15759918 -0.045891322 -0.1668068 0.17324254 0.016433125 -0.05172725
0.06224591 -0.14348026 -0.07463499 0.029754406 0.14240694 0.16460437 0.018919257 -0.15999521
0.05359399 -0.08189461 0.17198007 -0.02564374 -0.033968687 -0.041811485 0.15321968 0.07827119
-0.12780444 0.038361646 0.050087053 -0.0573961 0.04514714 -0.17688632 -0.08965221 0.095380835
0.16975248 0.07584658 -0.08592257 0.08071624 -0.12809157 -0.12987378 -0.0991119 -0.004113056
0.03683916 0.0017499084 0.17321642 -0.006006132 0.16065189 -0.16428174 -0.099574886 0.038461376
0.09826108 0.0511441 0.18071595 -0.09271739 0.15310812 0.061324432 0.0523501 -0.015148366
-0.13786756 0.11545524 0.03371661 0.12651415 0.13771287 -0.17683576 0.16606313 -0.04589661
-0.11727619 0.16462788 -0.037027553 0.056319278 0.012915139 -0.08970542 0.09417047 0.055805936
0.15333442 -0.017468417 -0.15747008 0.035111997 -0.054022282 0.013882998 -0.1417737 0.15894464
-0.07706606 -0.04372348 0.005565299 -0.076256804 0.08407341 -0.13366845 -0.020719826 -0.13347453
0.112898566 -0.11746369 0.1644261 -0.14195603 -0.220413 -0.015260618 -0.17750174 0.15694381
0.17659974 -0.07308787 0.1192357 -0.060878746 0.026339823 -0.07497152 0.052368496 -0.0395482
0.02961311 0.080417655 -0.17581774 0.020691501 0.14971177 0.15740317 0.09922858 0.016608406
0.13234918 0.1064809 -0.10742089 0.012655412 -0.15415587 0.00062455377 -0.0007079875 -0.11752311
0.03635026 0.12953621 -0.1622944 -0.17309742 -0.09669186 0.008571376 -0.16717038 -0.046124745
0.13521323 -0.13351053 -0.036377434 -0.02592519 0.089230314 -0.053573057 0.14837237 -0.07955009

lstm.weight_hh_l2 f4 [128, 32]
00000000: 4f4f 97bd 0af5 183c 9bb3 21be cea9 0e3e
00000010: 5c48 88bb e6ea 00be edd7 e23d 74c5 743c
00000020: 468f 3bbd ca7b 143e 7df3 90bd 3342 8fbd
00000030: af74 a0bd f968 a6bb 0e7a 1bbe 92e5 483c
00000040: ae04 29be 3133 a7bd 6218 aebd c09d 1bbe
00000050: 2f69 433d fca1 b53d 79b2 cebc ba12 67bd
00000060: 9eda a63c a984 1ebe 2642 3dbe 5015 06be
00000070: 670d e0bd e0bd aeba 6870 003e 3759 093e
00000080: c716 c1bd a4bf 4a3d 97f4 063e 76b5 47bd
00000090: fcc0 3abd 4283 18be 13c8 65bd 2ff2 b8bd
000000a0: 2280 a13d 76f7 3abe 5823 deba b454 5e3d
000000b0: bbf2 6ebd 5355 3dbd ddc3 173e d239 5e3d
000000c0: cebf 10be f07c 7dbd 157d c73d fb9c 5d3d
000000d0: dce0 fdbd 2358 e7bd 572c 64bd 6dac b0bc
000000e0: 2438 dc3c 87a9 cb3c 3fb5 dabd 479d ccbd
000000f0: f769 c23d 794f 1ebe 3fe0 4cbd 13e1 16be
00000100: 745a 11be a643 6f3d 921c 96bc 4bab 163e
00000110: d196 3b3e c919 1abe 63ae c2bd bc87 e63c
00000120: 3cff 9cbc 58e4 40be a2b3 d9bd 97d0 afbd
00000130: aef8 b13c 68b5 9b3d adf4 bf3d 2ee5 183e
00000140: 7cb7 d3bd 23ce 203e 57fd babd 228e 23be
00000150: 688d 92bd 3faa 9d3d adf5 2e3d 9b2e 1abe
00000160: 4c17 5c3d f6a3 ecbc cde4 fb3d b2d0 a9bd
00000170: d567 24be 1006 1abc cdbb 8fbd 3f6c 04bd
00000180: c55f 34bd 1d38 373e 4955 bdbc cc24 34be
00000190: 68a6 d9bd cba7 763b 69dd c43d 4fe0 383d
000001a0: 9e49 30be 800b db3c 71d6 063e 66af 61bd
000001b0: 1601 a03d 0c3e 0e3e 79b1 1a3e 8309 b13c
000001c0: 6e65 26be d550 1cbe ad60 073e 75f3 62bd
000001d0: 0a76 143e bcdd f43d 69d2 1fbe d34f 9c3d
000001e0: 03e5 13be 369c 00be 29e3 f93d de57 1b3e
000001f0: 1073 cd3d d789 8d3d 8595 813c 345d f33d
00000200: 9ad1 19be 1640 9b3d 9590 1439 9a7c 87bd
00000210: 119c b4bd decc a53d 237d 03bd ee89 dd3a
00000220: 788b ffbc 7ceb b6bc cd82 43bd 3f44 1bbe
00000230: 3622 e33c 1b83 2abd f58d 8cbd 67ff c23d
00000240: a25c bbbd 0b5d 00bc 69e4 14be 8116 afbd
00000250: 970c 1c3e cab9 9e3c ed50 ea3d 4d98 203e
00000260: f5af 793d 79f5 ea3d dde6 d63c 5067 c13d
00000270: 61b8 21be 6470 ec3d cb1c 323d b2e0 173d
00000280: 6a0d 25be 23e0 cb3d 948f b33d 66ef 11be
00000290: a571 183e 5c64 363e 9b28 adbc b83b 58bd
000002a0: 854d d8bb 1af6 22be 93c1 0fbe ac5d d1bb
000002b0: 561c a4bd fda2 163e d366 be3d fdc2 75bd
000002c0: 5659 28be f76f 8d3d 194a deb9 d306 cdbd
000002d0: 8d10 233e b0c2 f63d baaa 4abd 8e29 143e
000002e0: 37f4 0bbe d648 1dbe 4fa2 9c3d bb54 b83d
000002f0: a258 aabc a857 39bd 65a8 44be 6483 893d
00000300: 9dfc 763b 39cd b9bd fd17 1abe be1d b73d
00000310: 1b70 0cbe 3952 453d 6783 0e3e 7b0e 89bd
00000320: dc15 f73d 4f7e 7b3d 03f6 e5bc c408 c9bd
00000330: f9dc eebd 59d9 3bbe 74a5 463c 06c7 e13c
00000340: a248 8abd 1a57 db3d 793d 96b9 1a27 1d3d
00000350: 177f 3c3e d5b1 303e df43 1a3e 0454 a2bd
00000360: c520 523c ab80 8ebd 4d06 0b3d 46ae c63d
00000370: 04e5 063c e655 8cbd e356 983c af0c 08be
00000380: ca50 14be 3330 29bd af3f fbbc 642c 36bd
00000390: 8637 b83d 3227 863d e794 453d b6b6 003d
000003a0: 21ae b8bb 8d45 b13c ff6a e4bd 2967 cfbd
000003b0: 9dc6 3c3c a497 cc3d 0dc7 80bb b856 173e
000003c0: 7f56 0b3e dd32 29be 035b 8fbd 0934 453d
000003d0: 5d7b 903c a9ec 853d 7c89 b0bd 0104 d03d
000003e0: 04d5 bbbd e563 043b 6a8b 1bbe 3244 6abd
000003f0: e389 d73d 4ada a73d 621f 0cbe 9d01 de3d
-0.07388174 0.009335766 -0.1579117 0.13931963 -0.0041590165 -0.12589607 0.11076341 0.014939655
-0.045790933 0.14500347 -0.07077692 -0.069950484 -0.07834756 -0.0050784317 -0.15183279 0.012261765
-0.16505691 -0.08164061 -0.085007444 -0.15196896 0.047707733 0.08868787 -0.025231587 -0.056414343
0.020367917 -0.15480293 -0.18482265 -0.13094068 -0.10940056 -0.0013331734 0.1254288 0.13412939
-0.094281726 0.04949917 0.13179241 -0.04875704 -0.0455942 -0.14893821 -0.05609901 -0.09030568
0.078857675 -0.18258461 -0.0016947789 0.054279998 -0.058336955 -0.04622395 0.1482081 0.05425436
-0.14135668 -0.061886728 0.097406544 0.054104786 -0.12396404 -0.112961076 -0.05570635 -0.021566594
0.026882239 0.02486111 -0.10679101 -0.09990936 0.094928674 -0.15460004 -0.050018545 -0.14734297
-0.14194661 0.058414124 -0.01832417 0.1471378 0.1831925 -0.15048899 -0.09505918 0.028140895
-0.019164674 -0.18837106 -0.10629965 -0.08584707 0.021725025 0.0760296 0.0937284 0.14931175
-0.10337731 0.15703635 -0.09130352 -0.15972188 -0.07155877 0.076984875 0.042714763 -0.15056841
0.053733155 -0.028886776 0.122995 -0.082917586 -0.16055234 -0.0094008595 -0.07018242 -0.032329794
-0.044036645 0.178925 -0.023111956 -0.17592162 -0.106274426 0.0037636633 0.09612543 0.045135792
-0.17215583 0.026738882 0.1316774 -0.055098914 0.07812707 0.13890857 0.15106763 0.02161098
-0.1624963 -0.1526521 0.13220473 -0.05540796 0.14498153 0.11956355 -0.15607609 0.07632413
-0.1444283 -0.1255959 0.122015305 0.15170237 0.10031712 0.069110565 0.015818367 0.118830115
-0.15021363 0.07580583 0.00014168241 -0.06615563 -0.0881883 0.08095716 -0.03210176 0.0016902068
-0.031194434 -0.022329085 -0.047732163 -0.15162753 0.027726274 -0.04162894 -0.06863014 0.095213704
-0.09148528 -0.007834683 -0.14540257 -0.08549214 0.15239178 0.0193757 0.114412166 0.15683098
0.06095882 0.114726014 0.026233131 0.094435334 -0.15792991 0.11544874 0.04348449 0.03707952
-0.16118398 0.0995486 0.0876762 -0.1425148 0.14887102 0.17811722 -0.021137526 -0.052791327
-0.006601038 -0.15914193 -0.14038686 -0.0063893404 -0.08013217 0.14710613 0.09296956 -0.06000041
-0.16440329 0.06906121 -0.00042398347 -0.10011067 0.15924282 0.120488524 -0.049479224 0.14468977
-0.1366738 -0.15359816 0.076481454 0.09000536 -0.020794217 -0.04524961 -0.19204862 0.06714514
0.003768719 -0.09072346 -0.15048213 0.0894122 -0.1371464 0.048174117 0.13917314 -0.06692215
0.12064716 0.061399754 -0.02807141 -0.09816125 -0.11663241 -0.1834463 0.012124408 0.027560722
-0.06752135 0.10709973 -0.0002865603 0.03836737 0.18407856 0.17255338 0.15064953 -0.07926181
0.012825196 -0.06958135 0.033941556 0.09701209 0.0082333125 -0.06852321 0.018596118 -0.13286088
-0.14483944 -0.041305732 -0.030670015 -0.044475928 0.08994965 0.06550445 0.048237707 0.031424247
-0.005635992 0.02163961 -0.111532204 -0.10127098 0.0115219625 0.09989861 -0.0039299787 0.14779174
0.13607214 -0.16523309 -0.06999781 0.048145328 0.01763695 0.0653928 -0.08619973 0.10157014
-0.09171489 0.0020201143 -0.15189901 -0.057193942 0.10524347 0.08195932 -0.13683847 0.108401515
