result/LSTM_weather_state_dict_14.pth (torch, 93819 bytes, 17 tensors)

lstm.weight_ih_l0 f4 [128, 4]
0	0xbe371e96	-0.17882761
1	0xbdab3bf4	-0.083610445
2	0xbc0f5903	-0.008749249
3	0x3cb70551	0.022341402
4	0x3e275085	0.1633931
5	0x3db0e966	0.08638267
6	0xbe15338d	-0.14570446
7	0x3c043cef	0.008071168
8	0xbd83fa98	-0.06444281
9	0xbcac888b	-0.021061203
10	0x3dc4729a	0.09592171
11	0xbd795da1	-0.060880307
12	0x3e370774	0.17873937
13	0xbd54d6d9	-0.051962707
14	0xbdd467bc	-0.10371348
15	0xbd92b1ce	-0.0716282
16	0xbe405b49	-0.18784823
17	0x3b0ffd30	0.002197098
18	0xbe13d03e	-0.14434907
19	0x3ded7878	0.11595243
20	0xbe4b667c	-0.19863313
21	0xbdef9200	-0.11697769
22	0xbda46ae2	-0.08028199
23	0xbe00b2e4	-0.12568241
24	0xbbf35618	-0.0074260347
25	0xbe42039f	-0.18946694
26	0x3d4772c2	0.048693426
27	0xbb294843	-0.0025830425
28	0xbd5f9a3b	-0.054590445
29	0xbcd2892e	-0.025700178
30	0x3da591e8	0.0808447
31	0xbde70589	-0.112803526
32	0xbd8d1ae1	-0.06889892
33	0x3d70df6b	0.058806818
34	0x3de8764a	0.11350687
35	0x3def3a64	0.11681059
36	0xbdf88ed6	-0.12136619
37	0xbe41253f	-0.18861865
38	0xbe197df8	-0.1498946
39	0xbdd13e7c	-0.10216996
40	0xbe1970d0	-0.14984441
41	0x3ca9eb81	0.02074218
42	0x3d3b095e	0.04566323
43	0x3d52ebf3	0.05149455
44	0x3d0c8062	0.034302123
45	0xbd9983fd	-0.07495878
46	0x3deeddcc	0.11663398
47	0x3e14cc28	0.14531004
48	0xbd998ffb	-0.07498165
49	0x3e21da02	0.1580582
50	0x3d461120	0.048356175
51	0x3baca4ff	0.0052686925
52	0x3dcfad31	0.101404555
53	0xbd9cc4ef	-0.076547496
54	0x3d87c396	0.06629102
55	0xbda2fa32	-0.07957877
56	0x3d1608ac	0.036629364
57	0x3e009a52	0.12558869
58	0x3b831410	0.0040001944
59	0xbe34055f	-0.17580174
60	0xbd8efb39	-0.06981511
61	0xbce37590	-0.02776602
62	0x3d9c351b	0.076273166
63	0x3bb18b2f	0.0054182033
64	0xbd7180bd	-0.058960665
65	0x3e0bda49	0.13657488
66	0x3e051f93	0.13000326
67	0xbde9a47b	-0.11408325
68	0xbdcdf0a8	-0.10055667
69	0x3d909928	0.07060462
70	0x3da635b1	0.081157096
71	0x3c93dc4e	0.018049385
72	0x3e180498	0.14845502
73	0xbd61b82a	-0.055107273
74	0xbd7922b2	-0.060824104
75	0xbdba7ace	-0.091054544
76	0x3e183655	0.14864476
77	0xbe08003a	-0.13281336
78	0x3df4bc8f	0.11950027
79	0xbe249a51	-0.16074492
80	0x3e0d6998	0.13809812
81	0x3d58e5ee	0.052953653
82	0xbe01fd68	-0.12694323
83	0xbda6c5f1	-0.08143223
84	0x3d3e82c7	0.046511438
85	0x3e113a95	0.14182504
86	0xbcc3045b	-0.023805788
87	0xbe462f26	-0.19353923
88	0xbe295bb0	-0.16538882
89	0xbdff3ba4	-0.124625474
90	0x3e18255c	0.14858001
91	0x3e41ffde	0.18945262
92	0xbe128017	-0.14306675
93	0x3e0cc3c1	0.13746549
94	0x3db634cb	0.08896788
95	0x3e187a93	0.14890508
96	0xbe141dd3	-0.14464502
97	0xbe1d4ec1	-0.15362073
98	0xbe35c537	-0.17751013
99	0xbde55f1b	-0.111997806
100	0x3d36af0d	0.044600535
101	0x3d0fcebd	0.03510927
102	0xbd8a603d	-0.06756637
103	0xbe0d0f3d	-0.13775344
104	0x3da77bf6	0.081779405
105	0x3d21070c	0.03931336
106	0x3d141087	0.036148574
107	0xbd972f76	-0.07382099
108	0x3e19333b	0.14960949
109	0x3cd00c6d	0.02539655
110	0xbe2a81f5	-0.16651137
111	0xbdcba38a	-0.09943302
112	0xbb0c42aa	-0.002140204
113	0x3d9236a0	0.07139325
114	0xbc1d37fc	-0.009595867
115	0xbd409df9	-0.047025654
116	0xbceb70fb	-0.028740397
117	0xbe11c112	-0.14233807
118	0x3e01aa70	0.12662673
119	0xbdf15327	-0.11783438
120	0x3d78c195	0.06073149
121	0x3ddcb8aa	0.107774094
122	0xbe0c1c29	-0.13682617
123	0x3c2bb525	0.0104802
124	0xbd66ec49	-0.056377683
125	0xbceb70b1	-0.028740259
126	0x3d38845e	0.04504811
127	0xbdffa3cd	-0.124824144
128	0xbc44a4e1	-0.012002201
129	0xbdefebcf	-0.11714899
130	0x3dfc1ee2	0.12310578
131	0xbddbb35c	-0.107275695
132	0x3d802895	0.062577404
133	0x3ce1e1dc	0.027573518
134	0x3dcde5d7	0.10053604
135	0xbded5acb	-0.11589583
136	0xbe277ab7	-0.16355406
137	0x3d93071d	0.07179091
138	0xbe25ea78	-0.16202724
139	0xbc5cd878	-0.013479345
140	0xbde7278a	-0.11286838
141	0xbdcb6c65	-0.09932784
142	0xbcff0101	-0.031128408
143	0xbe26ba81	-0.16282083
144	0xbb8caa1a	-0.0042927386
145	0xbd7753f5	-0.060382802
146	0xbd9e6354	-0.07733789
147	0xbdf65c56	-0.120293304
148	0x3ce08f72	0.02741215
149	0xbd1cc2b7	-0.038271632
150	0x3b950e95	0.0045488575
151	0xbb2c80e6	-0.0026321947
152	0x3d3f73ba	0.046741225
153	0xbd825238	-0.06363338
154	0x3dec868c	0.115491
155	0x3ddd7013	0.10812392
156	0xbd04ae06	-0.032392524
157	0xbe25b45d	-0.16182084
158	0x3e16a31e	0.14710662
159	0x3d78986b	0.060692232
160	0xbe35821e	-0.17725417
161	0xbd768654	-0.0601867
162	0x3e150403	0.14552312
163	0x3d6b2eb4	0.057417586
164	0x3dff4f09	0.12466247
165	0xbe049bfb	-0.12950127
166	0x3c42fb8a	0.011900792
167	0xbdb88a33	-0.090107344
168	0xbd90a723	-0.07063129
169	0x3d8e82e7	0.069585614
170	0xbd57f9cb	-0.052728456
171	0xbe3fa354	-0.18714648
172	0xbe1cb821	-0.15304615
173	0x3c3feac7	0.01171369
174	0xbd9deb18	-0.07710856
175	0x3d8727d6	0.06599395
176	0xbdb44b2b	-0.088034
177	0x3cfc1661	0.03077239
178	0xbe0612a0	-0.13093042
179	0xbdb8c97b	-0.09022804
180	0x3ce3a109	0.027786748
181	0xbdc2af5b	-0.09506103
182	0xbdc4fe2f	-0.09618794
183	0xbd3bd801	-0.045860294
184	0x3d8734fe	0.06601904
185	0x3e030ce2	0.12797883
186	0x3d128921	0.035775308
187	0x3d13400f	0.035949763
188	0xbd9d4ba2	-0.076804414
189	0xbe258bd4	-0.16166621
190	0x3e0d6232	0.1380699
191	0x3d9d09f8	0.07667917
192	0xbdee3668	-0.11631471
193	0xbd5325f8	-0.05154988
194	0x3c212c8e	0.009837283
195	0x3d0c372a	0.034232296
196	0xbe0d1e5f	-0.13781117
197	0xbe1131f6	-0.14179215
198	0x3de67c34	0.112541586
199	0xbe0b5d08	-0.13609707
200	0x3c9de0d5	0.019272247
201	0x3c6aac9c	0.01432338
202	0xbe3b4c87	-0.18290912
203	0xbdeb7a8a	-0.11497982
204	0xbe043ad6	-0.12913069
205	0x3d89c287	0.06726556
206	0x3d0066a3	0.031347882
207	0x3de18f24	0.1101363
208	0x3d10388b	0.035210174
209	0x3cfd25d3	0.030901825
210	0xbe22b685	-0.15889938
211	0xbd86573c	-0.065596074
212	0xbc857276	-0.01628993
213	0x3da43602	0.08018114
214	0xbdf613fa	-0.12015529
215	0x3c8e93c8	0.017404452
216	0xbdf22b2a	-0.11824639
217	0xbe19f1d5	-0.15033658
218	0xbd5f58fc	-0.05452822
219	0xbdc888f4	-0.09791747
220	0xbe053110	-0.13006997
221	0x3bae6cd2	0.005323031
222	0xbe1c24b4	-0.15248376
223	0xbd968387	-0.073493056
224	0xbde04127	-0.10949927
225	0x3e21ad4a	0.15788761
226	0x3dfecb34	0.12441102
227	0x3df99e5f	0.1218841
228	0xbdd0ef31	-0.10201872
229	0x3e23ea49	0.16007341
230	0x3d3dec65	0.04636802
231	0xbdc6e11c	-0.09710905
232	0x3e1eaf7d	0.15496631
233	0xbe030d3e	-0.1279802
234	0xbe21ff20	-0.15819979
235	0x3e0c59bb	0.13706104
236	0x3e055a9e	0.13022849
237	0xbd87004b	-0.06591853
238	0xbd66d63f	-0.056356665
239	0x3d9c80ef	0.0764178
240	0xbe44b4e9	-0.19209637
241	0x3df0ab92	0.117514744
242	0x3e1d3204	0.1535111
243	0x3dfaecf3	0.12252226
244	0xbd533750	-0.051566422
245	0x3d89d67d	0.067303635
246	0xbdee4b58	-0.116354644
247	0xbdceac89	-0.10091502
248	0xbca43743	-0.020045882
249	0x3ccb9f03	0.024856096
250	0xbe29bd18	-0.1657604
251	0x3d198fa8	0.037490517
252	0xbe16b2fe	-0.14716718
253	0xbdeb7fa1	-0.11498953
254	0x3d08769c	0.03331624
255	0x3d9803d4	0.07422605

lstm.weight_hh_l0 f4 [128, 32]
0	0x3d047195	0.032334883
1	0xbda446a1	-0.08021284
2	0xbdbe031c	-0.09277937
3	0x3e048426	0.12941036
4	0x3dc4bf6d	0.09606824
5	0xbdeed103	-0.116609596
6	0x3e0a8425	0.13526972
7	0xbe1354cf	-0.1438782
8	0xbc4c651b	-0.012475277
9	0x3d284a87	0.0410867
10	0x3e2dbf96	0.16967615
11	0xbe026155	-0.12732442
12	0x3df4e324	0.11957386
13	0xbb30f4e9	-0.0027001447
14	0x3dd81054	0.10549989
15	0x3d0f6974	0.035012677
16	0x3cd48d6b	0.02594634
17	0x3de27109	0.11056716
18	0xbccd717e	-0.025078531
19	0xbd6615d5	-0.056173164
20	0xbd9cf398	-0.07663649
21	0x3e0ebd49	0.13939394
22	0x3cfc635b	0.030809095
23	0xbe039e8a	-0.12853447
24	0x3e0fa3b3	0.1402729
25	0x3ddeb1f9	0.10873789
26	0xbde32eb4	-0.11092892
27	0xbb445aa8	-0.0029961262
28	0x3d7a45ae	0.061101608
29	0x3e444614	0.19167358
30	0x3dd27fa1	0.102782495
31	0x3d092c08	0.033489257
32	0xbd31ffc1	-0.043456797
33	0x3e08f855	0.13375981
34	0x3e321b2d	0.17393179
35	0x3e0934bc	0.13399023
36	0x3d9baacd	0.07600937
37	0x3cd7f79e	0.02636319
38	0x3d8681f8	0.06567758
39	0x3d828b1d	0.0637419
40	0xbdb7bd5b	-0.089716636
41	0x3e0dc650	0.13845181
42	0x3de31810	0.11088574
43	0x3dc729f3	0.09724798
44	0xbd97a7b4	-0.07405034
45	0xbdb20e58	-0.08694142
46	0x3e02f1fe	0.12787625
47	0x3d96b177	0.073580675
48	0x3e07440e	0.13209555
49	0xbdfd2228	-0.123600304
50	0x3e23f966	0.16013107
51	0x3e3120cd	0.17297669
52	0x3cc84256	0.024445694
53	0x3e248d5e	0.16069552
54	0xbe0ebc1d	-0.13938947
55	0x3e345787	0.17611514
56	0xbda86cdb	-0.082238875
57	0xbcc6de50	-0.024275929
58	0xbdf1a0ab	-0.11798223
59	0xbde3d63e	-0.11124848
60	0xbaaf7f3d	-0.001338936
61	0x3df8b001	0.12142945
62	0xbd0e55ef	-0.03474992
63	0xbe339bcb	-0.17539899
64	0x3e26a2c2	0.16273025
65	0xbd98b5af	-0.074565284
66	0x3e36ea22	0.17862752
67	0x3d97a84d	0.07405148
68	0xbd4fd5b4	-0.050740913
69	0x3d96d854	0.0736548
70	0xbd3ba2bf	-0.045809504
71	0xbcc4a626	-0.024005007
72	0x3dc70be0	0.09719062
73	0xbde5223d	-0.11188171
74	0xbd169298	-0.036760896
75	0x3dafaaff	0.08577537
76	0xbe13890f	-0.14407752
77	0xbdf45d27	-0.1193183
78	0x3e01afaa	0.12664667
79	0xbda3d41b	-0.0799944
80	0xbe35fc9d	-0.17772146
81	0x3e20b7b0	0.15695071
82	0x3d8afa2d	0.067859985
83	0x3d8ee778	0.06977743
84	0xbe1b609f	-0.15173577
85	0xbe0185f3	-0.12648754
86	0x3daf772c	0.08567652
87	0x3c2ef936	0.010679534
88	0x3e2808e5	0.16409643
89	0x3e15b9e1	0.14621688
90	0x3d91bb91	0.071158536
91	0x3e080844	0.13284403
92	0x3de21d72	0.110407725
93	0x3dc592b5	0.09647123
94	0xbcf9604c	-0.030441426
95	0xbdb40f7d	-0.08792017
96	0xbd7c3d11	-0.061581675
97	0x3d0794f1	0.033101026
98	0xbe47b06f	-0.19500898
99	0x3e0d2d78	0.13786876
100	0xbdfd172d	-0.12357936
101	0xbdcd11e7	-0.1001318
102	0x3db42791	0.08796609
103	0xbe156c5e	-0.1459212
104	0xbc6bbfd4	-0.014388997
105	0x3d59fbaa	0.05321852
106	0x3e4cdbb0	0.20005679
107	0x3d8e7f2a	0.06957848
108	0x3db87ed0	0.090085626
109	0xbd68d90d	-0.05684762
110	0xbe28c975	-0.164831
111	0x3dd42c07	0.1035996
112	0xbdf1008e	-0.11767684
113	0x3c3e4a40	0.011614382
114	0xbe17ae92	-0.14812687
115	0x3da8d5e6	0.08243923
116	0x3d4288e4	0.04749383
117	0xbd988634	-0.07447472
118	0xbdb506d9	-0.08839197
119	0x3bb0507f	0.0053806896
120	0x3dccb8d4	0.09996191
121	0xbc1693c9	-0.009190508
122	0xbe14282c	-0.1446845
123	0x3defdf8d	0.11712561
124	0xbe01aa7f	-0.12662695
125	0x3dda8131	0.106691726
126	0xbd98c5df	-0.07459616
127	0x3d870885	0.06593422
128	0x3b5cc11c	0.0033684438
129	0x3e0fb449	0.14033617
130	0xbd0d21ac	-0.03445594
131	0xbdf92a77	-0.12166303
132	0xbd44af99	-0.048019025
133	0xbe0b72ea	-0.13618055
134	0x3e1c59dc	0.15268654
135	0x3db78bce	0.089622125
136	0xbd955d0d	-0.07293139
137	0xbc811fa7	-0.015762163
138	0xbb5bffaf	-0.0033569147
139	0x3ccdf876	0.02514289
140	0x3e3f65c0	0.18691158
141	0x3e00d157	0.12579857
142	0xbd45743a	-0.048206545
143	0x3e2d53ca	0.16926494
144	0x3df145c4	0.11780885
145	0xbd51baf7	-0.051203694
146	0xbd76f946	-0.06029632
147	0xbdb97579	-0.09055609
148	0xbdfa06a5	-0.122082986
149	0xbe0cbd6c	-0.13744134
150	0x3c86bcbb	0.016447416
151	0xbde2a8dc	-0.110673636
152	0x3de34f64	0.11099127
153	0xbdad604c	-0.08465633
154	0x3c3761c0	0.011192739
155	0x3e267033	0.16253738
156	0xbd9939e8	-0.07481748
157	0x3d93f873	0.07225122
158	0xbe082bdd	-0.13297983
159	0xbe04a183	-0.12952237
160	0x3e1f02b4	0.15528375
161	0xbdcea4f6	-0.100900576
162	0xbe210444	-0.15724283
163	0x3defde8a	0.11712368
164	0xbda7a706	-0.08186154
165	0x3ddd099b	0.10792848
166	0x3db1383d	0.08653305
167	0x3d19db72	0.037562795
168	0xbe275f8f	-0.16345046
169	0x3d7e3f93	0.062072348
170	0x3d3703bd	0.0446813
171	0xbe4589e3	-0.19290881
172	0x3e092328	0.13392317
173	0x3de60cd6	0.11232917
174	0x3e03b511	0.1286204
175	0x3e49b5dc	0.1969828
176	0xbdc831fd	-0.097751595
177	0x3daa9d52	0.08330788
178	0x3e34e2f7	0.17664705
179	0x3d9e8aef	0.07741343
180	0xbd4fcbcc	-0.050731465
181	0x3de2f0a0	0.11081052
182	0xbdeafb49	-0.1147371
183	0x3e2df18c	0.16986674
184	0xbdc0d049	-0.09414727
185	0x3e2d6cba	0.16936007
186	0x3dad7604	0.08469775
187	0xbcae023d	-0.021241302
188	0xbc5e2007	-0.013557441
189	0xbe013a0f	-0.12619804
190	0x3d10a716	0.035315596
191	0xbe3413dc	-0.17585701
192	0xbcdb7661	-0.026789846
193	0xbdebc47a	-0.11512084
194	0x3bf2ec7e	0.007413446
195	0xbe036f7e	-0.128355
196	0x3e1da35d	0.1539435
197	0xbd4b0b3c	-0.04957126
198	0xbc5cabb7	-0.013468674
199	0x3d5529e7	0.052041914
200	0x3d26a8f5	0.040688474
201	0xbe437dac	-0.19090909
202	0xbd8a3dcd	-0.06750069
203	0x3df9db6d	0.12200055
204	0xbae8240f	-0.0017710942
205	0xbdf8adc5	-0.12142519
206	0x3e27cc19	0.16386451
207	0xbe0f8b7d	-0.14018054
208	0xbdcf1ded	-0.1011313
209	0x3ce74c4f	0.028234629
210	0xbd303048	-0.043014795
211	0x3d9b1895	0.07573048
212	0xbd24553c	-0.04012035
213	0xbd7ab303	-0.061205875
214	0xbe150d93	-0.1455596
215	0x3de066ef	0.10957133
216	0x3cbc6ca9	0.023001032
217	0xbd8229c2	-0.06355621
218	0x3d25189b	0.04030667
219	0xbd20a97f	-0.039224144
220	0x3d1f0560	0.038823485
221	0x3da9162c	0.08256182
222	0xbdae2e6b	-0.08504947
223	0x3ddaf63e	0.10691498
224	0xbd5f6434	-0.05453892
225	0xbdae793e	-0.08519219
226	0xbdda7d49	-0.106684275
227	0x3e124b42	0.14286521
228	0x3cc56160	0.024094284
229	0x3d903cc4	0.0704284
230	0x3d7c8eaf	0.06165951
231	0x3d97aefc	0.074064225
232	0xbba291fd	-0.004961251
233	0xbc7accfe	-0.015307663
234	0xbdb864bd	-0.09003589
235	0x3df2393c	0.11827323
236	0x3dde51eb	0.10855468
237	0x3d993aec	0.074819416
238	0x3d9e32b1	0.07724512
239	0xbc05335d	-0.008129922
240	0xbe08db69	-0.13364948
241	0xbcc2d656	-0.023783844
242	0x3de4d46b	0.11173328
243	0x3c23e7d5	0.0100040035
244	0xbdb07f46	-0.086180255
245	0xbe2fd3e5	-0.17170675
246	0xbcbea6b3	-0.023272848
247	0x3d067353	0.032824825
248	0x3dc15d71	0.09441651
249	0xbe300c66	-0.1719223
250	0xbb8238ed	-0.0039740712
251	0x3d1ab34c	0.037768647
252	0xbe108b9d	-0.14115758
253	0xbde9fbea	-0.11425002
254	0xbde7e6cb	-0.11323317
255	0x3e032d44	0.12810236

lstm.bias_ih_l0 f4 [128]
0	0x3c23aeec	0.009990435
1	0xbc5170aa	-0.012783209
2	0x3b7f0c18	0.003891712
3	0x3ddc19ea	0.1074713
4	0xbc447176	-0.011989942
5	0xbdcc3e53	-0.09972825
6	0xbe1580ca	-0.1459991
7	0x3e1d505d	0.15362687
8	0xbe3e8c1f	-0.1860814
9	0x3c0d00ca	0.008606145
10	0x3e0e7a0b	0.13913743
11	0xbe19f05b	-0.15033095
12	0x3c9c51e8	0.019082025
13	0xbb6bed99	-0.0035999774
14	0x3de4e044	0.11175588
15	0xbe45aed4	-0.19304973
16	0xbd97f4c2	-0.07419731
17	0xbe09b701	-0.13448717
18	0x3dfa1248	0.12210518
19	0xbcea7093	-0.028618133
20	0xbd63d442	-0.055622347
21	0x39ef66a6	0.0004566211
22	0xbcbe0707	-0.02319671
23	0xbd7a0895	-0.06104334
24	0x3e1275c4	0.14302737
25	0x3d108f3f	0.03529286
26	0x3d8cf2d7	0.068822555
27	0xbe37f298	-0.17963636
28	0x3d846cfb	0.06466099
29	0x3d82d5d3	0.0638844
30	0x3e21ca22	0.15799764
31	0x3e0b6b1a	0.13615075
32	0xbe093b26	-0.1340147
33	0xbcdbbce9	-0.026823478
34	0xbd90943d	-0.07059524
35	0xbe168bd1	-0.14701773
36	0xbe2c81c1	-0.16846372
37	0x3d7cce69	0.061720286
38	0x3e1fcbba	0.1560506
39	0xbce2984b	-0.02766051
40	0xbe4122d4	-0.18860942
41	0xbdb440ef	-0.088014476
42	0xbe13cb65	-0.14433058
43	0xbdd0ce34	-0.1019558
44	0x3dbdef14	0.09274116
45	0xbc027a9e	-0.0079638045
46	0x3d0ecf7c	0.03486584
47	0xbdba65d2	-0.09101452
48	0xbcfa8fe5	-0.030586192
49	0xbe142c34	-0.14469987
50	0x3e125ace	0.14292452
51	0x3d6cd9b6	0.057824813
52	0x3ddecec2	0.1087928
53	0x3e235357	0.1594976
54	0x3db83e02	0.08996202
55	0x3d7d91fb	0.061906796
56	0xbc587894	-0.013212342
57	0xbc42611c	-0.011863973
58	0xbe1120fe	-0.14172742
59	0x3cec16cc	0.028819464
60	0x3d8816fb	0.06645008
61	0xbe416957	-0.1888784
62	0xbdf75c9e	-0.12078212
63	0x3d86b65e	0.065777525
64	0xbdbea818	-0.09309405
65	0x3e07e157	0.13269554
66	0x3c3eb67e	0.011640189
67	0xbd7d819a	-0.061891176
68	0xbddf1b2c	-0.108938545
69	0xbd6c564f	-0.057699498
70	0x3d742813	0.05960853
71	0xbe28156f	-0.16414426
72	0x3c9760c8	0.018478766
73	0x3e01bb8f	0.12669204
74	0xbdc76619	-0.097362705
75	0xbda86499	-0.082223125
76	0xbe34a0d2	-0.17639473
77	0xbdaaf47b	-0.08347412
78	0xbe15b73d	-0.14620681
79	0xbd0bfe28	-0.03417793
80	0x3dcd7702	0.100324646
81	0x3df82c3b	0.12117811
82	0xbd2ffd0b	-0.04296593
83	0xbe2d9752	-0.16952255
84	0x3cf2b8a1	0.029629054
85	0xbdee69b3	-0.11641254
86	0x3e36e3bd	0.17860313
87	0x3e1cab24	0.1529966
88	0x3c15f202	0.009151937
89	0xbdc8653c	-0.09784934
90	0x3d9b3179	0.075777955
91	0xbde65765	-0.11247138
92	0x3d87fd6e	0.06640135
93	0xbdcdd187	-0.1004973
94	0xbcd3561c	-0.025797896
95	0xbd741dd0	-0.059598744
96	0xbdbbe747	-0.09174972
97	0x3e2bbda6	0.16771564
98	0xbc9afad2	-0.018918429
99	0x3cc621bc	0.024186008
100	0x3df4d9f0	0.11955631
101	0xbd536bfc	-0.051616654
102	0xbe385bc5	-0.18003757
103	0x3e1364ed	0.14393969
104	0xbe14a135	-0.1451462
105	0x3baf4b4a	0.0053495513
106	0x3ddbbcda	0.1072938
107	0x3d725bd4	0.059169605
108	0xbe0409ed	-0.12894411
109	0xbe1da6f0	-0.15395713
110	0x3c05215f	0.008125632
111	0x3c92edff	0.017935751
112	0x3d8b7e16	0.06811158
113	0x3ccb59ae	0.024823036
114	0x3df8c3f1	0.12146748
115	0x3dfd56fe	0.12370108
116	0xbe2cbf7a	-0.16869918
117	0x3e1cc95f	0.15311192
118	0xbe2b2253	-0.16712312
119	0xbdca214c	-0.09869632
120	0xbe0b7744	-0.13619715
121	0xbe3bd707	-0.18343745
122	0xbd1e6f86	-0.038680576
123	0x3d0a50ea	0.033768572
124	0xbde291a1	-0.11062933
125	0x3c8db7de	0.017299589
126	0xbd6705d2	-0.056402035
127	0xbe3b6639	-0.18300714

lstm.bias_hh_l0 f4 [128]
0	0xbd28aa66	-0.04117813
1	0xbe0a78f6	-0.13522705
2	0xbd492d66	-0.04911556
3	0xbe161d95	-0.14659722
4	0xbe16c4c6	-0.147235
5	0x3e0d0996	0.13773188
6	0xbe17430b	-0.14771669
7	0x3e17cff8	0.14825428
8	0xbdfc25f1	-0.12311924
9	0xbdfad845	-0.122482814
10	0xbe04477f	-0.12917899
11	0xbda55f7a	-0.08074851
12	0xbe0d486d	-0.1379716
13	0x3dece60e	0.11567317
14	0x3e096b7c	0.13419908
15	0xbd1b3817	-0.03789529
16	0x3d8a37c1	0.067489155
17	0x3dc0b82d	0.09410129
18	0x3d543bc9	0.051814828
19	0x3e14ef15	0.14544328
20	0x3dfc6ac6	0.12325053
21	0xbe214898	-0.15750349
22	0x3e1b3358	0.15156305
23	0x3e31947b	0.17341797
24	0x3e2d9dc1	0.1695471
25	0x3d1b5443	0.037922155
26	0x3d5468e4	0.051857844
27	0xbdba0bb3	-0.09084263
28	0x3dc91eec	0.09820351
29	0x3d4c2fe2	0.049850352
30	0x3c7e4c4e	0.015521122
31	0xbe2f27b5	-0.17104991
32	0xbd84c937	-0.06483691
33	0xbe231571	-0.15926148
34	0x3e004e98	0.12529981
35	0x3c94e634	0.018176176
36	0x3d9d7240	0.07687807
37	0x3decf901	0.11570931
38	0x3e162a9e	0.14664695
39	0x3d492969	0.049111757
40	0x3d5128da	0.05106435
41	0x3da3df52	0.08001579
42	0xbe141ea3	-0.14464812
43	0xbd2cc85b	-0.04218326
44	0x3dcf72bf	0.10129308
45	0x3d24c657	0.040228214
46	0x3d71e0ce	0.05905228
47	0x3de7000e	0.11279307
48	0xbce1a389	-0.0275438
49	0xbda36062	-0.07977368
50	0xbd4570be	-0.048203222
51	0x3dd16d35	0.10225908
52	0xbd656022	-0.055999883
53	0x3ca1392f	0.019680588
54	0xbd9b3510	-0.0757848
55	0xbd51bc98	-0.051205248
56	0xbe156470	-0.14589095
57	0x3e150f8b	0.1455671
58	0x3df0d0cc	0.11758575
59	0xbd3b248a	-0.045689143
60	0xbe1e7594	-0.1547454
61	0xbc353c1b	-0.011061694
62	0x3e0d5798	0.13802946
63	0x3dc8f590	0.09812462
64	0xbd37e742	-0.04489828
65	0x3dcf774e	0.101301774
66	0xbd40f484	-0.04710819
67	0x3d21b984	0.039483562
68	0x3d80ad8c	0.062831014
69	0x3e4326ea	0.19057813
70	0xbd2e666c	-0.042578146
71	0x3e2fddbb	0.17174427
72	0xbe1f1cdc	-0.15538353
73	0x3db54a4b	0.08852061
74	0x3e23cd51	0.1599629
75	0x3e26f7d2	0.16305473
76	0x3e05e9eb	0.13077514
77	0xbe15550b	-0.14583223
78	0x3df6b92f	0.1204704
79	0xbdfb220e	-0.12262355
80	0xbdd856bc	-0.10563418
81	0xbe072cef	-0.13200735
82	0xbdc60b20	-0.09670091
83	0xbc973887	-0.018459572
84	0x3d98a8a7	0.07454043
85	0x3def043a	0.11670728
86	0x3e246ad3	0.16056375
87	0xbda0fe7b	-0.07861038
88	0xbc1547f4	-0.009111393
89	0xbc809910	-0.015697986
90	0xbd9b1e7b	-0.07574173
91	0xbd9a1f9f	-0.075255625
92	0xbbac6dd7	-0.0052621174
93	0x3c73ba2d	0.014875931
94	0x3e04a5ad	0.12953825
95	0xbd0c4471	-0.03424496
96	0xbd7daf8a	-0.061934985
97	0xbe2862ee	-0.16443989
98	0xbc22e3f2	-0.009942042
99	0xbe21ed78	-0.15813243
100	0x3ddba6fb	0.10725208
101	0x3e005f74	0.12536412
102	0x3cc474f7	0.023981554
103	0xbe225159	-0.15851344
104	0x3de05780	0.10954189
105	0x3d5a8ee4	0.053358927
106	0xbcf1c35f	-0.029512106
107	0x3e000501	0.12501909
108	0x3d998d2c	0.074976295
109	0x3c1ccf6e	0.0095709395
110	0xbdddc5fd	-0.10828779
111	0xbccc08eb	-0.024906596
112	0xbdd75c1f	-0.105156176
113	0x3c2a1c80	0.0103827715
114	0x3c5da656	0.013528427
115	0xbce9f268	-0.028557971
116	0xbd83988d	-0.06425581
117	0x3d80f56e	0.06296812
118	0xbd0a4100	-0.033753395
119	0xbd96bb7a	-0.07359977
120	0x3ded2ca9	0.11580784
121	0x3e064848	0.1311351
122	0xbd3b95a4	-0.045797005
123	0xbd993adc	-0.0748193
124	0xbd21efbb	-0.039535265
125	0x3ccca1fe	0.024979588
126	0xbe03e7ea	-0.12881437
127	0x3d648ffc	0.055801377

lstm.weight_ih_l1 f4 [128, 32]
0	0x3e24afcf	0.1608269
1	0xbdee7885	-0.11644081
2	0xbddfdb19	-0.109304614
3	0xbdf1ccf8	-0.11806673
4	0xbe0d8368	-0.13819659
5	0x3d84abcf	0.064780824
6	0xbc386cc5	-0.011256401
7	0xbe2eea5f	-0.17081593
8	0xbe2f1b48	-0.1710025
9	0x3cc5870d	0.024112249
10	0xbdea3de6	-0.114375874
11	0x3da33e7f	0.079709046
12	0xbd45f2c3	-0.04832722
13	0xbc91520b	-0.017739316
14	0x3e1501a1	0.14551403
15	0xbdc9d9c9	-0.09855992
16	0x3d8f645c	0.07001564
17	0xbe236e11	-0.15959956
18	0xbdc930fb	-0.098237954
19	0x3e07fb46	0.13279447
20	0xbddba9e1	-0.10725761
21	0x3b1ffd0f	0.002441231
22	0x3d61221f	0.05496418
23	0x3dfc4247	0.12317329
24	0x3df87f0d	0.12133608
25	0x3daa1d7e	0.083064064
26	0x3d0242e0	0.03180206
27	0x3e313f45	0.17309292
28	0xbda9c284	-0.08289054
29	0xbe06bd35	-0.13158114
30	0x3cd99842	0.02656186
31	0x3d446e2e	0.047956638
32	0x3e282594	0.16420585
33	0x3d9971c2	0.07492401
34	0xbdcd9cea	-0.100396946
35	0x3e0b73a1	0.13618328
36	0x3cf95f9f	0.030441104
37	0xbdc59a24	-0.096485406
38	0x3e141950	0.14462781
39	0xbe2a6496	-0.16639933
40	0xbe070be6	-0.13188133
41	0xbddcabdf	-0.10774969
42	0xbe02ec0c	-0.12785357
43	0xbd960f41	-0.07327128
44	0xbe22028b	-0.15821283
45	0xbd6f606b	-0.05844156
46	0x3e1e89dc	0.15482277
47	0x3e39248a	0.18080345
48	0xbcd33b7d	-0.025785202
49	0x3d4ab297	0.049486723
50	0x3e51744b	0.20454518
51	0x3dfb9484	0.122841865
52	0xbd98cfbb	-0.074614964
53	0xbe490df3	-0.19634227
54	0x3ce3f347	0.027825965
55	0x3db2af6b	0.087248646
56	0x3dbde150	0.092714906
57	0x3dfe0b5b	0.1240451
58	0xbdfb0342	-0.12256481
59	0x3e10a5f6	0.14125809
60	0xbd8edd7f	-0.06975841
61	0xbde49e8e	-0.111630544
62	0xb9ae211e	-0.0003321254
63	0xbdaef501	-0.085428245
64	0x3d8eee91	0.06979097
65	0x3e179434	0.14802629
66	0xbd98a27e	-0.07452868
67	0xbe26d435	-0.16291888
68	0xbd573388	-0.05253938
69	0x3dcfca83	0.10146048
70	0xbdfabc7e	-0.12242983
71	0x3c796e34	0.015224028
72	0x3c188ed0	0.009311393
73	0xbd8156f0	-0.0631541
74	0xbe2c78a4	-0.16842896
75	0xbe3dddbe	-0.18541619
76	0xbdbd7dcc	-0.092525095
77	0x3e2db724	0.16964394
78	0x3d908571	0.07056702
79	0xbc552023	-0.01300815
80	0xbe0ff541	-0.140584
81	0x3da24e6c	0.07925114
82	0x3e0d78fa	0.1381568
83	0x3d90f2c7	0.07077556
84	0x3de03201	0.109470375
85	0x3deffc8c	0.11718091
86	0xbe1a9848	-0.15097153
87	0xbdecdf2f	-0.115660064
88	0x3d83a48c	0.06427869
89	0x3e17fb5d	0.14841981
90	0xbd30478b	-0.04303698
91	0xbd875063	-0.066071294
92	0x3e078da9	0.13237633
93	0x3cb0eff4	0.021598794
94	0x3e1d951f	0.15388916
95	0xbdc79aff	-0.0974636
96	0x3e2e3625	0.17012842
97	0x3e1f0037	0.15527426
98	0x3e2047b5	0.15652354
99	0x3de4e388	0.11176211
100	0x3e2ec04f	0.17065547
101	0x3e1d340f	0.1535189
102	0xbcec8d23	-0.028875893
103	0xbdcafaf3	-0.09911146
104	0x3de76902	0.112993255
105	0x3ccb8b2e	0.02484664
106	0xbc6fdb53	-0.014639693
107	0x3db976db	0.09055873
108	0xbe0cabaa	-0.1373736
109	0x3e439a74	0.19101888
110	0x3dea3792	0.114363804
111	0xbde8c8ec	-0.11366448
112	0x3cbf3633	0.023341274
113	0xbd37a57a	-0.044835545
114	0x3c66decd	0.014091206
115	0xbe28418f	-0.16431259
116	0x3e1e90fc	0.15484995
117	0xbd8bed4f	-0.068323724
118	0x3e238939	0.15970315
119	0xbe242adb	-0.16031973
120	0x3e3a2c12	0.18180874
121	0xbe1928b3	-0.14956932
122	0xbb36eef5	-0.0027913426
123	0x3d08d534	0.03340645
124	0x3de5afba	0.11215158
125	0xbdb06756	-0.0861346
126	0x3c9c25fe	0.019061085
127	0x3e18216f	0.14856504
128	0x3d132915	0.03592785
129	0x3e0420fc	0.12903208
130	0xbde45518	-0.11149043
131	0xbd07d11e	-0.033158414
132	0xbbdf21c7	-0.0068094465
133	0x3cc52201	0.024064066
134	0xbb820c1e	-0.0039687296
135	0xbd0df3d3	-0.034656357
136	0xbcd23003	-0.02565766
137	0xbcf887d8	-0.030338213
138	0xbe11cf5b	-0.14239256
139	0xbda1f346	-0.07907729
140	0xbd971812	-0.07377638
141	0x3d7b69d4	0.061380222
142	0xbe033a9d	-0.12815328
143	0xbd4ffd54	-0.050778702
144	0xbde124ab	-0.10993322
145	0xbd85272b	-0.06501611
146	0x3e1f9589	0.15584387
147	0x3e16487c	0.14676088
148	0xbd089eae	-0.033354454
149	0xbd0ba019	-0.034088228
150	0xbe3ada40	-0.18247318
151	0xbd94989d	-0.07255671
152	0xbe08259f	-0.13295601
153	0xbdcd44bb	-0.10022875
154	0x3e05743f	0.13032626
155	0x3e14a1ef	0.14514898
156	0xbda0071f	-0.07813858
157	0x3e29d5b9	0.16585435
158	0x3d80ba0c	0.062854856
159	0xbcc2438c	-0.02371385
160	0x3e3240ee	0.17407581
161	0xbe0d73e5	-0.13813742
162	0xbe14f07b	-0.14544861
163	0x3d5e8608	0.05432704
164	0xbdfbb670	-0.122906566
165	0x3d71c9d3	0.059030365
166	0xbdd21f49	-0.102598734
167	0x3c17bdfd	0.009261605
168	0x3bd2dd6f	0.0064350883
169	0xba052356	-0.0005078813
170	0x3cf06691	0.029345782
171	0x3e0d598c	0.1380369
172	0xbd08bb49	-0.033381734
173	0x3d93345f	0.07187723
174	0x3e1ce651	0.15322234
175	0x3dc1d01f	0.09463524
176	0xbd7f1703	-0.062277805
177	0x3e17663e	0.14785096
178	0x3e2e6c59	0.17033519
179	0x3d0a3322	0.03374017
180	0x3bef97e1	0.0073118065
181	0xbd1a1d59	-0.037625644
182	0xbd37aad4	-0.04484065
183	0x3c066cf5	0.008204688
184	0x3d6e77ad	0.0582196
185	0xbd006f59	-0.03135619
186	0x3d8a04b8	0.06739181
187	0x3bdef38b	0.006803935
188	0x3e1bdc04	0.15220648
189	0xbc684fb8	-0.014179163
190	0x3dd95756	0.10612361
191	0x3e2c1c99	0.16807784
192	0xbdf26d72	-0.11837281
193	0x3e25cce6	0.16191444
194	0xbe25413b	-0.16138165
195	0xbd8728d2	-0.06599583
196	0xbdc14894	-0.09437671
197	0x3e2c5967	0.1683098
198	0xbdf4ea8e	-0.119588
199	0x3d034a5c	0.032053337
200	0x3dbb761b	0.09153386
201	0xbd62cc98	-0.055370897
202	0x3e00c972	0.12576845
203	0xbc5fb809	-0.013654717
204	0xbd6ba890	-0.0575338
205	0xbd5b64f8	-0.05356309
206	0x3d380e7c	0.04493569
207	0xbd27c239	-0.04095671
208	0x3d815248	0.06314522
209	0xbda28911	-0.079362996
210	0x3d8fa581	0.07013989
211	0x3cd222db	0.025651386
212	0xbdf6163b	-0.12015959
213	0x3dd21d5f	0.10259508
214	0x3ca19387	0.019723667
215	0xbdecbb6c	-0.115591854
216	0xbe236e26	-0.15959987
217	0x3db55ec3	0.08855965
218	0x3d4e6cb2	0.05039663
219	0xbd1688a7	-0.036751416
220	0xbe308ce0	-0.1724124
221	0xbdbfd05d	-0.09365914
222	0x3d11c31b	0.035586458
223	0x3d5cc2de	0.053896777
224	0x3dfaba89	0.1224261
225	0xbe3dbed0	-0.1852982
226	0xbe01f940	-0.12692738
227	0x3e1daada	0.15397206
228	0x3e426f6d	0.18987818
229	0x3d380e51	0.04493553
230	0x3d885b3f	0.06658029
231	0x3ca852e3	0.020547336
232	0x3c6daa17	0.014505885
233	0x3e01509d	0.12628408
234	0xbdf802d4	-0.121099144
235	0x3e299af9	0.16563024
236	0x3d390327	0.045169022
237	0x3d93bb04	0.07213405
238	0x397614e6	0.00023468173
239	0xbb904ee8	-0.0044039376
240	0x3d48ff81	0.049071793
241	0xbd7dd4c6	-0.061970495
242	0x3de9e965	0.114214696
243	0xbdf16f5e	-0.1178882
244	0x3e1914e9	0.14949383
245	0xbd9d4866	-0.076798245
246	0x3dc1fce6	0.09472065
247	0x3d995c5b	0.074883185
248	0x3d3e1b7d	0.046412934
249	0xbd17cb1f	-0.037058946
250	0xbdb80cf2	-0.08986844
251	0x3e16913a	0.14703837
252	0x3e1d18d9	0.1534151
253	0xbdfb11e3	-0.12259271
254	0x3d740088	0.05957082
255	0xbd4b990b	-0.0497065

lstm.weight_hh_l1 f4 [128, 32]
0	0xbdb0c285	-0.08630852
1	0xbe110084	-0.14160353
2	0x3db7ebc9	0.08980519
3	0x3e2ec931	0.17068936
4	0xbd836d59	-0.06417341
5	0x3cb19e5f	0.021681963
6	0x3dc9f144	0.09860471
7	0xbe1c8247	-0.15284072
8	0x3e33f436	0.17573628
9	0x3d75c495	0.06000193
10	0x3e0d40d3	0.1379426
11	0x3d475cb6	0.0486724
12	0x3e207c96	0.15672526
13	0xbe36fcdf	-0.178699
14	0x3c0347c5	0.008012717
15	0xbdb15a55	-0.086598076
16	0xbcedf30a	-0.029046554
17	0x3df1d529	0.11808235
18	0xbca78015	-0.020446816
19	0xbd83af61	-0.06429935
20	0x3e1eb434	0.1549843
21	0xbdc566a6	-0.09638719
22	0x3dfa1eb3	0.12212887
23	0xbe0ca45d	-0.13734575
24	0xbe3d9181	-0.18512537
25	0x3bb009f4	0.0053722803
26	0xbe1ad1b4	-0.15119058
27	0x3e0cec2e	0.1376197
28	0xbe030b22	-0.12797216
29	0x3deccad1	0.11562122
30	0xbca33397	-0.01992206
31	0x3d253ace	0.040339284
32	0xbdeaa6af	-0.114575736
33	0xbe04eb8c	-0.12980479
34	0xbda484d4	-0.080331475
35	0xbdd84ad4	-0.10561147
36	0x3e13a0e2	0.1441684
37	0xbd81a2b2	-0.0632986
38	0xbcec588f	-0.028850822
39	0x3e10dc5f	0.14146565
40	0xbde4331b	-0.1114256
41	0xbd9d8233	-0.07690849
42	0xbe1ec69a	-0.15505448
43	0xbc766ce4	-0.01504061
44	0x3dfcb14d	0.12338505
45	0xbe075eb6	-0.13219723
46	0xbe02c2e6	-0.1276966
47	0x3e0180ba	0.12646762
48	0x3e4ab55e	0.19795749
49	0x3e25828d	0.16163082
50	0x3d9a4ac0	0.07533789
51	0xbc8b7a89	-0.017026203
52	0xbd73125a	-0.059343673
53	0x3de1f61c	0.1103327
54	0xbdab29ac	-0.08357558
55	0x3e312eaa	0.17302957
56	0xbdd91a58	-0.10600728
57	0xbe114a6e	-0.14188549
58	0x3e3cd87a	0.18441954
59	0x3cf37fa7	0.029723955
60	0xbda44086	-0.08020119
61	0xbe03acdf	-0.12858914
62	0xbe35a2f8	-0.17737949
63	0x3d006941	0.031350378
64	0xbe1ad195	-0.15119012
65	0xbcfa74f9	-0.030573355
66	0x3d40f7ca	0.04711131
67	0xbde75830	-0.11296117
68	0xbe180566	-0.1484581
69	0xbdebaaf2	-0.115072146
70	0xbdfe5bd2	-0.12419857
71	0x3df70e91	0.12063325
72	0x3e1c3781	0.15255548
73	0xbc20e59f	-0.009820371
74	0xbd858bb9	-0.065207906
75	0xbe2202b0	-0.15821338
76	0xbe118c06	-0.14213571
77	0x3e0269e6	0.1273571
78	0xbe215516	-0.15755114
79	0x3dd80544	0.10547879
80	0x3dad16e2	0.0845163
81	0xbe130e46	-0.14360914
82	0xbe0683c0	-0.13136196
83	0x3e167e28	0.14696562
84	0xbd07519e	-0.03303682
85	0x3dc364fe	0.09540747
86	0x3d5903c1	0.052982096
87	0x3e0c360e	0.13692495
88	0xbdbbb6a0	-0.09165692
89	0x3ac654c0	0.0015131459
90	0xbc8614a3	-0.016367262
91	0x3dd021b5	0.10162679
92	0xbdb22269	-0.086979695
93	0xbe2a6e45	-0.16643627
94	0x3dfd312e	0.12362896
95	0xbcaa6912	-0.020802055
96	0x3e07c929	0.1326033
97	0x3e24f0f6	0.16107544
98	0x3da75698	0.08170813
99	0xbe24740d	-0.16059895
100	0x3cd72e9a	0.026267339
101	0x3e0461cb	0.1292793
102	0xbd8d75c6	-0.06907229
103	0x3d8f8f64	0.070097715
104	0x3e1feadf	0.1561694
105	0xbdee0f4f	-0.11624014
106	0x3deccff8	0.115631044
107	0xbdc9bf56	-0.098509476
108	0x3d3c9de0	0.046049
109	0x3dbc06bb	0.09180971
110	0xbdc9f61a	-0.09861393
111	0x3de950a8	0.11392337
112	0x3e110ac0	0.14164257
113	0xb98cc5c5	-0.0002685023
114	0xbdbdd649	-0.09269387
115	0x3c2340e3	0.009964201
116	0x3de42ad1	0.11140979
117	0xbcd9bf7c	-0.026580565
118	0x3c266742	0.0101564545
119	0x3da3ba3e	0.07994507
120	0x3e02954a	0.12752262
121	0x3d65b5ff	0.056081768
122	0xbd07dafe	-0.03316783
123	0xbd0b61be	-0.03402876
124	0xbe3019db	-0.17197363
125	0xbd09ef5a	-0.03367553
126	0x3e237871	0.15963914
127	0xbe0b8674	-0.13625509
128	0xbd92248a	-0.071358755
129	0x3da5c265	0.080937184
130	0x3c602e86	0.013682967
131	0xbdadf274	-0.0849351
132	0xbe04a263	-0.1295257
133	0xbdda1a80	-0.10649586
134	0x3d0c30a9	0.034226093
135	0x3ddf8502	0.10914041
136	0x3d0c8d76	0.034314595
137	0x3dce3552	0.10068764
138	0xbde4c71b	-0.11170789
139	0x3deb323a	0.11484189
140	0xbd75de96	-0.060026728
141	0x3e0c842e	0.13722298
142	0xbd86d373	-0.065832995
143	0x3e328656	0.17434058
144	0xbdc1d874	-0.09465113
145	0xbe127bd9	-0.14305057
146	0xbdfbd18c	-0.12295827
147	0x3dfd644a	0.12372644
148	0xbc963d3c	-0.018339746
149	0xbbefd067	-0.0073185447
150	0xbd3d9625	-0.046285767
151	0xbd219667	-0.039450075
152	0xbd6c61d0	-0.05771047
153	0xbdf2997f	-0.11845683
154	0x3e33f641	0.17574407
155	0xbda90639	-0.0825314
156	0xbcdfd7c0	-0.027324557
157	0x3dbbba53	0.09166398
158	0x3e32ed9b	0.17473452
159	0x3d8ebeb3	0.06969967
160	0x3daea9fb	0.08528515
161	0xbe23bb1c	-0.15989345
162	0x3b0559ed	0.002034779
163	0x3dd051f8	0.10171884
164	0x3d0b9742	0.034079798
165	0xbde90f95	-0.11379925
166	0x3dcf4cf3	0.10122099
167	0x3c5297a7	0.01285354
168	0x3cc72850	0.024311215
169	0x3d5366c3	0.051611673
170	0xbdf4b196	-0.11947934
171	0x3e322c36	0.17399678
172	0xbc77fa4b	-0.015135358
173	0x3e2810fe	0.16412732
174	0xbd741167	-0.05958691
175	0x3e1fe790	0.15615678
176	0x3e0c73dd	0.13716073
177	0xbe16ea7f	-0.1473789
178	0xbe242176	-0.1602839
179	0x3dfbde51	0.12298263
180	0xbd065723	-0.032797944
181	0x3d90fb5c	0.07079193
182	0x3d408e19	0.047010515
183	0x3d9f7610	0.077861905
184	0x3d921b76	0.07134144
185	0xbddd9868	-0.10820085
186	0x3ce59687	0.028025879
187	0x3d6e4024	0.058166638
188	0x3cefb3e9	0.029260593
189	0xbe1c5062	-0.15265039
190	0x3cad0fde	0.02112573
191	0xbe0a156e	-0.13484737
192	0xbdc2a5bf	-0.0950427
193	0x3d0366bc	0.032080397
194	0xbd51f596	-0.0512596
195	0xbdaa19a6	-0.08305673
196	0xbc874771	-0.016513558
197	0xbd98778a	-0.07444675
198	0x3d84e48f	0.064889066
199	0xbdb75be1	-0.089530714
200	0x3e05e0b2	0.13073996
201	0xbd824f77	-0.06362813
202	0xbe1097d4	-0.14120418
203	0xbd9ea12c	-0.07745585
204	0x3df29fb7	0.118468694
205	0x3e12feb0	0.14354968
206	0xbdd3ec0b	-0.10347756
207	0x3e0119c8	0.12607491
208	0xbe096689	-0.1341802
209	0xbc521358	-0.012821995
210	0x3d3e8d33	0.046521377
211	0xbd8d9d9e	-0.06914829
212	0x3e2b4269	0.16724552
213	0x3c0b18f0	0.008489832
214	0xbc882ad7	-0.01662199
215	0xbd5137d6	-0.05107864
216	0x3dcb0e30	0.099148154
217	0x3dc61fbe	0.09674023
218	0xbb7e9938	-0.003884865
219	0xbdfb04c4	-0.12256768
220	0x3e02258c	0.12709635
221	0x3dfe969e	0.12431072
222	0x3d4de958	0.050271362
223	0x3d3ea1bb	0.046540957
224	0x3df53e2b	0.11974748
225	0x3b71d6cc	0.003690171
226	0x3e131f6e	0.14367458
227	0x3cfbf5f8	0.030756935
228	0xbd49312b	-0.049119156
229	0x3de5de32	0.11224021
230	0x3de7fa09	0.11326987
231	0x3d05e53f	0.03268933
232	0x3c85c1cb	0.01632776
233	0x3def4f5a	0.11685057
234	0xbd84b589	-0.064799376
235	0xbc372fdd	-0.011180845
236	0x3c8ab8c7	0.016933812
237	0x3dd04bc0	0.10170698
238	0xbd76d135	-0.06025811
239	0x3db0c93c	0.086321324
240	0xbd5006e4	-0.05078782
241	0x3e30b004	0.17254645
242	0x3de8c1c8	0.11365086
243	0x3cb68d48	0.022284165
244	0x3cd2a5e5	0.02571387
245	0xbe1c6a19	-0.15274848
246	0x3dc5095d	0.096209265
247	0xbcfc620e	-0.030808475
248	0xbd20f4c4	-0.039295927
249	0x3da8feaa	0.08251698
250	0xbd846db0	-0.06466234
251	0x39a074f3	0.00030604712
252	0x3e28f141	0.16498281
253	0x3da0daec	0.07854256
254	0xbe1433e6	-0.14472923
255	0x3c485017	0.012226126

lstm.bias_ih_l1 f4 [128]
0	0xbd91b937	-0.07115405
1	0xbd6efdc7	-0.05834749
2	0xbd9f89e1	-0.0778997
3	0xbd138111	-0.03601176
4	0xbc039e38	-0.008033328
5	0x3d315456	0.04329332
6	0x3df4a193	0.1194488
7	0xbdabf76b	-0.083968006
8	0x3d64636c	0.05575888
9	0xbe2a7212	-0.16645077
10	0xbdad0281	-0.08447743
11	0x3d71d63d	0.059042204
12	0x3c80fcfd	0.015745634
13	0x3dd95b93	0.106131695
14	0x3c32c25a	0.010910595
15	0x3e1b53e8	0.15168726
16	0xbdda9c02	-0.106742874
17	0xbe1cd295	-0.15314706
18	0x3e008d4a	0.12553898
19	0xbdd7730e	-0.10519992
20	0xbd847ae2	-0.064687505
21	0x3d5405ad	0.051763225
22	0xbdb7cb42	-0.08974315
23	0xbc0fe283	-0.008782032
24	0x3da40b83	0.08010008
25	0x3d4f258a	0.05057291
26	0xba0f13a1	-0.0005457942
27	0x3dd5b399	0.10434646
28	0x3b85819e	0.0040742895
29	0x3dabce47	0.08388954
30	0x3d130413	0.035892557
31	0xbc2cdb11	-0.010550276
32	0x3df4f9b0	0.119616866
33	0xbdb2c893	-0.08729663
34	0xbe0ec677	-0.13942896
35	0x3cb8651d	0.022509152
36	0xbe3e2659	-0.18569316
37	0x3d6f2779	0.058387253
38	0xbd218808	-0.03943637
39	0x3db34b24	0.08754566
40	0xbdf868f4	-0.12129393
41	0x3dd6a765	0.10481147
42	0xbd99daf7	-0.07512467
43	0x3cc84033	0.024444675
44	0xbd190838	-0.037361354
45	0x3e1419a7	0.1446291
46	0xbda47402	-0.08029939
47	0xbdaa34f7	-0.083108835
48	0xbe32c3d9	-0.17457522
49	0x3e1581d4	0.14600307
50	0xbd1439a5	-0.036187787
51	0xbd240cc1	-0.040051226
52	0x3d6ad170	0.05732864
53	0xbc93287e	-0.017963644
54	0xbe1b20df	-0.15149258
55	0xbdf01002	-0.11721803
56	0x3d4576c0	0.048208952
57	0xbe3f4c31	-0.18681408
58	0xbc040516	-0.008057853
59	0x3d839729	0.06425316
60	0xbd2c680a	-0.042091407
61	0x3dec08ab	0.11525091
62	0xbd7081ff	-0.058717724
63	0x3e1147c0	0.14187527
64	0xbe0c139c	-0.13679355
65	0x3d1fcdbb	0.03901456
66	0xbd85e8b1	-0.06538523
67	0x3e2ed28e	0.17072508
68	0xbd98f269	-0.07468111
69	0x3d620bbc	0.055186972
70	0x3c895b7e	0.01676726
71	0xbe38fcea	-0.18065229
72	0xbde2fd04	-0.11083415
73	0x3d8f49dd	0.0699651
74	0xbc3f3c44	-0.011672083
75	0xbe208c23	-0.15678458
76	0xbe244a5c	-0.16043991
77	0x3db83803	0.089950584
78	0xbe254539	-0.16139688
79	0x3d96fb8c	0.073721975
80	0xbdadb5e6	-0.0848196
81	0xbd9811ca	-0.07425268
82	0xbd3b3946	-0.045708917
83	0x3d8df15b	0.069308005
84	0xbe2dab1a	-0.16959801
85	0xbd899697	-0.06718176
86	0xbc0cf6dc	-0.008603778
87	0x3e3aea14	0.18253356
88	0xbda9597c	-0.08269021
89	0xbe0f834d	-0.14014931
90	0xbe42cdb0	-0.19023776
91	0xbd9a15eb	-0.07523712
92	0xbd856d80	-0.06515026
93	0x3df19e9f	0.11797833
94	0x3de64a24	0.1124461
95	0x3d02cb17	0.031931963
96	0xbd85b1eb	-0.06528076
97	0x3daa41e4	0.08313349
98	0x3cfc1013	0.030769384
99	0x3d76f73a	0.060294367
100	0xbdadd733	-0.084883116
101	0xbb80e3d8	-0.003933411
102	0x3dfdbc3c	0.123894185
103	0x3de39cba	0.111138776
104	0xbe146bcb	-0.14494245
105	0xbe205531	-0.15657498
106	0xbd3abfc9	-0.045593057
107	0xbe3361f8	-0.17517841
108	0xbe323ea4	-0.17406708
109	0xbe092337	-0.1339234
110	0x3c15f9ce	0.009153796
111	0xbe1c2455	-0.15248235
112	0x3d8ca1a4	0.06866768
113	0x3da97020	0.08273339
114	0xbe263207	-0.16230021
115	0xbd0b1fe0	-0.033965945
116	0xbe0a295f	-0.13492344
117	0xbd05bd42	-0.032651193
118	0x3d62912b	0.055314224
119	0xbd0bacc4	-0.03410031
120	0xbe18c610	-0.14919305
121	0x3e1356e6	0.14388618
122	0x3e161e41	0.14659978
123	0xbd97e8d7	-0.074174576
124	0xbc66766f	-0.014066323
125	0x3e078cce	0.13237306
126	0x3dc95f35	0.098326124
127	0x3dcb1e77	0.0991792

lstm.bias_hh_l1 f4 [128]
0	0xbb827265	-0.003980922
1	0xbdf96706	-0.12177853
2	0xbc877726	-0.016536307
3	0x3e1bcad4	0.15214092
4	0x3d4f9051	0.05067474
5	0xbd9b0690	-0.07569611
6	0x3dd402fb	0.10352131
7	0x3d92ddd1	0.07171214
8	0xbdcbbfd1	-0.099486955
9	0x3e0c3fb2	0.13696173
10	0x3d85b8c6	0.06529383
11	0x3de20e81	0.11037923
12	0xbdf8a06b	-0.12139972
13	0x3c384ad6	0.011248311
14	0xbcc5ef9e	-0.02416211
15	0x3dac199a	0.084033206
16	0x3d852070	0.065003276
17	0xbe2eb455	-0.17060979
18	0xbe196392	-0.1497939
19	0xbe204f22	-0.15655187
20	0xbdcc23e1	-0.09967781
21	0xbbe1c8cc	-0.006890392
22	0xbdb441f6	-0.088016436
23	0xbe3d720d	-0.18500538
24	0xbe013d04	-0.12620932
25	0xbb62a949	-0.0034585765
26	0xbe176be8	-0.14787257
27	0x3e04aebb	0.1295728
28	0xbca0331e	-0.019555625
29	0xbe0a2e78	-0.13494289
30	0xbdeb578d	-0.11491308
31	0xbdaa5078	-0.083161294
32	0xbde3ff1e	-0.11132644
33	0xbc92028f	-0.017823486
34	0xbd7078a4	-0.058708802
35	0x3d5b149d	0.053486455
36	0xbcf86bf5	-0.030324915
37	0xbd99bdd3	-0.07506909
38	0x3cf91af0	0.030408353
39	0x3e00eb62	0.12589791
40	0xbd2b7b22	-0.041865475
41	0xbe3dd285	-0.18537338
42	0xbd99c04e	-0.07507382
43	0xbd3a5f50	-0.045501053
44	0x3d7d5acc	0.06185417
45	0x3decfc3f	0.115715496
46	0xbe2bc50e	-0.16774389
47	0xbe256f0a	-0.1615564
48	0x3e1ba8ef	0.15201162
49	0xbe2aff9b	-0.16699068
50	0xbcfe9979	-0.03107904
51	0xbd91ad1e	-0.071130976
52	0xbc3d6476	-0.011559596
53	0x3dd3b05a	0.10336371
54	0xbddfab0f	-0.10921299
55	0x3d9ba7c4	0.07600358
56	0xbc9d8baf	-0.019231645
57	0x3d66bedd	0.056334365
58	0x3da1e7d3	0.07905545
59	0x3b31cd5c	0.002713046
60	0x3d8c9c02	0.06865694
61	0x3dee111b	0.11624356
62	0xbe2bd9cd	-0.16782303
63	0xbd5d3e1e	-0.054014318
64	0xbcf96128	-0.030441836
65	0xbcb85329	-0.022500591
66	0x3b933362	0.0044922093
67	0xbd277394	-0.04088171
68	0x3bc8f0fe	0.006132244
69	0x3b20f6e6	0.0024561225
70	0xbca5c678	-0.020236239
71	0xbcc9b735	-0.024623493
72	0xbe03c243	-0.12867074
73	0xbd24eeff	-0.040266987
74	0xbe25436a	-0.16138998
75	0xbe5ae13c	-0.21374983
76	0x3dddd936	0.10832445
77	0xbded1e95	-0.11578099
78	0xbe4e7d76	-0.20165047
79	0xbcd0bc6d	-0.025480473
80	0xbd22d78c	-0.039756343
81	0xbd6db65b	-0.058035236
82	0x3da23edc	0.07922146
83	0x3db8bfe2	0.09020974
84	0xbe110fb0	-0.1416614
85	0x3e14eff5	0.14544661
86	0x3d469d38	0.04848978
87	0xbded1ba4	-0.11577538
88	0xbd58d6bc	-0.05293916
89	0xbd50fce6	-0.051022433
90	0xbe0d0ac2	-0.13773635
91	0x3d94ff4c	0.072752565
92	0x3de07631	0.10960043
93	0xbc9658cd	-0.01835289
94	0xbe2393a2	-0.15974286
95	0x3dc48f94	0.09597698
96	0x3d76811e	0.06018173
97	0xbdb05c6b	-0.08611377
98	0x3db01515	0.08597771
99	0x3d608af2	0.05482001
100	0xbe0c31eb	-0.13690917
101	0x3d5aafe7	0.05339041
102	0xbd4afd44	-0.04955794
103	0x3b504c85	0.003178389
104	0x3dc1d3cf	0.094642274
105	0xbd2a9688	-0.041647464
106	0xbdb2ca57	-0.087299995
107	0xbe36d345	-0.1785403
108	0x3d24ddc4	0.040250555
109	0xbe0be228	-0.1366049
110	0x3ded987c	0.1160135
111	0xbdb8caaa	-0.0902303
112	0xbd7c5477	-0.06160399
113	0xbdc26833	-0.09492531
114	0x3c519199	0.012791061
115	0x3da053c0	0.07828474
116	0xbdd8074a	-0.10548265
117	0xbe338cc5	-0.17534168
118	0x3e02d02f	0.12774728
119	0xbe0adbd9	-0.13560428
120	0xbde6ac30	-0.11263311
121	0xbd7de56d	-0.061986376
122	0xbe02a30a	-0.12757507
123	0x3da8ac75	0.082360186
124	0x3dfa0ff7	0.12210076
125	0xbe436a9c	-0.19083637
126	0x3ddc0241	0.107426174
127	0x3c0b3a5e	0.008497803

lstm.weight_ih_l2 f4 [128, 32]
0	0x3da3417d	0.07971475
1	0xbdaccd9d	-0.08437655
2	0x39823c07	0.00024840256
3	0x3d9e32a8	0.07724506
4	0x3d265d83	0.040616523
5	0x3e18fcdf	0.14940213
6	0xbe153ef0	-0.1457479
7	0xbdc876e9	-0.09788305
8	0xbd896c45	-0.06710104
9	0x3e083048	0.13299668
10	0xbe14cd0a	-0.14531341
11	0x3de8e7a2	0.113723055
12	0x3d811a72	0.06303872
13	0x3de8ae38	0.113613546
14	0xbe44228d	-0.19153805
15	0x3ce1efd6	0.027580183
16	0x3db1d7ff	0.08683776
17	0xbcd29ea0	-0.025710404
18	0xbdb06fc4	-0.086150676
19	0xbe231e41	-0.1592951
20	0x3da46f53	0.08029046
21	0x3d4542a6	0.048159264
22	0x3e18f05d	0.14935441
23	0xbe1d5f15	-0.15368302
24	0x3df16f33	0.11788788
25	0xbcdcae6a	-0.026938636
26	0xbdf3fb29	-0.119131394
27	0xbde92eb0	-0.11385858
28	0x3e16c7e1	0.14724685
29	0x3db26c98	0.08712119
30	0x3e366b8a	0.1781446
31	0x3cb4e50d	0.022081876
32	0x3dc54ec5	0.09634165
33	0x3cd5b902	0.026089195
34	0xbe19dc1f	-0.15025376
35	0x3c3773b4	0.011197019
36	0x3df91959	0.12163038
37	0x3da0c71e	0.078504786
38	0x3d90f469	0.070778675
39	0xbc15f727	-0.009153164
40	0x3d82e1a0	0.06390691
41	0x3d7b0b64	0.06129016
42	0xbddc61cc	-0.10760841
43	0x3b1ae50a	0.0023635053
44	0x3dd0efb7	0.10201972
45	0xbdb0558e	-0.08610068
46	0x3e112f75	0.1417826
47	0x3d0b6ca2	0.034039147
48	0x3dede441	0.116158016
49	0xbe1ce50c	-0.1532175
50	0xbde194c7	-0.11014705
51	0xbdeb3635	-0.114849485
52	0xbe1cc2f0	-0.15308738
53	0x3d9b7371	0.07590378
54	0xbe26b275	-0.16279013
55	0x3cffe68b	0.031237861
56	0x3de70c9d	0.11281703
57	0x3d8f49ba	0.06996484
58	0x3e05f387	0.1308118
59	0x3c9ec74a	0.019382138
60	0xbe247294	-0.16059333
61	0xbd190068	-0.037353903
62	0x3d06c46e	0.032902174
63	0xbd147b17	-0.0362502
64	0xbe0351ca	-0.12824169
65	0xbe0237d0	-0.12716603
66	0x3e01f679	0.12691678
67	0xbe4150f1	-0.18878533
68	0xbd16b4ea	-0.036793627
69	0x3d17b358	0.03703627
70	0x39ddf0cf	0.0004233182
71	0xbdf591a0	-0.119906664
72	0x3e184322	0.14869359
73	0x3d551939	0.052026007
74	0xbc32881e	-0.010896711
75	0xbe2bd380	-0.167799
76	0x3d2f879c	0.042853937
77	0xbdc39895	-0.09550587
78	0x3d7c740d	0.061634112
79	0x3e0bddc0	0.1365881
80	0x3e1c350d	0.15254612
81	0x3cddc945	0.027073512
82	0xbda3d4fb	-0.07999607
83	0xbb8b396d	-0.004248789
84	0x3e12f085	0.14349563
85	0xbdef98e5	-0.11699084
86	0xbd873ef7	-0.066038065
87	0x3e38e0a8	0.1805445
88	0x3dbe5dce	0.092952356
89	0x3dc4d72d	0.09611354
90	0xbc9ea392	-0.019365106
91	0x3e0d7e8d	0.13817807
92	0x3d82237c	0.06354424
93	0x3e132c96	0.14372477
94	0x3c5736b4	0.013135601
95	0xbd92256d	-0.07136045
96	0x3e4138c3	0.18869309
97	0x3d81336c	0.06308636
98	0xbd97d397	-0.074134044
99	0x3bd778a3	0.0065756603
100	0xbd5c2256	-0.053743683
101	0xbe137f52	-0.14404038
102	0x3e118eee	0.1421468
103	0x3d6ed5d8	0.058309406
104	0x3df22ae7	0.11824589
105	0xbe2981b4	-0.16553384
106	0xbe1e56f4	-0.15462857
107	0xbd0cd4ae	-0.034382515
108	0x3e32d004	0.17462164
109	0x3e174a6b	0.14774482
110	0x3df3ef97	0.119109325
111	0xbe27c7c4	-0.16384798
112	0x3dc383f0	0.095466495
113	0x3e338a1f	0.17533158
114	0x3e1bdbdb	0.15220587
115	0xbd7ade6b	-0.06124727
116	0xbc6cb16d	-0.0144465985
117	0x3de21185	0.11038498
118	0xbdb28164	-0.087160856
119	0x3d9d9741	0.07694865
120	0xbd9eb4ca	-0.077493265
121	0x3db47fad	0.08813415
122	0x3e133a62	0.1437774
123	0x3d5bf6e7	0.05370226
124	0xbcc3614c	-0.023850106
125	0xbd7e8573	-0.062138986
126	0xbd59d3b2	-0.053180404
127	0xbc8beb57	-0.017079992
128	0x3e31bd4b	0.17357366
129	0x3e10d11d	0.1414227
130	0x3dc04975	0.09389011
131	0x3c2195ba	0.009862358
132	0xbdfba1d8	-0.122867286
133	0xbdd07a58	-0.10179585
134	0xbe1c973d	-0.15292068
135	0x3de1498e	0.110003576
136	0x3d73d84c	0.05953245
137	0xbe12acd8	-0.14323747
138	0x3d4dbe52	0.05023033
139	0xbe2fd316	-0.17170367
140	0xbdaede54	-0.085384995
141	0xbdc03def	-0.09386813
142	0xbd554959	-0.052071903
143	0x3d29fd8b	0.041501563
144	0x3e64ed77	0.2235621
145	0x3e05bdbd	0.1306066
146	0x3dd4e82b	0.10395845
147	0xbd6c0eed	-0.05763142
148	0x3d541199	0.051774595
149	0xbd803931	-0.062609084
150	0x3d3f18d8	0.046654552
151	0xbe17d12a	-0.14825884
152	0x3e0a2d48	0.13493836
153	0xbcbfd304	-0.02341605
154	0x3e219760	0.15780401
155	0xbdbd842b	-0.09253725
156	0x3db18821	0.08668543
157	0x3d7774c1	0.06041408
158	0x3e23e8bc	0.1600675
159	0xbe299c3b	-0.16563503
160	0x3d988981	0.07448102
161	0xbc01c5bf	-0.0079206815
162	0x3ce056d7	0.027385158
163	0xbd34e1f5	-0.044160802
164	0xbc9b0900	-0.01892519
165	0xbe1cd0f0	-0.15314078
166	0x3c02a429	0.007973709
167	0x3c82257f	0.01588702
168	0xbdd84aad	-0.10561118
169	0x3daf5988	0.085619986
170	0x3dc92532	0.098215476
171	0x3e2f9937	0.1714829
172	0xbd690810	-0.056892455
173	0xbdb017df	-0.08598303
174	0xbe282779	-0.16421308
175	0xbdeebb6c	-0.11656842
176	0x3e40f1d3	0.18842249
177	0x3d23e842	0.04001642
178	0xbcabfba0	-0.020994008
179	0x3c383f95	0.011245628
180	0x3dbecc91	0.09316362
181	0xbdbe08dc	-0.092790335
182	0xbdf3906e	-0.11892782
183	0x3d55071f	0.052008744
184	0x3b272c93	0.0025508746
185	0x3de7118c	0.11282644
186	0xbd9c91f2	-0.07645024
187	0xbda05be4	-0.07830027
188	0xbd94abc2	-0.07259323
189	0xbde65a29	-0.112476654
190	0xbdb814e5	-0.0898836
191	0x3c2bffae	0.0104979705
192	0x3e047960	0.12936926
193	0xbe180e95	-0.14849313
194	0xbc90d026	-0.017677378
195	0xbd83ec40	-0.064415455
196	0xbdd3863e	-0.10328339
197	0xbd26e4b5	-0.040745456
198	0xbd9037fc	-0.07041928
199	0x3dd75f8c	0.10516271
200	0xbe1d63ef	-0.15370153
201	0xbdef64dd	-0.1168916
202	0x3db701b7	0.08935874
203	0xbd60977a	-0.05483196
204	0x3e5cd491	0.21565463
205	0x3e343f41	0.17602254
206	0xbd5241ba	-0.051332213
207	0x3de175d2	0.110088006
208	0x3e195ba7	0.14976369
209	0x3ab08c61	0.001346957
210	0x3e129054	0.1431287
211	0xbd1bf790	-0.03807789
212	0x3e02e9d9	0.12784518
213	0x3db4fa35	0.08836786
214	0x3df7a2dc	0.1209161
215	0x3e147f90	0.14501786
216	0x3d809a28	0.06279403
217	0xbdab41f1	-0.08362187
218	0xbdcca083	-0.09991553
219	0xbe019a9e	-0.12656638
220	0xbdccdd16	-0.10003106
221	0xbdcf07af	-0.101088874
222	0xbcd1f054	-0.025627293
223	0xbd857c15	-0.065178074
224	0x3dacc782	0.084364906
225	0x3e224f7e	0.15850636
226	0xbce900e7	-0.028442813
227	0xbb917b70	-0.0044397637
228	0x3e23c7bd	0.15994163
229	0x3e121591	0.1426604
230	0x3e0bad39	0.13640298
231	0xbe24a7aa	-0.16079584
232	0xbd67c453	-0.056583714
233	0x3d452544	0.048131242
234	0x3dff01bb	0.12451502
235	0x3b439477	0.002984313
236	0x3d336d31	0.043805305
237	0x3d9f817d	0.0778837
238	0x3df64123	0.120241426
239	0xbe061adf	-0.13096188
240	0xbe264e36	-0.16240773
241	0x3cde9b9e	0.027173813
242	0x3e2136ef	0.15743612
243	0xbdd7b056	-0.1053168
244	0x3e0b7bc3	0.1362143
245	0xbd703db0	-0.05865258
246	0xbcf9072d	-0.03039893
247	0x3e0c2f5b	0.1368994
248	0xbe2b1483	-0.16707043
249	0xbd2e059d	-0.042485822
250	0xbdd545d0	-0.10413706
251	0x3d0a9446	0.03383281
252	0x3d21c1c9	0.03949145
253	0xbe1b3b71	-0.15159394
254	0x3e1edc42	0.15513709
255	0xbca945b9	-0.02066313
