result/LSTM_covidprection_state_dict_new.pth (torch, 134706 bytes, 13 tensors)

lstm.weight_ih_l0 f4 [200, 7]
00000000: e03e b33d 1b2d df3d 3e94 0abd 8716 fd3d
00000010: ab3b 15bd 17c2 b63c 5b4b abbd 21a0 a63d
00000020: 77a8 d73d 6149 ffbd 43f5 043e 17a3 433c
00000030: f21d e63d 29f3 eb3b 384d 5f3d 6d04 d5bc
00000040: a777 b73d 1b95 b13c 79c4 85bd cb99 233d
00000050: 0346 89bd 31ee ec3c 3c26 11bd 2b42 ab3d
00000060: c0ea bebd c78e 54bc aee8 e2bc 907c aabd
00000070: fd5b bd3c 49a1 0cbe 3082 fb3d 3a4b fbbd
00000080: cae8 d83d c266 583c d734 4dbd 8d57 e73d
00000090: 032b 183c ef21 e73d 1f81 183c d1d0 49bd
000000a0: c23e 583d 9080 1ebd c5f2 663d 4bdc de3d
000000b0: 765a 583d 5a4a 91bd 0607 853d deb8 983c
000000c0: 9837 3b3d 268f c2bd c8b4 0dbe bf13 90bd
000000d0: 4c1b 01be b69c f03d c81e 073d 09e3 173d
000000e0: 7509 2b3d ac10 11bb e84c d63d 2d8a b8bd
000000f0: aee2 ddbb 0035 c7bd 6359 373d 0a8e 3ebd
00000100: a599 1d3d 9693 47bd 1426 e83d a7d4 d1bd
00000110: 255f afbd 7e1e eabd a54d 133e 75c0 573d
00000120: 6015 f03d b541 00be 5823 0bbe 7596 efbd
00000130: dac9 c7bd 0f61 4c3d bbf7 363d 14ec eb3d
00000140: 0da3 9cbd ddf1 c2bd b717 953d 7e6e 82bd
00000150: f593 9e3d 367e 46bd cac0 833d 4ef5 04be
00000160: adc2 acbd 8605 023d 68ab 473c dd2c 2dbd
00000170: b82e 763d 42e6 a83d aff8 e4bd a03b c7bd
00000180: 2f7d cb3d 79cf 3ebd cebd 6ebd 4200 e5bd
00000190: ff0b b5bd 2e67 1a3d 74a8 83bc d7df d2bd
000001a0: 6b4f e5ba 4f29 c1bd 50bb 0ebe 9ff4 d1bd
000001b0: c1fe 0cbe 7311 e9bd da73 0d3e d5e5 523c
000001c0: 5be8 673d 8097 03be 03a4 9dbd 436d 69bd
000001d0: d6ac cb3c 198f debd 927a 89bd 9669 05be
000001e0: 5857 15bd 2ca2 aabd 8978 17bd ac03 0dbe
000001f0: bcf3 03be aa47 ebbd 3c2c 48bd 6137 e8bd
00000200: 5c79 ed3d 8127 05bd 3c58 ef3d c76e 3a3d
00000210: ba0c fbbd 7507 b63d 1ad0 41bd d722 7cbd
00000220: fe7e f9bd a1e9 17be 3d68 093d 7162 1dbd
00000230: da03 3a3d fe83 f2bd d3ea b13d dd01 d7bd
00000240: 7907 15bd fbc2 ea3c 504e 9d3d 4e22 ea3d
00000250: c3eb 073e bf29 e8bd 4db9 253d 5e08 6abd
00000260: f71b fbbb 4bea e1bd 8d04 ea3d 0d74 e9bd
00000270: 62a2 8b3d 2fb5 1d3d f5a2 b03c dd98 b9bd
00000280: d9b5 033e a2d6 ff3a b54b c23c 4298 04be
00000290: 93c0 4c3d 7f62 8cbc 206d 8ebd 447a e13d
000002a0: 6e3b 3b3c 056e bebd a7bf a0bd 9cb1 f2bc
000002b0: 9faf 7b3d a9f9 3cbd a034 babd 938c 4fbd
000002c0: 998d 08be a5cb fd3c ed64 a63d 41ab 1bbe
000002d0: 2291 453b 19dd 6c3d 6477 283c c1e7 90bd
000002e0: d0e2 0c3d d13a 853d c538 9b3c b4ae 2cbd
000002f0: 634e 42bd 81ae 0d3d 6067 06bd a5c0 52bd
00000300: f9ef 823d 4281 e93d 3d15 26bd 3795 13bd
00000310: 1b81 4fbc 393f 9e3c be1c 6d3c fb94 233d
00000320: aba9 15be 14b6 27bd b33e e83d dcc7 3d3d
00000330: 1c6c 7fbb f3e8 c3bd af51 bdbd 2152 09be
00000340: 0b85 5dbd ce74 2c3d 7ddf b03d c1fa 593d
00000350: 45c2 0ebe a9fe a2bd 45e5 2dbd 9fbf fa3d
00000360: 9f34 c43c ac21 57bd 588a 5d3d c797 43bd
00000370: 15e8 80bd e5ed bd3d 82c0 37bd b5cf e7bc
00000380: 5a1d 31be f484 a73d 106a af3d 2606 ab3c
00000390: 3e4a 09be 63f3 33be adc1 09be dc87 af3d
000003a0: 133d 523d 88a0 dd3d fd5b 673d bb84 513c
000003b0: 85eb 27bd 0563 e7bd 00b7 d1bd 57a9 05be
000003c0: c97e 573d 5017 87bd 459e 8ebc 5146 9fbd
000003d0: 77da dfbc 1455 c1bd 6332 babd fe40 563d
000003e0: 1090 25bd d08f c03d df07 16bd 7d9f efbd
000003f0: d99d 49bd 7866 d2bd 2a45 54bd 7cee 1bbe
0.08752227 0.10897275 -0.03383278 0.123578124 -0.036433857 0.022309346 -0.08363982 0.08136011
0.10530179 -0.12465168 0.12984185 0.011940739 0.1123618 0.007200618 0.054517 -0.026003087
0.08958369 0.021677544 -0.06531615 0.03994159 -0.06702807 0.028922172 -0.035436854 0.0836223
-0.09322119 -0.012973494 -0.027698841 -0.0832454 0.023115152 -0.137334 0.12280691 -0.12270208
0.10591276 0.013208093 -0.05009922 0.11295996 0.009287599 0.11285769 0.009308129 -0.04927141
0.052794226 -0.038696826 0.056383867 0.10881861 0.052820645 -0.070942596 0.0649548 0.018642839
0.045707315 -0.0949996 -0.13838494 -0.07035016 -0.12608069 0.1174864 0.03298834 0.037081752
0.041757066 -0.0022135181 0.104638875 -0.0901073 -0.006771407 -0.09726906 0.04476298 -0.046522178
0.038476605 -0.048724733 0.11335388 -0.10245638 -0.08563069 -0.11431597 0.14385088 0.052673776
0.11722827 -0.12525065 -0.13587701 -0.11698619 -0.09755297 0.04989725 0.044669848 0.11519638
-0.07648287 -0.09518788 0.07279914 -0.06368731 0.07743064 -0.048460208 0.06433256 -0.12984201
-0.08435569 0.03174355 0.0121868625 -0.042279113 0.06010315 0.08247043 -0.11180245 -0.097281694
0.09935986 -0.04658458 -0.05828648 -0.1118169 -0.08840179 0.037696056 -0.016071536 -0.102966
-0.0017494982 -0.09431707 -0.13938642 -0.10251736 -0.13769056 -0.11380281 0.13813725 0.012872179
0.056618076 -0.12850761 -0.076972984 -0.056988966 0.024862688 -0.108671375 -0.067128316 -0.13028559
-0.03646025 -0.08331713 -0.036980186 -0.13770932 -0.12885946 -0.11488278 -0.04887031 -0.11338688
0.11595413 -0.032508377 0.11686751 0.0455158 -0.12258287 0.08888141 -0.0473176 -0.061556663
-0.12182425 -0.14835216 0.033546675 -0.03842396 0.04541383 -0.11841582 0.08687367 -0.10498402
-0.03638408 0.028657427 0.076809525 0.11432324 0.1327353 -0.113360874 0.04045992 -0.057136886
-0.007663246 -0.11031016 0.11426649 -0.11399088 0.068180814 0.03850287 0.021562079 -0.090623595
0.12862338 0.0019518922 0.02371774 -0.12948707 0.04998834 -0.01713681 -0.06954408 0.110096484
0.011427743 -0.09298328 -0.07849055 -0.029625706 0.061446782 -0.046136532 -0.09092069 -0.05067117
-0.13335265 0.030980894 0.08124719 -0.15202047 0.003014632 0.057828043 0.010282371 -0.070754535
0.034395993 0.06505359 0.018947968 -0.042158797 -0.047438037 0.034590248 -0.03281343 -0.05145325
0.063934274 0.11401607 -0.0405476 -0.036030974 -0.0126650585 0.019317256 0.014472185 0.039937
-0.14615504 -0.040945128 0.11340084 0.04633318 -0.003897435 -0.09565916 -0.092440955 -0.13410236
-0.054081958 0.04210358 0.08636377 0.053217653 -0.13941295 -0.07958729 -0.042454977 0.1224358
0.023950873 -0.052522346 0.054087013 -0.047752168 -0.06294266 0.092738904 -0.044861324 -0.028297285
-0.17296353 0.08179656 0.08565152 0.020876955 -0.13407227 -0.17573313 -0.13452788 0.08570835
0.051327776 0.108216345 0.05648421 0.012787993 -0.040996093 -0.11298183 -0.102399826 -0.1305288
0.052611146 -0.065962434 -0.017409453 -0.07777084 -0.027325852 -0.094400555 -0.09091642 0.052308075
-0.04042059 0.0940243 -0.0366286 -0.11700342 -0.0492228 -0.102734506 -0.051823772 -0.15227693

lstm.weight_hh_l0 f4 [200, 50]
00000000: c307 30bd 5ba4 f4bd d31f a4bd a93b b73c
00000010: f8e3 a9bd 3f5e 4dbd 2486 a1bc 61a7 0abc
00000020: 1436 87bd eea5 dbba dfe6 13bc d291 e23c
00000030: 39cb 913c b557 97bd 64f9 0bbd 954d 16bc
00000040: 6dcb 93bd 2f3e 713c bb9c 203a 408d 833d
00000050: bda4 223d c550 d03d 0071 6abc c8f4 bbbd
00000060: 2fe9 643d df8d ccbd 3066 c5bc 4279 6abd
00000070: 64b7 87bd f890 29bd a532 003e 7519 283d
00000080: ff89 d23c 7842 ee3d 84ad f2bd 57fa 003d
00000090: 0df3 ab3d 6f27 d03d d29c 03be 43ca 193d
000000a0: 4881 a7bd 5886 fa3b 1386 82bd f139 ddbd
000000b0: d2b4 18be 01d5 d1bd db63 a03d 11ab 943d
000000c0: 6594 e7bd e4fb 58bd 291a 2b3a c2db d9bd
000000d0: 6ee9 263d 73a5 033e 930c ce3c 329e 89bd
000000e0: 3634 f03c 137a 583d 4452 083e e9f0 9cbd
000000f0: 6b1a e7bd 98a7 2d3d 76ff 963c f7ca 1fbd
00000100: e316 33bd 0efd 9dbd c2fd 013e ccb0 6ebd
00000110: dca6 e23d 5d24 fe3d b5d8 df3c e5f6 833c
00000120: 4175 c3bc 3187 cf3d 932c d3bd d6a4 663d
00000130: 6007 d9bc 83ae 643d 27d5 75bc 9782 5abd
00000140: 18ea 0dbd 7f52 843d 311d ccbd 49e6 b9bd
00000150: f4d0 87bc 4ea0 38bd 1361 0b3d 5bb0 c43d
00000160: aa5f 08bd c197 d93d eb88 41bd 7615 8fbd
00000170: 860e 77bd 8545 c3bd d2ae edbd cfc4 d5bd
00000180: a1f7 f6bd 70e5 203d 1b84 d23d e07c 1b3e
00000190: 81c6 f73d bef2 8bba ec11 593c 9254 b2bd
000001a0: 1e7d 7c3d c620 efbd 4fd5 8b3d a5af a73c
000001b0: ed20 7f3d 01b1 403d bd50 51bd b03c dd3d
000001c0: 7756 903d 2a27 c83d 9be4 0c3d d00e ab3d
000001d0: 6066 df3d f8d6 353d 05ff e53d 644b eabc
000001e0: 2d79 ca3d dd5f b93c c39a 993d ffdf 263e
000001f0: 6a75 173d 332e 2fbd b32a aabc bffa 273d
00000200: 9efc 713c 3549 0cbd 67c3 d63d 7af2 923d
00000210: ece9 c7bd 7cef 35bc 48f8 6fbb 4b54 a4bd
00000220: c86f 8b3c c577 16bd b1e6 b3bd 89ac 57bd
00000230: 3b0e 65bd a14f 183e 3216 f83c fa42 133e
00000240: 9047 a63c 638f 963c c1cd 833d 564c 293d
00000250: 077a d2bd eed4 b2bd 6caa 0dbd 7f15 893a
00000260: 3c42 9a3d 9e25 6a3d d334 bc3d 3c4f 3f3d
00000270: 21a8 15bd d57e c0bd 8960 c2bd ae07 cabd
00000280: 2f59 453d 6ccf 953d 8511 b43d 9023 84bc
00000290: e297 0abc 4914 39bd 4cd1 fc3a 677d 723d
000002a0: 8a9e 97ba 371d 05bd a586 053c 82c6 6c3d
000002b0: 5c9a 27bd 974d a0bd 9c44 f93c 8d31 5dbb
000002c0: 524d 49bd 693f 983d e217 b5bb 0991 c5bc
000002d0: 3662 7fbd 6271 a7bc 1303 edbd 4e03 383c
000002e0: 1278 ccb9 7a18 ab3d dd93 e93c 489e a1ba
000002f0: 6b09 1d3d 441c e33d 83fa 7bbd b385 ba3d
00000300: b6f3 2c3d c192 e5bd 54fe 1c3d 21bc 9cbd
00000310: 3a87 7dbd 250d 98bd ca4c c5bd 56fd df3d
00000320: f9cd ecbd 3805 973d 3e34 fcbd e0e9 52bc
00000330: 162d 293c 82a7 dc3d 37ab 34bd 7ce3 593d
00000340: af53 d43c b611 973d c6b2 6f3c b795 483d
00000350: c13d b3bd dd85 bfbd 7b0e 023e d9cf dfbd
00000360: 7f65 b1bc a627 da3b d9d6 143e 4e63 0abd
00000370: 2027 d2bd bdc6 29bd 5b5f 8a3d ff92 593d
00000380: 2f73 e13d 18da 27bd da21 813d e89b 05be
00000390: 8ecc 3c3d fa19 8c3d 952a ae3d ce89 9abd
000003a0: ff76 1fbd b92e 053d 6590 c6bd 6714 dabd
000003b0: c6b3 fabd ad63 3b3c f069 b23d ea64 0b3d
000003c0: f7b7 0b3c cea3 613d c035 a6bd 3a30 953c
000003d0: f4e0 1bbd 1ab9 8dbd cfb4 f43d 0939 dbbd
000003e0: f8ef df3c 0b7e 00be 3b3e a03b 9235 69bd
000003f0: 6ef8 3e3d f61d 96bd bd32 b63d d14a cdbd
-0.042976152 -0.11945411 -0.080138825 0.022367315 -0.08295435 -0.05013871 -0.019717284 -0.008462758
-0.066021115 -0.0016757825 -0.009027212 0.027657423 0.0177971 -0.07389776 -0.034173384 -0.00917377
-0.07216535 0.014724298 0.000612687 0.06423426 0.039707888 0.101716556 -0.014309168 -0.09177548
0.055886444 -0.09987997 -0.024096578 -0.057244547 -0.06626776 -0.04139802 0.1251932 0.041039903
0.025700567 0.11633772 -0.11849502 0.031488743 0.08395968 0.10163771 -0.12852791 0.037546407
-0.08178955 0.0076454096 -0.06373229 -0.10802067 -0.14912727 -0.102457054 0.07831546 0.07259191
-0.11307601 -0.052974597 0.00065270305 -0.106376186 0.04074996 0.12856083 0.02515248 -0.067196265
0.029321771 0.052850794 0.13312632 -0.076631375 -0.11284336 0.042396158 0.01843236 -0.03901192
-0.043723 -0.07714282 0.12694457 -0.058274075 0.11066982 0.124092795 0.027325014 0.01610894
-0.023859622 0.101332076 -0.10311236 0.056309544 -0.026492774 0.05583049 -0.015004433 -0.053347196
-0.034647077 0.064610474 -0.09966505 -0.090771265 -0.016579129 -0.045074753 0.034028124 0.0960395
-0.033294357 0.10624648 -0.047249716 -0.06986515 -0.060316585 -0.09534744 -0.1160561 -0.10437929
-0.1205895 0.03928131 0.10279103 0.15184355 0.120984085 -0.0010677201 0.013248902 -0.08707537
0.06164276 -0.11676173 0.06827795 0.020469496 0.06228726 0.047043804 -0.05110239 0.10802591
0.07047742 0.09773095 0.034397703 0.08352435 0.10908198 0.044394463 0.11230282 -0.028600402
0.09886394 0.022628719 0.075002216 0.16296385 0.03697721 -0.04276867 -0.020772314 0.041010614
0.014769701 -0.034249503 0.10486489 0.07175155 -0.09761414 -0.011104461 -0.0036616493 -0.0802389
0.017021075 -0.036735315 -0.08784235 -0.052654777 -0.055921774 0.14874126 0.030284021 0.14381018
0.020297796 0.018378919 0.06435729 0.041332565 -0.10277181 -0.08732019 -0.034586355 0.0010458677
0.075321645 0.05716478 0.09189763 0.046706423 -0.036537293 -0.09399191 -0.09491069 -0.09864746
0.048180755 0.07314953 0.08792404 -0.016130239 -0.008459063 -0.04518536 0.001928845 0.059201624
-0.0011567634 -0.032498565 0.008149778 0.0578065 -0.040918693 -0.07827299 0.030428223 -0.0033751458
-0.049146004 0.074339695 -0.0055265287 -0.02411701 -0.06234952 -0.020439807 -0.11572852 0.011231257
-0.00038999371 0.08354278 0.02851289 -0.0012330497 0.03833906 0.110893756 -0.061518203 0.09107532
0.04222461 -0.11209632 0.038328484 -0.0765307 -0.06189654 -0.07424382 -0.09633787 0.10936992
-0.11562724 0.07374042 -0.12314652 -0.012873143 0.010325691 0.10774137 -0.044108596 0.05319546
0.02591881 0.07376425 0.014630025 0.048970904 -0.08752013 -0.09351704 0.12700836 -0.10928316
-0.021654842 0.0066575585 0.14535083 -0.03378611 -0.10261369 -0.041449297 0.06756469 0.053118702
0.11008298 -0.040979475 0.06305285 -0.13047755 0.046093516 0.06840892 0.08504216 -0.075458154
-0.038931843 0.03251526 -0.0969551 -0.10648423 -0.1224132 0.011437339 0.08711612 0.034031786
0.008527747 0.055087857 -0.08115721 0.018211473 -0.03805633 -0.06920071 0.11948549 -0.10704238
0.027336106 -0.12548082 0.004890231 -0.056935854 0.04662364 -0.07329933 0.08896396 -0.10024036

lstm.bias_ih_l0 f4 [200]
00000000: 5cee a0bc 72cc dc3d 41f8 803d b0b1 b6bd
00000010: 8ceb e23b d355 9cbd a85c 0d3a 8d9c e1bd
00000020: 53b6 6abd 84c8 a3bd ab70 13be 3a5a 063e
00000030: ca9f 87bd 4471 50bd f381 b0bc e3ea 97bc
00000040: 0424 efbd 0802 053c 545d bdbd 1bc1 f3bd
00000050: c12d c1bd 6555 ebbd d510 d43d 26f5 213d
00000060: 53ed cf3d 80ef 09be a038 0cbe 81d4 513d
00000070: 9010 a2bd c885 4ebd 1f92 cebd 2d0e f9bd
00000080: 766f e0bd e0b1 c5bd aa6f 953d 18fb 79bb
00000090: d019 793d 09bd cd3d b450 c73d 7869 04be
000000a0: 84c2 5b3d 17e8 953d c0ba 9ebd 3244 5dbd
000000b0: c003 d43c f5c9 1cbd a0bd e6bd 70b5 24bd
000000c0: da31 32bd 2459 9d3d cdb1 493d 7d19 9b3d
000000d0: 188a 91bc 4e1f 08be bb01 063e cebc b3bb
000000e0: 4739 043d e3a4 cbbd 5231 31bc 9c56 a63c
000000f0: 7320 83bd 1ada 9ebd ff39 bb3c 6051 c43d
00000100: 3c1d c43d d085 e23c bb93 773c d367 173d
00000110: be25 4cbd 74d6 d23d bb09 8b3d a01a 1abe
00000120: 4e26 fe3d 09ba 613a e6f1 04be f370 8bbd
00000130: 55a0 e33d 0d87 f3bd ddf2 c03c 5c89 53bd
00000140: 153d 08be 5026 393d f36d 653d a21f 0c3e
00000150: a28c f9bd eb5b 863d 3573 963d 51ae c9bc
00000160: e7bc e43d df46 e73d 1cbb 14be 1806 823d
00000170: cff6 833c 778c d6bb 479a c13d c490 02bc
00000180: 4975 9fbd ef47 d83d 346e 953d 4256 803d
00000190: f419 0dbd a70f fcbd 2948 283b ffbc f6bc
000001a0: 6391 ebbc dc15 efbd 0d29 b13d 25d0 b3bc
000001b0: a299 1dbe 051f 1bbd d99e 20be e7a2 bc3d
000001c0: 39c4 babc be04 9bbd aea9 00be 021c b13d
000001d0: 52ac 34be 059a fbbd 3721 b6bc 6063 9e3d
000001e0: f029 dbbd bf7d aebd ed3d a63d 1598 1fbe
000001f0: 56a1 9d3d a552 aa3d 84d0 913d 9079 da3d
00000200: 9e1c 0a3e 7c89 86bd 621e 883d 10f8 a83d
00000210: 77bb c73d 5e07 01bd c0fb 9abd 3b57 dfbd
00000220: 9aa4 71bb 5a35 c2bc e818 cf3c 8bb9 183e
00000230: 39e7 06be 3bd2 033d 1434 1c3d 5a0b 71bd
00000240: d7ab ca3d f7b4 c03d 0003 d0bd 3b50 24bb
00000250: f722 b8bd 8355 a2bd ac63 04be eae4 103d
00000260: 6cab edbc ae08 c3bd 6977 00bd d0b7 9fbc
00000270: caeb e03c 6f75 c33d f919 cdbd 5f05 f5bc
00000280: 3e3f 023e 5519 bf3d 333f 433d 01fb 4ebd
00000290: 8ef3 ed3b 6bb1 2dbc 9f56 ae3a b84d 7d3d
000002a0: 20f6 58bd fb4e 2abd 527a b53d dade 063d
000002b0: f77f 12be ce39 39bd 1684 953d 4bcb 853d
000002c0: e190 903d ae57 b4bd 16b3 f5bd 6426 213d
000002d0: 8bba ba3d b0d1 e63d 6b67 e63c 5876 9a3d
000002e0: 204b d4bd 7d5b 0c3d 629b 2bbd d63b d0bc
000002f0: ac07 8c3d 7a2f f8bd 216f 88bc b3ca 68bd
00000300: c782 6a3d 672e 1abe fdc8 ccbd 281f fabd
00000310: e6ab a23d ac63 943d bc77 e93d 79f6 043e
-0.019644909 0.10781182 0.06297351 -0.0892061 0.006925052 -0.07633557 0.000539253 -0.11016188
-0.057302784 -0.0799723 -0.14398448 0.13120356 -0.06622274 -0.05088927 -0.02154634 -0.01854462
-0.11676791 0.00811816 -0.092463166 -0.11902066 -0.09432555 -0.11490897 0.10354773 0.039540432
0.10152688 -0.13470268 -0.13693476 0.05122805 -0.07913315 -0.050420552 -0.10086464 -0.12160907
-0.109587595 -0.096530676 0.07296689 -0.0038144048 0.060815632 0.10045821 0.0973219 -0.12930858
0.0536523 0.07319658 -0.077504635 -0.054020114 0.025880694 -0.03827854 -0.11266637 -0.040212095
-0.043504573 0.07683018 0.04924183 0.07573221 -0.017766044 -0.13293192 0.13086598 -0.0054851538
0.032281186 -0.09943559 -0.010814982 0.02030497 -0.064026736 -0.07756443 0.022854803 0.095858335
0.095758885 0.027651697 0.015110905 0.03696425 -0.04984068 0.1029481 0.06788965 -0.15049219
0.1240965 0.000861079 -0.12982902 -0.06808653 0.11114565 -0.11890993 0.023553306 -0.051644668
-0.13304551 0.045202553 0.05601306 0.13683942 -0.12185027 0.06560501 0.07346193 -0.024619253
0.11168843 0.112928145 -0.14524502 0.063488185 0.016108898 -0.0065475064 0.09453254 -0.007969085
-0.07786042 0.10560595 0.0729641 0.06266452 -0.03444858 -0.12307673 0.0025677776 -0.030119417
-0.02875585 -0.11674091 0.08650408 -0.021949837 -0.15390638 -0.03787138 -0.15685596 0.09210759
-0.022798644 -0.07569264 -0.12564728 0.0864792 -0.1764386 -0.12285236 -0.022232635 0.07733798
-0.10701358 -0.08520078 0.0811728 -0.15585358 0.07696788 0.083165444 0.07119849 0.106677175
0.13487479 -0.06569192 0.0664642 0.08250439 0.09752553 -0.031501167 -0.07567549 -0.1090531
-0.0036871792 -0.02370708 0.02528043 0.14914529 -0.13174142 0.032182913 0.038135603 -0.058848716
0.09896057 0.09409516 -0.10156822 -0.0025072235 -0.08991044 -0.07926466 -0.12928647 0.03537456
-0.029012404 -0.0952314 -0.03136388 -0.019496828 0.027456183 0.09543883 -0.100147195 -0.029909788
0.12719437 0.093310036 0.047667693 -0.050532345 0.0072617 -0.010601382 0.0013300962 0.061841697
-0.052969098 -0.041579228 0.088612214 0.03292737 -0.14306627 -0.045221142 0.07300584 0.06532916
0.070588835 -0.08805786 -0.119970486 0.039343253 0.091176115 0.112704635 0.028125485 0.075421035
-0.103658915 0.034266938 -0.04189623 -0.025419157 0.06837401 -0.121184304 -0.016654553 -0.056833934
0.057253625 -0.15056764 -0.09999273 -0.12212974 0.07942943 0.072455734 0.11399791 0.12984647

lstm.bias_hh_l0 f4 [200]
00000000: b712 fe3c 4195 f3bb 6608 e33c 0921 a43c
00000010: d0ea 5e3c 170b eabd d31f a93d 56d8 f6bd
00000020: 164d c03d aca3 303d e46d f33c 1f86 5e3d
00000030: 5fc1 583c 9699 9dbd ec1d c0bd 4947 bebd
00000040: 1a3d aabd da08 083d 79ef cb3b a2ac 05bc
00000050: a3e3 e83c a005 013e 7516 95bc 09d4 a8bd
00000060: 05f1 ffbd 8481 c43d 1d38 19be ff5a 833d
00000070: f7ff e23d d835 8c3d b58f 9abc e0e0 abbc
00000080: 9fb3 813d dd91 a9bd 6ede 4e3d f05e 33bd
00000090: be4e 403d 345f 5cbd 043f b9bd 07b0 8bbd
000000a0: 40e2 5c3d 304d 353d 310c e8bd f9f6 edbd
000000b0: 0d94 4fbd 5df8 18bd 8207 87bd 83b3 a33d
000000c0: 1cd9 ae3b bb71 42bd ebc2 a7bc 4854 553d
000000d0: 2d3f e3bd b496 12be 966f f7bd f14c 563d
000000e0: 5eb0 4fbc 2d38 15be 2ceb e43d 38d0 6e3d
000000f0: 28c9 0dbe 1680 b33d 935a b7bc a751 bebb
00000100: 67f0 cf3d c704 b63d cc1c 0b3d 28e3 c0bd
00000110: 7e37 ce3d d440 e43d c025 e2bc a139 fabd
00000120: b2b3 023e 4f12 89bd 02ee dbbd d208 17be
00000130: 9820 fd3c 730e 5b3d 10e5 94bd d383 10be
00000140: d02d a83d dccf 59ba bb19 cb3d 1174 7cbc
00000150: 8a18 f83d 4b98 21bd 631b bebd 6a01 7c3d
00000160: 0821 1b3d 2def e23d ac8c a4bc 1c2f edbd
00000170: 383f f1bd ed6e 5ebd 7845 fdbc cebe bebd
00000180: 5916 c23d 2627 bdbd cf58 913b 4c5b 993d
00000190: 69fc 053d b2ab 0a3b 8289 9e3d 19a7 9dbd
000001a0: 86bd 0fbe 72ff 3bbb fb0c f5bd 9457 f5bd
000001b0: 0472 f3bd a949 2b3e 4411 e5bd 7beb fd3d
000001c0: f605 b33d bffd aa3c 423c cdbd 45a0 e2bd
000001d0: d793 27be dec9 c63d 9c90 d2bd bdf1 d0bc
000001e0: ac0e e23c 28b6 30bc bcb3 893d b353 05be
000001f0: 1a03 cb3d 9e70 c1bd 42ce a4bd 10ab 06be
00000200: a320 d53d 852c 90bd c769 7cbd 72d8 a23d
00000210: 2632 9a3c 6687 fd3d eddf 393d 2097 efbc
00000220: 1011 04be bc69 1ebe 8690 6a3d 047d 083d
00000230: c64a e53d d6ac 05be c04e 283d 287a 9c38
00000240: ebb1 aa3d ff4f 913d 513a 86bc a135 26be
00000250: ffb4 06bd 07f5 0d3e 8c13 f0bd ade5 e4bd
00000260: 6fc1 e93d 1035 6fbc f64a 4fbd c7f8 e63b
00000270: cbc1 083d 73ca 4abc 8e54 dc3d a906 bdbc
00000280: 0eb1 8dbd f538 87bd 92c7 e8bc dbcd 11bd
00000290: 7c38 a03d 7f4b 3b3d de94 dd3d ce94 a43d
000002a0: cd83 ed3d ed74 10be 5d06 2cbd e408 87bc
000002b0: ff64 bd3d 22e5 98bc aea7 ff3c a743 09bd
000002c0: 9771 26be 9d30 c83b 6cf3 8dbc faae bebd
000002d0: 7b91 f63d 9248 eebd 2a8f 15be d07d e0bd
000002e0: 19af 09be 253e e7bc 6bb6 d2bd 6daf bc3d
000002f0: 8e4e 9e3d 97cf 543d b7c7 ba3d 1f18 febd
00000300: b41e cabd 6a67 c23d 95ec a53d 3557 a33a
00000310: 9877 573d a231 a93c 4501 65bc aceb 69bd
0.031014783 -0.007433564 0.027713966 0.020035284 0.013605788 -0.114278965 0.08258023 -0.120529816
0.09389703 0.04312484 0.029715486 0.054327127 0.013229697 -0.0769531 -0.09380707 -0.0929094
-0.083124354 0.033211567 0.0062236157 -0.008158835 0.028428858 0.12599802 -0.018199185 -0.082435675
-0.12497143 0.09595016 -0.14962812 0.064138405 0.11083978 0.068462074 -0.018867353 -0.020981252
0.06333088 -0.08279774 0.050505094 -0.04379171 0.046950094 -0.05380173 -0.090452224 -0.06820684
0.053926706 0.044263065 -0.1133045 -0.11619372 -0.0506783 -0.037346233 -0.06593229 0.079932235
0.00533594 -0.047471743 -0.020478686 0.05208233 -0.11096034 -0.14315301 -0.1208183 0.05231947
-0.012676327 -0.1457221 0.11177668 0.05830404 -0.13846266 0.08764665 -0.022382056 -0.0058080736
0.10153275 0.0888763 0.03396301 -0.094183266 0.10069178 0.111451775 -0.027605891 -0.12218023
0.12763861 -0.06692945 -0.10738756 -0.14749458 0.030899331 0.053480577 -0.07270253 -0.14112787
0.08211863 -0.00083088665 0.09917017 -0.015408532 0.121140555 -0.03945188 -0.09282567 0.061524786
0.037873298 0.110807754 -0.020086609 -0.11581251 -0.11779636 -0.054305006 -0.030916914 -0.09313737
0.09476919 -0.092359826 0.0044356356 0.074881166 0.03271142 0.0021159467 0.07741071 -0.07697887
-0.14037141 -0.0028686193 -0.119653665 -0.11979595 -0.11886981 0.16727318 -0.11184934 0.1239843
0.08741371 0.020872949 -0.10021259 -0.11065725 -0.1636499 0.09706472 -0.10281488 -0.025505895
0.027594887 -0.010785617 0.06723735 -0.1302021 0.09912701 -0.09445308 -0.08047153 -0.13151193
0.104066156 -0.070397414 -0.061624315 0.0795144 0.01882274 0.12379341 0.045379568 -0.029246867
-0.12897134 -0.15470022 0.057266735 0.03332235 0.111959025 -0.13054213 0.041090727 7.461413e-05
0.083347164 0.07095336 -0.01638523 -0.16231395 -0.032887455 0.13863002 -0.11722478 -0.1117662
0.11413848 -0.014600053 -0.050608598 0.0070486995 0.03338794 -0.012377369 0.10758315 -0.023074465
-0.06918536 -0.066026606 -0.028415475 -0.03559671 0.078232735 0.045726296 0.1081941 0.08036195
0.11597405 -0.14107104 -0.041998256 -0.016483732 0.09247779 -0.018663947 0.031207886 -0.033511784
-0.16254269 0.006109311 -0.017327987 -0.09310718 0.12039467 -0.116349354 -0.14605394 -0.10961497
-0.134457 -0.028227875 -0.102887 0.09213147 0.07729827 0.051955786 0.09120124 -0.124069445
-0.098691374 0.09492381 0.08101765 0.0012461903 0.052604288 0.02065355 -0.013977353 -0.05710952

lstm.weight_ih_l1 f4 [200, 50]
00000000: 86e8 023d d2ad e0bd 7225 143e 917f e6bd
00000010: bb56 e3bd 8296 c93d f50b 9fbd 291a 82bd
00000020: 139b d7bc 6713 02be 8f13 7bbb f034 edbc
00000030: a79d ecbc 147e 2db9 3e16 aabd 2fc1 91bc
00000040: a9b9 553b e83d 01be 6487 dcbd c115 de3d
00000050: cd89 21be 5133 20bc f2fd 87bd b854 133e
00000060: 89c2 cd3d 1b6a 9d3d 2e52 5bbd eeb5 14be
00000070: deec f1bc a85f b73d 217c 2f3d b108 b8bd
00000080: 389a 07be 70ae d43d 2f6b cd3c 7d52 ab3d
00000090: 3388 02be c239 103c 5f01 e03d b727 0cbe
000000a0: 6421 fabd 4f5f f8bd f5cc b6bd e4eb 81bc
000000b0: 04a5 763d a3de 4cbd cb6c e73d 407b e73d
000000c0: 6691 b23d 1f26 fcbd a6a8 803d 9cca 8a3d
000000d0: db47 bc3d 874d 10be 7893 a8bc 5f1a 87bd
000000e0: d5b2 69bd bfa3 ef3c 3cf1 00bb a0f4 8b3d
000000f0: b719 cebd 533f 34bd df2b 5f3d f47e 4fbd
00000100: dee3 f33c 90ec bebd c6ac ee3d be1c 7dbc
00000110: a2a0 173d f2f0 ea3a d456 b63c f480 033e
00000120: e2c1 8ebd ac1d 0a3e 72ff 61bd 430a 403b
00000130: 2157 cebd f8e1 3a3d 109c 00be c9e1 f13c
00000140: 7461 a7bd decb 033e 799c 123e 178f ca3d
00000150: a5ac 04be dcd6 903d efd8 c7bd 156a 933c
00000160: 0aba 9fbd 251b d53d ecfe dabc fecc 133d
00000170: 4b75 523d a2e3 bf3d 9ed1 ba3d e3e7 9bbc
00000180: c853 d6bd ab4e 8b3d 24e9 32bd ce41 e2bc
00000190: 1928 a33c e62e 0c3e 747c cf3d 3d8c 8dbc
000001a0: 3cd6 6cbd daeb 003e 93a4 b33d bfda 01be
000001b0: 1716 293b 4925 e1bd cc45 a4bc 7f4f 0dbe
000001c0: 5f4a ebbd 20f9 d8bd 67ad 6cbc 5e74 133d
000001d0: 241a eabd bcfe 80bd db8a 063d a2d6 463d
000001e0: 714f 083c 4873 07be 20a1 c8bc dd36 643d
000001f0: 60b5 0cbe 719b d5bd 9007 793c 964d c93b
00000200: 548b da3d 763b 6c3d 6001 933d 9fb2 b5bd
00000210: c719 61bd 4f64 3ebc 11c4 f7bb cf84 90bb
00000220: 3c76 883d 03be a4bd 693b 85bd 522b 5ebd
00000230: 4583 153c 68fa 053d e8e0 f7bc 7afc ac3d
00000240: ceab dbbd 5e31 9d3d f8b5 1b3d 3400 da3d
00000250: b013 06be a410 023e 5ae7 aa3d 3595 d63d
00000260: 6219 8a3d 31b0 5cbd d03e 67bc e8f8 593c
00000270: 0d27 bd3c 21d9 03be 5fd6 9abc 8067 04be
00000280: 6a05 b0bd f6ab 98bd 7eb6 fabc 1fca 9a3c
00000290: 1a35 f53d a0dd 47bd d8a6 a4b6 82ed 7e3d
000002a0: 4a39 4e3d 70b5 1d3e 7542 0f3d 1cd0 823c
000002b0: 2dd6 f2bd b2ee 843d 5765 f33c 12c5 1d3d
000002c0: 0490 6bbc 2a75 a3bc 1589 1b3c 9017 203c
000002d0: 3ad6 1fbd 9cbe 0ebe 701e 743d 9627 94bd
000002e0: 34c2 4b3d 7038 943d 7ab1 9b3d 9b75 9a39
000002f0: b5f9 8bbc d0cc 9a3d c888 acbd 5f7e cabd
00000300: b811 b03d 73cd 153e c6ec c33d 0ddc 923d
00000310: 4fe2 50bd e0aa c43d a898 73bd 5d15 493d
00000320: b5c4 f03d e401 e9bc c9e9 d7bd 75df b5bd
00000330: fd43 45bd 1e7d 4db9 e003 f13d 8c6b 083d
00000340: 1d8a 93bd f301 19bc f705 33bd 398f ed3c
00000350: 0be5 8c3d a83d abbd 47a5 423d 2db5 983d
00000360: 98a3 413b 5a50 aabd 6d27 cf3d 98c7 04be
00000370: 97de 813d eec1 1d3d be05 18bd ee95 83bd
00000380: 6f13 023d f47c a2bd 4139 8b3b d784 ae3d
00000390: d0d0 cfbc 9ed9 adbd e279 dc3d af0d 953d
000003a0: 44af f43d df40 4fbd 33ad 11be f52f 67bd
000003b0: f1c4 ae3d 253c 163d 738f cc3d e650 273d
000003c0: 4df5 f8bd eaed 0fbe c704 9fbc 00a5 c0bd
000003d0: dae7 c2bd 61ce cd3c b86f 8ebc 5070 c93d
000003e0: a827 96bd 77bc 643d 693a 92bd 54ef 8dbd
000003f0: 660d fb3d c6e8 833c 6ee1 0d3e 193f e1bd
0.031960033 -0.109706536 0.14467409 -0.112548 -0.11100527 0.0984316 -0.077659525 -0.06352646
-0.026319062 -0.12702714 -0.0038311218 -0.028955907 -0.028883768 -0.00016545533 -0.083050236 -0.017792312
0.0032611883 -0.12621272 -0.10768011 0.10843993 -0.15775223 -0.00977786 -0.06640233 0.14387786
0.1004687 0.07686254 -0.05354517 -0.14522526 -0.029531892 0.08953792 0.042842988 -0.08986033
-0.13242424 0.10384834 0.025075523 0.08365343 -0.12747268 0.008802833 0.109377615 -0.13687025
-0.122134 -0.12127554 -0.08925811 -0.015859552 0.060215965 -0.05001701 0.113000475 0.11302805
0.08719139 -0.123119585 0.06282167 0.06776926 0.09193393 -0.14092074 -0.020578131 -0.06596827
-0.057055313 0.029252885 -0.0019675037 0.06833768 -0.100634985 -0.044005703 0.054485198 -0.05065818
0.029771741 -0.093224645 0.11654048 -0.015448747 0.037018426 0.001792459 0.0222582 0.1284216
-0.06970574 0.13487881 -0.055175252 0.0029302991 -0.10075212 0.045625657 -0.12559533 0.029526608
-0.081728846 0.12870738 0.14317502 0.098905735 -0.12956484 0.07072231 -0.09758174 0.01799492
-0.07799156 0.10405568 -0.026732884 0.036084168 0.05138139 0.093695894 0.091220126 -0.01903147
-0.10465199 0.06802114 -0.04367937 -0.027619269 0.019916581 0.13689765 0.101311594 -0.017278785
-0.057821497 0.1258997 0.087716244 -0.12681101 0.002580052 -0.1099344 -0.020052813 -0.13799857
-0.114887945 -0.10594392 -0.014445639 0.03599965 -0.11430767 -0.06298587 0.032847267 0.048544534
0.008319722 -0.1322757 -0.024490893 0.055716384 -0.13741064 -0.10430039 0.015199557 0.006143282
0.10671106 0.057673894 0.07177997 -0.0887196 -0.054956224 -0.011620595 -0.0075612147 -0.0044103633
0.066631764 -0.08044054 -0.06505472 -0.054240532 0.009125535 0.03270951 -0.03025861 0.084465936
-0.107261285 0.07675432 0.038015336 0.1064457 -0.13093448 0.1270166 0.08344908 0.10477678
0.06743123 -0.053878967 -0.014114097 0.013303973 0.02308991 -0.12875797 -0.018901048 -0.12930107
-0.08594783 -0.07454674 -0.030604597 0.018895207 0.11973019 -0.048795342 -4.907004e-06 0.062238224
0.050347604 0.15401244 0.034975488 0.015968375 -0.11857257 0.0649084 0.029711409 0.03851802
-0.014377598 -0.01995333 0.009493132 0.009771243 -0.03902266 -0.13939899 0.05959934 -0.07234113
0.049745753 0.07237327 0.0760221 0.00029460792 -0.017086843 0.07558596 -0.084245265 -0.098873846
0.085971296 0.14629154 0.09566645 0.071708776 -0.050997075 0.09602904 -0.059471756 0.04909264
0.11756269 -0.028443284 -0.10542638 -0.08880512 -0.04816054 -0.00019596933 0.11768317 0.03330569
-0.072040774 -0.009338844 -0.04370686 0.028998958 0.06879624 -0.08361369 0.047520902 0.074564315
0.0029546972 -0.08316107 0.10114942 -0.12966764 0.06341284 0.038515024 -0.03711485 -0.06425081
0.031756815 -0.07933989 0.0042487686 0.08521431 -0.025368124 -0.08488773 0.10765435 0.072780006
0.11947492 -0.050598975 -0.14226227 -0.05644222 0.08533657 0.036678452 0.09988298 0.040848635
-0.121561624 -0.14055601 -0.019411458 -0.09406471 -0.095168784 0.025122823 -0.017387256 0.09835875
-0.073317826 0.055843797 -0.07140047 -0.06930414 0.12258415 0.016102206 0.13855526 -0.10998363

lstm.weight_hh_l1 f4 [200, 50]
00000000: 2280 333d b9f1 0fbe 771b 8e3d bc2b a13d
00000010: 88ab c2bd 5c4a a13d 549b 103e a833 3c3d
00000020: c819 e93d d2ac d63d f815 debc 28d0 0bbe
00000030: 2776 4ebd 20b4 b13d cc96 c8bd b7d1 ef3d
00000040: 6d93 043d c26c 7dbd a397 df3d 21cb e4bd
00000050: e0cd a5bb 31dd 0cbe 9452 983d 7f2b be3c
00000060: 6d8c a63d c50a 7bbd 8d95 dd3d 7164 0ebe
00000070: d3d9 db3d 5a1a 7b3d b21a f63c 41e8 e7bd
00000080: 13ec 98bd 966d 03bd 95ad 8e3d 90f2 d13d
00000090: c75a 043e e2c1 013d 231d c7bc 4fd3 00be
000000a0: 6322 7c3c efbf 1b3c 43d5 5abd f4cc 533d
000000b0: c51f bdbd d499 b23c f250 5dbb f050 d8bd
000000c0: 7b5c 07be 95bd fbbd f0a7 073e c0b9 15bd
000000d0: cb71 0d3d 375c 38bd 4c1d 803c 59e5 02be
000000e0: 875d 663d 30a4 ea3d 235d 943b e1c5 183d
000000f0: 92b5 e1bd 4ffc c6bd cb9d d2bd 0877 123e
00000100: 19a9 a33b 0396 133d e0e2 93bb 2da4 583d
00000110: 8ff5 ee3d 1d7b c5bd 34be d3bd cc56 1ebd
00000120: ff70 de3b 9a14 d3bc 25a5 953d d511 a63d
00000130: e979 1b3d 02a3 05be 6733 c3bd 874c aa3d
00000140: 9653 4ebd 79a9 e3bd fa6b 07bd 8c2a fe3d
00000150: 9473 353d 49a0 4dbd 0e2b e63d 422f 08bd
00000160: feef 013e b919 0f3e c7b2 c7bd 2b8f 0abd
00000170: 4f8e e43d 1b36 fcbd 8942 d73d 8495 db3d
00000180: bf9c 033e 12ab 38bd 9861 fa3d 9350 ee3c
00000190: bfa3 df3d 47f7 933d d93a 23bc 5cfd 15be
000001a0: 2040 ccbd badd ce3d 0da6 4b3d 8a97 febc
000001b0: 2108 103e 14bc a4bd 6bff b93d 2ebf f63d
000001c0: 9edf 64bd 2966 4b3d 2e19 d33d 001a 39bd
000001d0: 771d 3a3d 9b1a 633d 577f c9bc aa2a 9dbd
000001e0: bdf3 713d b786 05be 3bce 07be 05a3 2f3c
000001f0: a138 a4bd 8a52 473d 9e63 9c3c 74e6 d1bd
00000200: 50a2 9fbd 0cb2 093e abb5 96bb 4c51 e7bc
00000210: 6c77 92bd ad5d 643d 21c7 353d 031c 563d
00000220: e044 50bd 91d4 813d 755c de3d 73bc ea3d
00000230: e653 f3bd 83d8 5e3d e664 25bd dfd1 10bd
00000240: 0447 b7bd 1e12 103d 49de 08be 5818 a9bd
00000250: bbac 0fbb 9145 293d ffa9 0c3d af96 dd3d
00000260: f800 1bbe 6741 b6bd e2cd ea3a f8f0 f8bd
00000270: 8bad c5bd 13dd 16bd de8d cc3d 6a28 b23d
00000280: 3d30 01bd 202f bebd 3026 453d 86d3 6e3d
00000290: 1863 1a3e 17eb b53d 4834 0dbc 646c 01bd
000002a0: 8d91 c43d 1d26 6a3d 9085 853d 3701 293e
000002b0: 0bb3 053d 3722 5f3c 1fe6 24be 20f2 54bd
000002c0: 7ff7 b13d a52e f03d 4dfe 9b3c 97e5 90bd
000002d0: 4d30 02be a8a5 ef3d a029 89bd 44bf 62bd
000002e0: 18b0 37bd f2e0 c63d 6bfd ca3d cae7 2a3d
000002f0: 9279 e63d 654b de3d 7e42 e2bd 52f2 b4bd
00000300: 4387 72bd 99cd b33d 4024 043e fcee caba
00000310: 0b90 963d 2cb9 03be ba60 fbbb 6622 07bc
00000320: 5b0f c0bc d6ca e33d 30f4 52bd b8ee e23d
00000330: f561 97bd 9417 11bc 02f8 543c e516 0c3e
00000340: 9730 78bc 0066 063b e23a f03d 6903 093e
00000350: 4354 a0bd 16f6 3c3d af9c 943c 9804 08be
00000360: 4b50 e6bd 556f 16bd 1337 65bc 5357 003d
00000370: 0cc1 9fbd 575d 303d 77c4 093e 639f 173d
00000380: e090 a23d 0eed b6bd 872e 113e 3c33 40bd
00000390: f1cb 023e 8009 25bd c279 8f3c 00b7 833c
000003a0: dd8e ac3c 5919 f5bb 79a3 fbbc 14fa c9bc
000003b0: 31d6 c63d 89d6 093e aa48 2a3e 53d5 99bd
000003c0: 8796 1a3e a458 ed3d 7ca0 a03d 1571 93bc
000003d0: 281a c3bd aec4 38bd 2a5c 08be dac2 ab3d
000003e0: 37d4 cd3d 6e59 2f3d 0be5 11be b716 5b3d
000003f0: 7f51 a3bd 3499 80bd 3933 f6bd 123d c73d
0.04382337 -0.14057054 0.06938832 0.0786967 -0.09505373 0.07875511 0.14121753 0.0459477
0.113818705 0.104821816 -0.027110085 -0.13653624 -0.050405648 0.08676934 -0.09794387 0.11709922
0.03236716 -0.061871298 0.10917594 -0.11171556 -0.0050599426 -0.13756253 0.074376255 0.0232141
0.08132253 -0.061289568 0.1081954 -0.13905503 0.10734906 0.061304428 0.030042026 -0.11323596
-0.074669026 -0.03208693 0.06966702 0.10251343 0.12925254 0.03167904 -0.024305886 -0.12580608
0.015389058 0.00950621 -0.05342604 0.05170913 -0.09234575 0.021801867 -0.003377017 -0.105623126
-0.13218872 -0.12292019 0.13247657 -0.036554098 0.03453235 -0.045009818 0.01563897 -0.12782802
0.05624154 0.114570975 0.0045277043 0.037298087 -0.1102096 -0.09716093 -0.10284003 0.1430322
0.0049945232 0.036031734 -0.0045131296 0.052890945 0.1166793 -0.096426226 -0.10339013 -0.038656995
0.0067883725 -0.02576666 0.073068894 0.0810887 0.03795806 -0.13050464 -0.095312886 0.08315378
-0.050372683 -0.11116309 -0.03306196 0.12410459 0.044299677 -0.050201688 0.11238681 -0.033248194
0.12689206 0.13974656 -0.09750896 -0.033827942 0.11159956 -0.12315007 0.105107374 0.10721877
0.12852763 -0.04508502 0.12225646 0.029091155 0.10919904 0.07224899 -0.009962761 -0.1464743
-0.099731684 0.10100885 0.049718905 -0.031078119 0.14065601 -0.080436856 0.0908192 0.120481834
-0.05587732 0.049657974 0.10307537 -0.04519081 0.045438256 0.055445295 -0.024596853 -0.07674153
0.059070338 -0.13039671 -0.13262264 0.010720019 -0.080186136 0.0486627 0.01909047 -0.102490336
-0.077946305 0.13446826 -0.004599293 -0.028237008 -0.07151684 0.0557534 0.044379357 0.052272808
-0.050846934 0.06339372 0.108574785 0.11461725 -0.11881237 0.0544057 -0.040379427 -0.0353564
-0.08949092 0.035173528 -0.13366045 -0.08256596 -0.0021923024 0.04132611 0.03434181 0.10819756
-0.15137088 -0.08899193 0.0017914141 -0.12155336 -0.09652241 -0.036831927 0.099879965 0.086991146
-0.031540144 -0.09286332 0.04813212 0.058307193 0.15076864 0.088827305 -0.008618422 -0.03159751
0.09598074 0.057165254 0.06519616 0.1650437 0.03264145 0.013618997 -0.16103409 -0.05198872
0.08689784 0.11727647 0.019042158 -0.07075041 -0.12713738 0.11701518 -0.066973925 -0.055358186
-0.04484567 0.09710874 0.09911617 0.041724958 0.112536564 0.10854224 -0.11047839 -0.088352814
-0.059211027 0.08779449 0.12904453 -0.00154826 0.07351693 -0.12863606 -0.007671443 -0.008247947
-0.023444822 0.11122672 -0.051502407 0.11080688 -0.07391731 -0.008855719 0.012998583 0.13680609
-0.0151483035 0.0020507574 0.11729981 0.13380207 -0.07828572 0.046133123 0.018141119 -0.13283002
-0.112457834 -0.03672727 -0.0139901815 0.03133328 -0.07800493 0.043057766 0.13453852 0.037017237
0.07937789 -0.08931933 0.14177905 -0.04692386 0.1277311 -0.040292263 0.017514113 0.016078472
0.021064216 -0.0074798283 -0.030717598 -0.02465538 0.097088225 0.13460745 0.16629282 -0.075113915
0.15096484 0.115891725 0.0784311 -0.017998258 -0.09526473 -0.045109443 -0.13316408 0.08386774
0.100502424 0.042809896 -0.14247529 0.05348846 -0.079745285 -0.06279221 -0.12021489 0.09728445

lstm.bias_ih_l1 f4 [200]
00000000: a688 b4bd 49b8 64bd 466d 223c 672e c53c
00000010: 0ce8 833d d2fe d5bd c0ce 133d 32a4 5abd
00000020: 29b9 14be 2202 cebc 845f 80bd 354f f2bd
00000030: 7082 11be 90cb 00be 7cb5 0a3e 8ca5 e8bd
00000040: 82c6 9ebd 2676 41bd 183e 07be adee 0e3e
00000050: 6a4d 413d 21b3 a3bd ec90 07bd 8cd7 133c
00000060: 79f0 b1bd d51f e23d 5518 d33d 93ed f13c
00000070: 7c88 09be 5c5e 0abe 1ab6 acbc 58f0 a03d
00000080: 6d85 bfbd 4bb7 89bb fc13 44bd 13e0 40be
00000090: 2ee4 46bd 58ba ebbc 9740 83bd c30a d43c
000000a0: 3c6a c93d 7d1e 713c 8460 1ebc cfa7 d8bc
000000b0: edc5 e43d 291f ad3d c04e 0535 92b8 793d
000000c0: 6906 ec3c 0a89 933d 5122 efbd c594 053d
000000d0: 891c af3b c504 ed3c 8828 9cbc e499 273d
000000e0: 05ba 62bd 4949 09be 2ece d7bd 5cbb f8bd
000000f0: 2ab6 38be 7996 6d3d 5421 033d a8a5 92bd
00000100: 5895 cbbb 54f0 373c b93a 6ebc f7e6 50bc
00000110: 859a 08be 0515 343d d243 36be 5b30 aebd
00000120: 0b8a e43d 2656 37bd 06fe 9ebd 1be4 aa3d
00000130: 2275 9d3c d046 8abd 6c6d e13c c7d7 2ebe
00000140: 8fb4 913c 412d f9bd b08e 10be 14b9 08be
00000150: 2d3d b23d 432a 09bd 0060 95bd 3f0a 0cbe
00000160: 73ea 12bd 69ff b33d 05c0 cf3d 7faf a83d
00000170: 0010 823d 7b80 92bd 5c5d b83d 7390 46bc
00000180: 1cc9 b53d bf49 413d a9ae 82bb a2b5 d13d
00000190: dd51 be3d fd65 8fbd ff64 693d 5071 943d
000001a0: 5ce4 873d afed 0d3e 9da1 cc3d 36f6 eabd
000001b0: 75d5 773d 7310 06be 5c5b bcbc 7a1e 0d3d
000001c0: 7b2a 0e3c b7e9 c7bd 3b03 28be 7766 313d
000001d0: 4a56 0d3d b386 1e3e bcd1 b8bd 5426 e7bd
000001e0: 90ad c4bd 9a4e c3bc bf99 2c3d b0bf 0dbe
000001f0: 5711 123e 8215 373d df8b d13d aab4 3d3d
00000200: d046 033e 5c1b 63bd 9cd2 493a 703a 433d
00000210: 4d33 843c be5f 953d 056b c63d e96b e53c
00000220: c8b4 0e3d 7a7f fe3c b230 15be ee8f e63d
00000230: 047a 9cbd 29a1 9c3c ac22 40bd aef0 eabd
00000240: b129 15be 7b24 a83d f27d 113e 38d0 bbbd
00000250: 8ec1 78bd 19ce a9bc 4d17 0dbe 5e55 13be
00000260: 9176 bf3b ad9f a73c 01ce 2e3d a9c1 a63d
00000270: 9bbd 4dbc a055 6fbd b64d ed3c a0b3 93bd
00000280: 8f16 cdbd ab62 a4bd 8a26 383d 4f25 fbbc
00000290: b98c 933b a7ba 943d 2b24 5e3d 08b2 653d
000002a0: 911a d23a 3013 acbd 67cf 2e3d ed98 a1bd
000002b0: 972f ae3d 4d43 eb3b 2835 d73d 2c63 ddbd
000002c0: b487 833c e03b 723c f2af e0bd a4fa c3bd
000002d0: f287 6d3d c387 a43d f8b7 043d b4af 39be
000002e0: 4d69 fb3d 17eb 34bd eefc b0bd d9af 83bd
000002f0: 456b 0dbe 7d8f 77bd 600e 053e 5c4d 25bc
00000300: 4600 14bc 7061 2abb 8e0a 2a3c 2ed4 ab3d
00000310: 1fc2 843d cd7e c0bd b506 0f3c 97d7 02be
-0.08815126 -0.05583981 0.009913748 0.024069978 0.06440744 -0.10448994 0.036085844 -0.053379245
-0.14523758 -0.025147501 -0.06268218 -0.11831514 -0.14209914 -0.12577653 0.13545793 -0.113597006
-0.07752706 -0.047231816 -0.1320728 0.13958235 0.04719297 -0.079931505 -0.033097193 0.009023558
-0.08688445 0.11041228 0.10307375 0.02953223 -0.13430971 -0.13512558 -0.021082927 0.07858342
-0.09351621 -0.0042027584 -0.04787062 -0.18835478 -0.048557453 -0.028775379 -0.06408804 0.025884038
0.09834716 0.014716742 -0.009666566 -0.026447205 0.11170564 0.08453209 4.966096e-07 0.060967036
0.02881165 0.072038725 -0.11676467 0.03261258 0.005343978 0.028932938 -0.019062296 0.040918246
-0.055353183 -0.13406862 -0.105373725 -0.12145111 -0.1803824 0.05800483 0.032014206 -0.07160503
-0.0062128715 0.011226732 -0.014540368 -0.012750379 -0.13340195 0.04396536 -0.17799309 -0.08505317
0.11159142 -0.044759892 -0.07763295 0.08344289 0.019220892 -0.06751788 0.027517997 -0.170745
0.017786292 -0.121668346 -0.14116931 -0.13351852 0.087030746 -0.03348757 -0.07293701 -0.13675784
-0.03586812 0.0878895 0.10144047 0.08236598 0.06350708 -0.07153412 0.09002182 -0.0121194
0.08876249 0.04718947 -0.0039881063 0.10239722 0.09292958 -0.070018746 0.056981083 0.07248175
0.06635353 0.138602 0.09991763 -0.11472742 0.060506303 -0.13092212 -0.022992782 0.034452893
0.00867712 -0.097613744 -0.16407482 0.04331061 0.03450612 0.15481071 -0.09024379 -0.112866074
-0.09603417 -0.023841191 0.04213881 -0.13842654 0.14264427 0.044698246 0.102317564 0.046314873
0.12819982 -0.055446014 0.0007698925 0.047663152 0.016137743 0.07293652 0.09688381 0.028005557
0.034840375 0.031066645 -0.14569357 0.11257921 -0.0764046 0.019119816 -0.046908066 -0.11471687
-0.14566685 0.08210083 0.142082 -0.09170574 -0.060731463 -0.020728158 -0.1377842 -0.14388034
0.0058429916 0.020461882 0.04267693 0.081424065 -0.0125574125 -0.058431268 0.02896772 -0.07211995
-0.10014068 -0.08026632 0.04495863 -0.030657439 0.0045028594 0.072621636 0.05423371 0.056077987
0.0016029646 -0.08402097 0.042678263 -0.078904964 0.08505171 0.0071796537 0.105081856 -0.10809931
0.01605592 0.014784783 -0.10971059 -0.0956929 0.057990976 0.08033707 0.03240201 -0.18133432
0.12275944 -0.04416951 -0.086419925 -0.06430025 -0.13810451 -0.060439575 0.12993765 -0.010089245
-0.009033268 -0.0025998019 0.010378493 0.083900794 0.06482338 -0.09399185 0.008729626 -0.12777553

lstm.bias_hh_l1 f4 [200]
00000000: d891 e6bd 58bd 823d c0b6 08be c94c 6b3d
00000010: 4b97 b03d a28f 063d 6c0f aabb b652 303d
00000020: 8b6d 3ebd da2e a53d b207 593d 253e 903d
00000030: fa99 2bbe 4150 063d 9a25 7c3d 7ec0 bc3b
00000040: 01f1 463c 6ee4 07be a84c 8cbd 8e20 fbbc
00000050: 96f7 91bd 697c 863d 5e94 753d 757a 6cbc
00000060: 841f 98bd 54f6 883c d097 1cbc 10ad 04be
00000070: a98d cbbd 6cb7 2ebc 6122 fbbc f296 96bd
00000080: 4d90 213d 380a 38be 7ea9 623d 49dc 17be
00000090: 8fd3 c9bd 8383 dfbb 5e01 bb3d 9bc9 d93d
000000a0: e565 44bd bdbb 07be e9bb d2bd bcca 36bd
000000b0: 657d a8bd 4e4d d2bd 7e0b f73d c3a2 b13d
000000c0: a0bf 1abe 8ab0 e3bd 4ca2 31bd a6b7 c23d
000000d0: 5596 c43d 03a4 11be 950f b23d cca2 9f3d
000000e0: 68e3 d53d cb33 6abd 6d64 fcbd aea7 bcbd
000000f0: 608e 883c 8343 413d 3fcb 8a3d 1c35 cbbd
00000100: 1193 ef3c 2e02 093d 4f5e d63d d7fb 17be
00000110: 335d eebd 5362 173e 79fc d6bd 4bdd f63b
00000120: 7295 643d 304a fe3d 22a5 24bd 6e6a 05be
00000130: 2510 103d f9d3 99bd 33fa f03d bbea 883d
00000140: f352 13be 94a4 3dbd 7d06 cfbd eddd 2d3d
00000150: c9ce 0bbe d74e d0bd 4a33 c43d fd33 fcbc
00000160: 24a6 dcbd 188c f83a edfd 5b3d 754c 41bd
00000170: 2c4e 10be 6b5c 0dbe 81e4 ac3d 1478 50bd
00000180: 5f88 d5bd 1f18 80bc c0b1 6e3c ada2 e53d
00000190: 4a70 163e fde3 11be 53c0 073d ec53 7a3c
000001a0: 22fa 0e3e 96b0 603c 87c0 093e 62eb 1dbe
000001b0: 274a 57bd b2a4 d638 ea4a 0fbe b9c2 1d3e
000001c0: bb20 133d 6bab 313d 84b1 f9bd 1485 b33d
000001d0: 0341 b6bd 627c 4fbc c46d adbd 03b2 06be
000001e0: 6b7f a23d d5cb 98bd 2007 a13d 0346 0ebe
000001f0: cb62 b1bd 533f d9bd 5119 0cbe 0ef4 3abc
00000200: 0559 823d ebcc f3bd 03ba a1bd 591b fc3d
00000210: 29e6 133e 681c 62bd 6148 fabd fa36 983d
00000220: f916 bc3d d606 923a 3e57 dabd 8f7e c0bd
00000230: 493e 153a 3910 453c cc10 dabc 435e 843d
00000240: b319 fe3d 4639 e43d ae89 afbd 429e e63d
00000250: cb44 d2bd 866b 0c3e 3f74 03be a717 90bc
00000260: bda7 953d bb0e 58bd 5d31 54bc c02c 00be
00000270: 3198 83bd f8ad e8bd 8a5c 843d a3ad 6c3d
00000280: fad2 30bd de41 36be 40f1 23bd 256d 953d
00000290: 039d 0ebd 63ec 26be 0584 b73b 03c2 e13d
000002a0: 484e 7a3d 2b33 0a3e 43a8 f8bd 49dd 9a3d
000002b0: f1e7 2fbd 4f97 73bc 3072 133e bdcc f53b
000002c0: 2e7a 72bd 5483 903d 5f7f cdbd ae80 14bd
000002d0: d3b7 1fbe 50dc 87bd e2af 78bd a944 b1bd
000002e0: ccd3 023d 6792 01bd 30e8 94bc 2d29 4a3d
000002f0: eb99 cebd 1911 0b3d 3332 c83d 4fb0 7abd
00000300: 4296 85bd 8634 383d b5f1 21be 3556 cf3d
00000310: 078b b03d e527 15be ea75 c6bd 7f03 f9bd
-0.11258286 0.06383771 -0.13350964 0.057446275 0.08622607 0.032851823 -0.0051898267 0.04304763
-0.046491187 0.08065577 0.052985854 0.07043103 -0.16757956 0.03279138 0.061559297 0.0057602515
0.012142421 -0.13270733 -0.068505585 -0.030655172 -0.071273014 0.06566698 0.059955947 -0.014433493
-0.07427886 0.01671902 -0.009557679 -0.12956643 -0.09939129 -0.010663848 -0.030656042 -0.07353009
0.039444257 -0.17972648 0.05533742 -0.14830126 -0.09854805 -0.0068210973 0.0913112 0.10634156
-0.047948737 -0.1325521 -0.10289747 -0.044626936 -0.08227042 -0.10268651 0.12062739 0.086736225
-0.15112162 -0.111176565 -0.04336767 0.095076844 0.09598986 -0.14222722 0.08694378 0.07794723
0.10443765 -0.0571783 -0.12323842 -0.0921167 0.016669452 0.047183525 0.06777047 -0.09922239
0.029244931 0.033449344 0.10467207 -0.14842163 -0.1163887 0.14783601 -0.10497374 0.0075337044
0.055806585 0.12416494 -0.040196545 -0.13028881 0.035171647 -0.07511134 0.11766472 0.06685396
-0.14387111 -0.046299532 -0.101086594 0.042447973 -0.13653101 -0.101712875 0.09580095 -0.030786509
-0.10773876 0.001896265 0.05370896 -0.047192056 -0.1409232 -0.13804786 0.08442021 -0.050895765
-0.10426401 -0.015636502 0.014568746 0.112126686 0.14691272 -0.14247127 0.0331424 0.015278798
0.13962606 0.013713976 0.1345235 -0.15421823 -0.05256095 0.00010234992 -0.13993421 0.15406312
0.035919886 0.043376368 -0.121920615 0.08765617 -0.08899119 -0.0126639325 -0.08468202 -0.13153844
0.07934459 -0.07460753 0.07862687 -0.13893895 -0.086614214 -0.10607781 -0.13681532 -0.011410726
0.063646354 -0.119043194 -0.07896807 0.12309904 0.14443268 -0.05520287 -0.122208364 0.07432361
0.09184069 0.0011140953 -0.106611714 -0.09399139 0.000569318 0.012027794 -0.026619337 0.064632915
0.124072455 0.111437365 -0.08571182 0.11260654 -0.102670275 0.13712892 -0.12837313 -0.017589403
0.07307384 -0.052748423 -0.012951222 -0.12517071 -0.064255126 -0.11361307 0.06462963 0.05778278
-0.043169953 -0.17798564 -0.040024996 0.07296208 -0.034817707 -0.16301112 0.0056004548 0.11023333
0.06110981 0.13496082 -0.121414684 0.07561738 -0.042945806 -0.014867618 0.14399028 0.0075012133
-0.05919855 0.07056299 -0.1003406 -0.03625553 -0.15597467 -0.06633818 -0.06071461 -0.08655674
0.031940266 -0.03163376 -0.018177122 0.049355675 -0.10087951 0.033951852 0.097752 -0.061203297
-0.065228 0.044971965 -0.1581486 0.101238646 0.08620267 -0.14566 -0.09690459 -0.1215887

batch_norm.weight f4 [50]
00000000: 260f 7c3f d522 7c3f d817 7d3f c73d 7a3f
00000010: 3a89 793f 10d0 793f 67d6 7e3f de51 783f
00000020: 1d3a 793f e150 783f b306 783f fb07 783f
00000030: 08a5 793f 9f54 7b3f 45f7 7b3f 03f4 7b3f
00000040: a3ce 7a3f 0a29 7d3f 6b3f 7c3f 3547 7a3f
00000050: 753e 773f 013f 7d3f eaa5 783f b943 7a3f
00000060: 49fa 7a3f e0e1 783f 5b4e 7c3f b84a 7c3f
00000070: 7db4 7a3f 371d 7a3f edfa 793f f32c 7a3f
00000080: d379 7a3f f728 743f 16bd 7a3f f5be 733f
00000090: 2b84 7a3f 9036 783f d465 7b3f 2802 7c3f
000000a0: 4c9d 7a3f aa4f 7d3f c628 7b3f 71fc 793f
000000b0: 6e41 7d3f 89f8 793f 7894 7d3f d8c2 763f
000000c0: bb20 7b3f 6c5c 7a3f
0.98460615 0.9849065 0.9886451 0.97750515 0.97475016 0.97583103 0.995459 0.9699992
0.973543 0.9699841 0.9688522 0.9688718 0.9751744 0.98175997 0.9842418 0.9841921
0.9797155 0.98890746 0.9853427 0.97764903 0.96579677 0.9892426 0.97128165 0.97759587
0.98038155 0.9721966 0.9855706 0.9855151 0.97931653 0.9770083 0.9764851 0.9772484
0.9784214 0.9537501 0.9794477 0.9521325 0.9785792 0.96958256 0.9820225 0.9844079
0.97896266 0.9894968 0.9810909 0.9765082 0.9892796 0.9764486 0.9905467 0.9639106
0.9809682 0.97797275

batch_norm.bias f4 [50]
00000000: e644 6cbd ab52 683d 36ae 82bd 035f 6c3d
00000010: 07c0 673d aa67 6f3d ff41 84bd acb9 63bd
00000020: ed9e 62bd f371 683d a7e7 67bd 4cd6 673d
00000030: e1bd 6e3d b29e 69bd b1e3 82bd a594 6abd
00000040: ba9e 6b3d 704e 73bd bdc0 833d 4107 60bd
00000050: 4de7 623d 2f79 8fbd 374e 683d 7ec2 663d
00000060: 082f 9d3d 7cd4 673d c45a 583d 4acd 733d
00000070: ceae 6bbd 182a 6abd 0e8e 6fbd fade 6bbd
00000080: f790 6c3d a1cb 5d3d ea13 6bbd 773a 5a3d
00000090: 0d17 68bd 90c3 67bd 7730 723d 64cb 643d
000000a0: 46a2 733d 9a5c 7abd 0dd7 6c3d 3ad6 663d
000000b0: e30a 7bbd 0274 693d 0ffd b63c 8e55 64bd
000000c0: 1f7f 6d3d 0791 653d
-0.057682894 0.056719463 -0.06380884 0.057707798 0.056579616 0.05844847 -0.064579 -0.055596992
-0.055327345 0.056749295 -0.056617405 0.056600854 0.05828655 -0.05703611 -0.06391085 -0.057270665
0.05752442 -0.059400976 0.06433246 -0.054694418 0.055396367 -0.07005536 0.056715216 0.056337826
0.07674986 0.056599125 0.052820936 0.05952195 -0.057539754 -0.05716905 -0.058485083 -0.057585694
0.057755437 0.054149274 -0.05739204 0.053278413 -0.056662608 -0.056582987 0.05912825 0.05585803
0.059480928 -0.061123468 0.057822276 0.056356646 -0.06128968 0.0569954 0.022337465 -0.055745654
0.05798256 0.056046512

batch_norm.running_mean f4 [50]
00000000: 0d72 c13d 9501 cbbd 4a24 753d c73e 3b3d
00000010: 9ce2 be3d 8067 a73d 7033 913d a6b7 babd
00000020: 04e9 3ebc 634b acbd 1ce9 6ebd ccd1 b93d
00000030: bbd7 61bc 384c a1bd 5acd 3bbe 4e94 9c3d
00000040: 4c53 eebd 017c 0a3e 0b54 b1bd a792 25be
00000050: 74ad 4aba b028 b4bd 5581 873d 4531 1dbe
00000060: f43d c33d cd69 02bd 037d 41bd 8128 833b
00000070: 5448 193d 414c e3bd 2288 8338 0a2d 713d
00000080: ad31 8f3d 1bce 833b 8a10 bc3c 81a8 b3bb
00000090: 62ef 8d3d d00b f93c ace9 d8bd 26b2 803d
000000a0: 2b13 1dbe e14e c03c 2eac 4fbd 645b 6ebd
000000b0: 7a29 32bd 97d5 893d d8f5 073e 574b 193c
000000c0: 12cb aabd ea35 d73d
0.094455816 -0.09912411 0.05984906 0.045714166 0.09320566 0.08174038 0.07089889 -0.091170594
-0.011652235 -0.084128164 -0.05832778 0.09073219 -0.013784344 -0.07875866 -0.18340054 0.076454744
-0.11636981 0.13523866 -0.08658608 -0.16169225 -0.0007731535 -0.08796823 0.06616465 -0.15350826
0.09533301 -0.03183918 -0.04723836 0.004002631 0.037422493 -0.11098529 6.2719235e-05 0.058880843
0.06991897 0.0040223724 0.022957105 -0.0054827337 0.06930424 0.03040114 -0.105914444 0.06283979
-0.15339343 0.023475112 -0.050701313 -0.058192626 -0.043496586 0.06730192 0.13277376 0.009356341
-0.08339514 0.1050833

batch_norm.running_var f4 [50]
00000000: d6f1 8634 2012 1335 bd15 4f36 2c7e ac34
00000010: 30f6 8634 76bf 4134 d3ed 6935 cd90 8f34
00000020: e28d 7b35 28da 5834 c301 7334 5957 7634
00000030: 9827 8f34 8630 c134 df30 3a37 b759 b234
00000040: f13a 6434 904d a835 9163 4c35 c3cd 0638
00000050: 6f32 9a34 1531 de35 2081 9834 e7cf 1e36
00000060: 8ad3 e037 6722 a134 e427 0838 9f7b f937
00000070: 519b c034 893a 5034 8c90 4435 01e5 5634
00000080: ac88 7f34 b76c 4535 7561 b634 604a d634
00000090: be75 5434 4792 8c34 a537 5134 546f 3737
000000a0: 4f16 4f37 a288 9434 31d2 6a34 1078 4537
000000b0: 56ca 2536 0e81 5734 4033 dd37 78af 9934
000000c0: 7799 3f35 2ff0 f034
2.5135404e-07 5.478814e-07 3.0858057e-06 3.21293e-07 2.513857e-07 1.8044179e-07 8.7145344e-07 2.6741182e-07
9.3711253e-07 2.0195932e-07 2.263178e-07 2.2942312e-07 2.6664634e-07 3.5984357e-07 1.1097843e-05 3.322036e-07
2.1255597e-07 1.2539549e-06 7.614081e-07 3.213972e-05 2.872143e-07 1.6554574e-06 2.8406157e-07 2.366485e-06
2.6801386e-05 3.0013618e-07 3.2462078e-05 2.9740679e-05 3.5875794e-07 1.9392805e-07 7.3226033e-07 2.0013614e-07
2.3798447e-07 7.354642e-07 3.397105e-07 3.991472e-07 1.9786873e-07 2.6183463e-07 1.9484885e-07 1.0933571e-05
1.2343356e-05 2.7666562e-07 2.1869415e-07 1.1770069e-05 2.470469e-06 2.0070385e-07 2.6369118e-05 2.862614e-07
7.1376365e-07 4.487824e-07
