result/LSTM_weather_state_dict.pth (torch, 93756 bytes, 17 tensors)

lstm.weight_ih_l0 f4 [128, 4]
00000000: 0ef8 e13d 378a e73d b122 82bd 7ff7 0b3e
00000010: 8f32 65bd c9ae ea3c bc02 f2bd 7d03 a13d
00000020: 07ce 113e 9071 1fbe 8aec 0e3e 728e 153c
00000030: 3a36 073e a891 1a3d 5d15 9b3d 00ec 09bd
00000040: 0c9c 003e e95c 903c ee31 d7bd 76e9 cd3b
00000050: 6138 d1bd 83ae a5bc 06db a9bd 4a7c ca3d
00000060: 993c 20be 95ee cabd b45b 89bd 07eb febd
00000070: 6ed4 6c3a 7118 3ebe d70e 2a3e 3270 29be
00000080: 63a0 0c3e 0ece 173c 4de1 b7bd f2a6 be3d
00000090: 7c2f 5e3c ab09 093e 7686 c2bc 51d6 97bd
000000a0: 2d3f 213d 17f7 63bd 9202 7e3d b10a 123e
000000b0: 62f6 c23d 0ad3 93bd 78a0 b93d c023 013d
000000c0: b88c a83d 4d48 dfbd 7ad2 3dbe 5a67 9dbd
000000d0: 5315 0fbe 5004 203e c25b 3c3d f374 413d
000000e0: a2d2 2c3d 5535 dbbb b7cb 803d d109 15be
000000f0: 2efb ed3a e356 08be 81dd 153d 675c aebd
00000100: f960 533d 1c83 ebbc e853 1b3e 8583 d9bd
00000110: 7d5e f2bd cbe0 01be 0463 093e 89c3 fb3c
00000120: 9364 233e 7364 0bbe ce33 30be 7cfd e7bd
00000130: fd25 2abe bff9 cc3c 8d5b 0ebb 5bde bc3d
00000140: 9252 d4bd 84d8 0dbe 676e a43d 3056 b2bd
00000150: 6a65 123e e562 5cbd dee3 df3d 75d3 1bbe
00000160: 36c1 b2bd e33b 4b3d e552 c5ba c4f1 a8bd
00000170: e6fc a93d 051c dc3d b16a 11be 268f dbbd
00000180: bf80 163e e7e5 98bd aef9 98bd 53c0 49be
00000190: 2413 babd f36d e63c c8c5 80bd 5151 20be
000001a0: ede3 a63c 8cca 00be 3e84 2abe 2c11 aabd
000001b0: b2fb 22be 508d f5bd d3d6 313e 62d6 df3c
000001c0: 79e3 f03c b3a3 29be aae0 07be 00ba 7cbd
000001d0: c4ba 273c a846 08be ce5c eabd f930 06be
000001e0: c0f5 393b 23a2 8bbd 14e7 debb 7e31 03be
000001f0: 8e07 19be b14f d8bd fd19 e0bd 5a26 30be
00000200: c4a8 fd3d 6a50 86bd db72 063e 7227 f93c
00000210: b5ee 28be 06f0 003e eed5 9ebd f389 b6bd
00000220: 66fe 24be 1ea2 4fbe ac44 0f3d 70ef 82bd
00000230: 23ba 873d db42 11be 5997 f63d f4ba 0fbe
00000240: 891c 2bbd cf95 e43c 824a 8d3d 8cc0 cb3d
00000250: f6a4 0b3e a1be 15be aeee f53c f441 ccbd
00000260: 4113 24bd 8569 1bbe af76 103e a314 1abe
00000270: fbc7 a73d 3dab 523d fe4b 923d 9af1 e0bd
00000280: 8410 0e3e 91ab 743c 5187 9bbc 2d3d 35be
00000290: 6a52 633d 61b8 22bd a0e1 0cbe 1740 013e
000002a0: d0a6 ff3c dd35 d8bd d711 d1bd 1338 bbbc
000002b0: c3e9 b83d 5066 46bd 476d e9bd 493c 85bd
000002c0: 5409 14be 595f 5b3d fd96 fb3d e985 39be
000002d0: 56c8 183d c7b2 d23d 199b f93c c4e3 b0bd
000002e0: 2821 a03d 497c b53d ca0e 06bc 7114 54bd
000002f0: 8059 67bd 81ab b23b ade7 49bd 5c03 a1bd
00000300: 9311 e13d de17 223e f5f1 40bc eddc 2abd
00000310: ce7b 29bc e5ec e1bc fbbf 913c 66e5 a63c
00000320: d331 30be f57b 68bd 7694 193e ef78 b23d
00000330: 4373 55bd f4ca 18be 37d9 28be 51a1 56be
00000340: de31 8fbd 7692 2c3d 2a90 ce3d fca1 883d
00000350: f0b4 febd b4e0 f7bd f863 b0bc 827a 1f3e
00000360: acb1 e63c 1fc9 51bd 4350 1a3d c037 d9bd
00000370: 7a1e 20be 1f1d dd3d 89c6 d9bd 0ab3 70bd
00000380: eef1 42be 3164 d43d d257 fa3d edda 203d
00000390: 50ae ecbd 8c9e 44be 3ea4 42be 9392 d23d
000003a0: cc2d d03d 6213 153e 6852 9e3d 0a4f 783d
000003b0: 9ea0 91bb 16f0 0fbe 1fbd 1dbe b132 2dbe
000003c0: 9089 203d a03b b7bd fa20 56bd 8fdc d9bd
000003d0: 292d 55bd 2a75 d5bd 2f7c 1dbe 7fca e13c
000003e0: c0fb 4dbd 1d8b d93d 009b 51bd 4983 09be
000003f0: 530a 71bd e980 b4bd 115d cdbd 5213 4dbe
0.11033641 0.11305659 -0.06354273 0.13668631 -0.05595642 0.028647797 -0.11816928 0.078619935
0.1423875 -0.15570664 0.1395742 0.0091282 0.1320428 0.037736565 0.07572434 -0.033672333
0.12559527 0.017622428 -0.1050757 0.006283934 -0.102158315 -0.020224815 -0.082937285 0.098869875
-0.15648116 -0.09908787 -0.06706944 -0.12447172 0.000903434 -0.18564011 0.16607223 -0.16546705
0.13733058 0.009265436 -0.089785196 0.09309186 0.013561126 0.13382594 -0.023745757 -0.074139245
0.03936689 -0.055655565 0.06201417 0.14261891 0.0951965 -0.07217987 0.0906381 0.031528234
0.08229965 -0.10902462 -0.18537322 -0.07685728 -0.13972978 0.15626645 0.045985945 0.047230672
0.042193063 -0.0066897073 0.062888555 -0.14554526 0.0018156522 -0.13314395 0.036588196 -0.08513718
0.051606152 -0.028749041 0.15168726 -0.106207885 -0.118344285 -0.12683408 0.13416678 0.030732887
0.15956335 -0.13612537 -0.17207262 -0.11327645 -0.16616054 0.025021432 -0.002172205 0.092220984
-0.103673115 -0.13852125 0.0802887 -0.08707845 0.14296499 -0.05380525 0.10932134 -0.15217383
-0.08728258 0.04961766 -0.0015054612 -0.08249238 0.0830019 0.10747532 -0.14200856 -0.10720663
0.1469755 -0.074657254 -0.074694976 -0.19702272 -0.09085682 0.0281286 -0.06287724 -0.1565602
0.020372355 -0.12577266 -0.16652009 -0.083040565 -0.15916327 -0.11989844 0.17367105 0.027323905
0.029405342 -0.16566353 -0.13269296 -0.06170082 0.0102373995 -0.13308203 -0.11443482 -0.13104619
0.0028375238 -0.068180345 -0.006802449 -0.12811849 -0.14944288 -0.10562075 -0.10942457 -0.1720213
0.12385705 -0.065583065 0.13129751 0.030414317 -0.1649731 0.12591562 -0.077556476 -0.089130305
-0.1611267 -0.20276687 0.0349776 -0.06393325 0.066273 -0.1418566 0.12040586 -0.1403616
-0.04177526 0.027903466 0.06898977 0.09948835 0.13637146 -0.146235 0.030021038 -0.09973517
-0.040057424 -0.15176971 0.14107774 -0.15046935 0.0819244 0.051432837 0.071434006 -0.10983582
0.13873488 0.014933483 -0.018985422 -0.17699118 0.055498518 -0.03972662 -0.13757944 0.12622105
0.031207472 -0.105571486 -0.10208481 -0.022853887 0.090289615 -0.048437417 -0.11397796 -0.06505639
-0.14456683 0.053557727 0.12284658 -0.18117489 0.03730043 0.10288005 0.030469464 -0.08637193
0.07818824 0.08861596 -0.008182237 -0.051777307 -0.05648184 0.0054525738 -0.04929321 -0.07861969
0.1098968 0.15829417 -0.011776437 -0.041714597 -0.010344459 -0.02757878 0.017791739 0.020373058
-0.17206506 -0.05675884 0.1499804 0.087144725 -0.052111875 -0.1492117 -0.16489111 -0.20959975
-0.06991933 0.042131864 0.10086091 0.06671521 -0.12436855 -0.121034056 -0.021532044 0.15574077
0.028160892 -0.051217195 0.0376742 -0.106063366 -0.15636626 0.1079657 -0.10633571 -0.058764495
-0.19037601 0.103706725 0.12223782 0.039271284 -0.11556685 -0.19201106 -0.19007966 0.10281863
0.10164985 0.14558175 0.077305615 0.060622253 -0.004444196 -0.1405643 -0.15404175 -0.16913868
0.03919369 -0.089469194 -0.052277543 -0.10637771 -0.05204502 -0.10422738 -0.15379404 0.027562378
-0.050288916 0.10622237 -0.05117321 -0.13428988 -0.058847737 -0.0881365 -0.10027517 -0.20026901

lstm.weight_hh_l0 f4 [128, 32]
00000000: 7fd9 0b3d 83ff 22be 1161 10be 1c18 2ebe
00000010: de5c 033e 3a06 14be 25ab f33d 724e 01bd
00000020: 6d27 543c a63e 123e b25e 0b3c 7436 b73d
00000030: 0328 1b3e abf6 02be 074f 273d 3161 ea3b
00000040: 587d 823d b582 563d 94d6 973d d853 d1bd
00000050: 3785 13bc 024b 0f3e 6eca c13d 3fe5 24bb
00000060: d677 44be 104e 023d 16cc c0bd a71d fd3d
00000070: 5da1 01be ae7f 4a3c 800d 85bd 43fb 063c
00000080: fdb8 153e 3755 3fbb a19c b13d 29bc e83d
00000090: 609e f93d 3ce2 23bd 70a9 37bd fd8f 863d
000000a0: 737b 5ebd 2453 ca3d 8744 97bc 162d 05be
000000b0: 1761 bc3d 0100 423d 1b3f c13c f089 1d3e
000000c0: f262 0c3e 86c3 433e 3c98 f93c 65ad 1bbe
000000d0: 55e7 dcbd 484b 09be fa22 3ebe 0f7c 95bd
000000e0: 2e0c 3abe d547 02be b131 b1bd 3879 44be
000000f0: 5bce e9bd 8dd4 bb3d 0a1e 013e a3c9 93bd
00000100: 49e5 58bd b396 a83d e2ac ddbd a3c5 abbd
00000110: b753 b43d c1c8 16be cc8a df3c 9baa 213e
00000120: ae9e fa3c 4de8 883d 53c9 aebd ecfa 5abc
00000130: eb99 833c 8c18 823d de5f 7f3d 051a 073e
00000140: 136f f9bd 94f2 e53c 2e28 8abd 17e2 f9bd
00000150: 90b9 a3bc 346d 33be 827a df3d a711 983c
00000160: c209 ebbd 8737 d23d 271e 19be f0cb a3bd
00000170: c178 0fbd 5e97 05be 63ec 09be 03fb 1dbd
00000180: 614d 013e e2ce 283e b323 fe3d 0011 f9bd
00000190: 9c61 f3bd 39d3 233e 1ff3 6a3d c94a 9ebc
000001a0: be8b 0d3d 2c98 1fbe 8e17 5cbd 8257 283e
000001b0: 918a 13bd ea6f 34bb c348 26be d820 d0bd
000001c0: 01f0 f8ba 6444 debd 06c0 88bc ef4b 333d
000001d0: c1d9 2abe e258 f53c 44de 08be e4f7 abbd
000001e0: 2b4a 8b3d 46cc 203e d916 31bd 639b 7abd
000001f0: 002f 28be ca89 acbd 0614 23be 2447 3fbd
00000200: e7c0 e33c 2e1d 35be 654a 053e 1206 d03d
00000210: eb6e 53be 1c6c 96bd 33bd 7d3d 2b5d 9cbc
00000220: fba3 e4bc 8039 54bd 6de0 253e 1026 b3bd
00000230: 4bd6 243e 87c9 a33c 9578 3c3d ad18 db3d
00000240: c908 2bbc 8114 88bd fa9b 3fba 0e20 263e
00000250: ed43 04be a7b9 f63c 463e 25be 7e9e d33d
00000260: 672d 2f3d 9eb7 fbba 6dee d03d d4d6 dfbc
00000270: a0df e03d 72ba e1bd 9306 89bd 9361 903d
00000280: 198b 1d3e d7d7 8c3d e097 07be c95a db3d
00000290: 6d8d 5ebd 8e91 f0bb 079c 3dbe b32c 71bd
000002a0: f17e 183e 16a5 f93c 3aba adbd 75bd 053d
000002b0: daea f8bc be69 3b3e 23ab 1fbe 174e 91bd
000002c0: b9d9 14be 63d0 6cbd 60f9 983d de0b 0a3e
000002d0: 18d4 413d 0232 123e 5d1c 793c 928b 173e
000002e0: 6ad5 013e 3220 1e3e 43af a1bd a53b 393e
000002f0: eda7 113e 69e8 87bd 024d c8bd f071 2dbe
00000300: b33e 273d ed7b 24be aa55 663d 3789 183d
00000310: f865 30be d3b6 643d 124b 95bb 32e7 773d
00000320: 0652 f83d adcb 2ebe ff30 393e 1c07 033e
00000330: d55f ab3d 1a29 11be dc83 a4bd 118e 8fbd
00000340: 1bc3 efbc 7bfb f13d 2aef aa3d 587e f43d
00000350: 8869 9bbd 9ee1 213d 0175 343d daec 24be
00000360: 820e 43be 56a4 97bd a6e5 0e3e 9bd8 1ebe
00000370: 89e2 2dbe c502 f03d b892 9d3d 41f9 023e
00000380: d423 04be 4eb9 18be bf3f 9b3d 03d8 0e3e
00000390: ce37 bb3d ec48 063d f15c 873d a412 1d3e
000003a0: e9e4 d5bd 3889 9ebd e5ac 0e3e f6d8 0cbe
000003b0: 22ea bdbd f3e8 173e f1c5 3d3d 88cc 2d3d
000003c0: 91ca 54bd fc38 2a3c e739 363e 2a35 e0bd
000003d0: b479 29bc e88d 8f3d 6237 08be 0444 283e
000003e0: 6fe7 d7bd 8510 07bd 4fdd 03bd 85c3 ddbd
000003f0: 6812 39be e1a4 e83d 4d64 0b3d 55ed 3cbe
0.034142967 -0.15917782 -0.14099528 -0.17001384 0.12828395 -0.144555 0.118978776 -0.031568952
0.012948853 0.14281711 0.008506464 0.08945933 0.15151982 -0.12789409 0.04084685 0.0071526994
0.06371564 0.052370746 0.074139744 -0.1022107 -0.009003929 0.13993457 0.094624385 -0.0025161055
-0.19186339 0.031812727 -0.09413926 0.12359171 -0.12659211 0.012359543 -0.064967155 0.008238616
0.14621349 -0.002919508 0.08672453 0.11364014 0.12188411 -0.040010676 -0.044839323 0.06570432
-0.05431695 0.09879139 -0.018465294 -0.1300548 0.09198206 0.047363285 0.023589661 0.1538465
0.1370962 0.19117555 0.030468099 -0.15202864 -0.107863106 -0.13407624 -0.1856803 -0.07299053
-0.18168709 -0.12722714 -0.08652056 -0.19186866 -0.11416312 0.091714 0.12609115 -0.072161935
-0.05295304 0.082318686 -0.108239904 -0.083873056 0.0880503 -0.14725019 0.027287863 0.15787737
0.030593242 0.06684933 -0.08534493 -0.0133654885 0.016064605 0.06352338 0.062347285 0.1319352
-0.12179389 0.028069772 -0.06745945 -0.12201326 -0.019985944 -0.17522126 0.109120384 0.018563105
-0.114764705 0.10264497 -0.14952908 -0.07997882 -0.03502727 -0.13046023 -0.1346908 -0.03856946
0.12627174 0.1648517 0.12409153 -0.121614456 -0.11883852 0.15998544 0.057360765 -0.01932277
0.034557097 -0.15585393 -0.0537334 0.16439632 -0.03602082 -0.0027532526 -0.16238694 -0.101625144
-0.0018992425 -0.10852888 -0.016693126 0.043773588 -0.16684629 0.02994961 -0.13366038 -0.08396891
0.06801256 0.15702924 -0.04323468 -0.061183345 -0.16424179 -0.08424719 -0.15925607 -0.046698704
0.027801944 -0.17686912 0.1301666 0.10157408 -0.2064778 -0.07344839 0.061948013 -0.019087395
-0.027910223 -0.05181265 0.16198893 -0.08747494 0.16097371 0.019993557 0.046013433 0.10698066
-0.010439106 -0.06644536 -0.0007309314 0.16223165 -0.12916537 0.030117823 -0.16137037 0.10332964
0.04276791 -0.0019204502 0.10201726 -0.027324118 0.10980153 -0.1102189 -0.06690707 0.07049861
0.15385093 0.06877106 -0.1324153 0.10710675 -0.054334093 -0.00734157 -0.18516551 -0.05888052
0.14892174 0.030474227 -0.084827855 0.032651383 -0.030385423 0.18302056 -0.15592627 -0.070949726
-0.1453618 -0.05781592 0.074694395 0.1348109 0.04732141 0.14276889 0.015204516 0.14799336
0.12679067 0.15441969 -0.07894757 0.18089159 0.14224215 -0.066361256 -0.09780313 -0.16937995
0.04083128 -0.16062899 0.05623404 0.037240233 -0.17226398 0.055838417 -0.004556068 0.06052322
0.1212502 -0.17069884 0.18085097 0.12795681 0.08367888 -0.14175835 -0.08032963 -0.07009519
-0.029267838 0.11815544 0.08346398 0.11938161 -0.07588488 0.039521806 0.044056896 -0.16105977
-0.19048503 -0.074043915 0.13954791 -0.15512316 -0.16980948 0.11719278 0.07694 0.12790395
-0.12904292 -0.14914438 0.07580518 0.1394959 0.09141503 0.032784387 0.06609524 0.15339142
-0.10444052 -0.07741016 0.13933142 -0.13754639 -0.09273173 0.14834957 0.04633135 0.042431384
-0.051950995 0.010389563 0.17795525 -0.1094764 -0.010343958 0.07009488 -0.13302377 0.16432196
-0.10542189 -0.03297474 -0.03219348 -0.10828308 -0.18073428 0.11359573 0.0340312 -0.1844991

lstm.bias_ih_l0 f4 [128]
00000000: 8d4f 77bc 4722 1fbe a591 d13c 2143 23be
00000010: 6004 e7bd ca93 d63d 9d65 163e ab5c e4bc
00000020: a38b 11be 6573 24be ae21 64bd 1a14 b9bd
00000030: a63a 073e 80ac 1cbe 27ef b33d 1205 833c
00000040: 6b36 61bd 8d0d f43d 89e7 df3d a580 7cbd
00000050: 9ac4 0abe ae2e 86bd a94e 833c f581 103e
00000060: e22e aebd 5008 cfbd e86f 2bbe 6478 d23d
00000070: c2e1 2e3e a5a0 c73d 9335 e0bd 68a5 c13d
00000080: 4f5a a0bd 43fb 983d 41ba a23d 15aa 1fbe
00000090: b459 77ba a11d 403d 6915 02be df5c 193e
000000a0: 9990 ef3d e144 003e cc6d 5ebc a7e4 cabd
000000b0: 7dec e4bd c2d0 023d 5915 60bd 7285 f73d
000000c0: 28a1 143e 829f 54bc 2e6a 17be 4685 a13c
000000d0: c64a 123e 17d2 82bd d20d 0abe a163 84bd
000000e0: 9576 373a 7035 25be 9790 cf3d 042f 923d
000000f0: 8c4c 93bd 48df c8bd 28ec c3bd 65e7 d93d
00000100: 4665 c43d 263d 9b3d fd1c ee3a 0ade 4e3d
00000110: 447e 453e fc01 8c3d 4940 a6bd 2ea5 a03d
00000120: 857e bbbd d142 57bd d7c9 e6bd a3db 2abc
00000130: 92bf 8e3b aa0f c2bd 674c e23d 74a2 2f3e
00000140: 3c66 1dbe 91e7 203d 22b3 13be 6a99 edbc
00000150: 19e1 993d 75c6 743c dcf6 5d3d 9966 94bd
00000160: 089a 2f3e 89ab 74bd 5a11 c03c 7d4f a33c
00000170: d3e7 f43d 8052 1e3c 98db c23d f856 7c3d
00000180: 2f34 b33d 43ad a2bc b5e6 193d 346c 2c3e
00000190: 4455 a8bd fb4a b8bd eebe df3d 21ec 5c3d
000001a0: 9219 3bbe 487d 433d 7c97 3dbe 9214 c7bd
000001b0: 9d9c 783d c6a3 853d 2264 78bd f44e 053e
000001c0: 0556 323e adde e83d 880c 25be 684f f6bd
000001d0: 883c a1bb 02b6 033e 9e87 87bd 7b2d c93c
000001e0: ac99 8b3d 1869 f3bd f5b5 d1bd e228 2d3e
000001f0: 1766 babb 7c1b d13d cd2e 3dbe e2d8 ccbd
-0.01509465 -0.1554042 0.025582144 -0.15943576 -0.11280131 0.10477407 0.146872 -0.027876219
-0.14213423 -0.16059645 -0.055696182 -0.09037037 0.13205966 -0.15300179 0.08785849 0.015993629
-0.054983538 0.11916647 0.10932834 -0.061646122 -0.1355156 -0.06551872 0.016028719 0.14112075
-0.08505036 -0.10109007 -0.16741908 0.10276869 0.17078307 0.097474374 -0.109477185 0.09455377
-0.07829725 0.07469799 0.07945681 -0.15592225 -0.0009435669 0.046903256 -0.1270348 0.14976834
0.11697502 0.12526275 -0.013575982 -0.09906893 -0.11177919 0.03193737 -0.05470786 0.120859995
0.14514601 -0.012977483 -0.14786598 0.01971687 0.14286336 -0.06387728 -0.13481835 -0.06464315
0.0006998566 -0.16133666 0.10135 0.07137874 -0.071923345 -0.098082125 -0.095665276 0.10639838
0.09589629 0.075800225 0.0018166598 0.05050472 0.19286448 0.06836316 -0.0811773 0.078440055
-0.09154991 -0.052553955 -0.11268967 -0.010428342 0.004356333 -0.09475644 0.11049729 0.17151815
-0.1537103 0.03928334 -0.14423802 -0.029003818 0.07513637 0.014939894 0.0541905 -0.072461314
0.17148602 -0.0597339 0.023445774 0.019935364 0.119582795 0.009663224 0.095145404 0.061606377
0.087501876 -0.019858008 0.037573535 0.16838151 -0.08219388 -0.089986764 0.10925089 0.053936128
-0.18271473 0.0477269 -0.18514818 -0.0972072 0.060696233 0.06525378 -0.06064237 0.130184
0.17415626 0.11370597 -0.16118062 -0.12026864 -0.004920546 0.12862399 -0.06617664 0.02455782
0.0681642 -0.118852794 -0.10239784 0.16910127 -0.0056884396 0.1021032 -0.18474884 -0.100023046

lstm.bias_hh_l0 f4 [128]
00000000: ce28 ca3d d4e2 1fbd e1f0 173d cb75 1fbe
00000010: 28a1 063e e30f dabd 277f e4bc 9ff5 04be
00000020: 23f4 c0bd 9701 2bbe b2fd 2abe 9694 14bd
00000030: a605 b1bd 092d d43d 67f6 9ebc da70 f53d
00000040: 3984 fcbc 9ef8 4d3c 7d11 393e 03de 44be
00000050: c1fd bcbd f9f0 0c3e 65e8 a6bd 6e5d 74bd
00000060: 74a4 37bc d3ee fabd 6892 933c 4487 a2bd
00000070: e783 5e3d f2f5 7cbd daf6 8fbd bc17 cabd
00000080: d2dd ad3c df62 913d e5f9 3dbe 1b54 0abe
00000090: 837d 5bbe 550b 713d c4ff e43d 11ec 3bbe
000000a0: 132f cc3c ec0d 5b3c c3d1 dabd a50f 0a3d
000000b0: 1915 f83d 8047 123e 9fe0 683d 6e0a 60bd
000000c0: 68f1 d3bd d466 c0bd f2b8 ddba 28e9 81bd
000000d0: 52c5 e83d 5e88 37be 1b48 d9bc 35d8 a2bd
000000e0: f8f5 21bc 422d 0f3e 2a83 463c 3bb8 0ebd
000000f0: 9596 83bd 4b06 56be 0d13 30be 144b 393d
00000100: 8c69 efbd 08f1 003e 3e5e 25bd 149b 8f3d
00000110: 31fd 1a3e daae 1c3d 259e 8a3d 2746 233e
00000120: 7b96 9dbd c879 ab3d b60b 17be 4f60 203e
00000130: 1fb8 80bd 9c17 be3b 9ba4 c43d 31e5 ad3c
00000140: 324c 183e 7793 b7bd ced8 f4bd 2ce0 273e
00000150: 0e11 eebd 040d 0f3e b4fa 2e3e 8ff9 d53d
00000160: 2d2d 83bd 1325 a93c bc01 2dbe 5978 c1bd
00000170: 4548 19bd 7130 00be 4c71 b93d 3f98 de3d
00000180: 993d 9bbd 6d5d 4cbd 0bee 183e 474e 8abc
00000190: 668f 003e 2932 153e 650e a6bd 27e1 3abe
000001a0: 5c9d 183e 89ab e1bd 400c 213e 46a5 e9bd
000001b0: 2f27 c13c bfe1 c73c 82f0 7fbd 887c f23d
000001c0: ffae 25be 25e1 c7bd 1048 dabc 0ba8 a23d
000001d0: f492 873d c30c ca3d 1c13 223d 7625 163e
000001e0: 641e 8dbd fbc1 a5bd b8b4 a0bc 5eb5 823d
000001f0: ae7a 5bbd 62ce 2b3d bcd4 133d 91c0 133c
0.09871064 -0.03903468 0.037094954 -0.15572278 0.13147414 -0.106475614 -0.027892662 -0.12984322
-0.094215654 -0.16699825 -0.1669834 -0.036274515 -0.086436555 0.10360152 -0.019404603 0.11984415
-0.030824767 0.012571482 0.18073077 -0.19225316 -0.09228087 0.13763799 -0.081497945 -0.059659414
-0.011208642 -0.12252583 0.018014148 -0.07935956 0.05432501 -0.06175799 -0.07029505 -0.09867808
0.021223936 0.07098936 -0.18552358 -0.13508646 -0.21434598 0.058848698 0.11181596 -0.18351771
0.02492479 0.013370018 -0.1068454 0.033706326 0.12113399 0.14285088 0.05685484 -0.054697447
-0.10348779 -0.09394613 -0.001691608 -0.06343299 0.11365761 -0.17923114 -0.02652364 -0.079513945
-0.009885304 0.13982108 0.012116233 -0.034843665 -0.064252056 -0.20900838 -0.17194767 0.045237616
-0.11690053 0.12591946 -0.04037308 0.07012001 0.15135647 0.03825269 0.06768445 0.1594473
-0.076947175 0.08372837 -0.14750561 0.15661739 -0.06285118 0.0058011543 0.096017085 0.021227451
0.14872816 -0.089636736 -0.11955415 0.16394109 -0.11624347 0.13969809 0.17087823 0.1044799
-0.06405101 0.020647561 -0.16895193 -0.094467826 -0.037422437 -0.12518479 0.09054813 0.108688824
-0.07580108 -0.049893785 0.14934556 -0.016883029 0.12554702 0.14569916 -0.08108214 -0.18249951
0.14903778 -0.11019046 0.15727329 -0.114084765 0.023578255 0.024399636 -0.062485225 0.11840159
-0.16180037 -0.0975974 -0.02664569 0.07942208 0.06619826 0.09865715 0.039569005 0.14662728
-0.06890562 -0.080936395 -0.019617423 0.06382249 -0.053583793 0.04194487 0.03609155 0.009018079

lstm.weight_ih_l1 f4 [128, 32]
00000000: 2198 093e 6b61 983c b5a6 f03d 333a 85bd
00000010: 79b9 2cbe 97ba f83d 6b6b 813d 54bc f23d
00000020: 693d 913d 0cc2 35bb 329d eebd 47db 39be
00000030: cb4e 393d 29ec 243e 2cf8 c6bc 2d56 8abd
00000040: a08f cc3d 0a24 a0bd fa52 993d 53a8 24be
00000050: 27bc 1dbe 71cd 03be 4662 4dbd 5dca 8b3d
00000060: 329b a33d a8e0 a9bd 1ac9 c8bc d760 7c3d
00000070: b750 f4bc f6f3 583c 01bd d33d 4343 7bbd
00000080: aebe b43d 31db 0a3e ec46 343d 47ff 15bd
00000090: 2efb ffbd 2bc3 d6bd d337 1bbd 0e29 553d
000000a0: 3cc7 bb3d 8baf 243c 93b4 1e3e 61b9 aabd
000000b0: 12a5 343d 0284 98bd 732d 4d3d 6012 0e3e
000000c0: 7ec7 a63d 4e71 b83c dce2 50bd a5a8 f8bd
000000d0: 3bf7 f7bd 47ab 25be d0ee fe3d ae02 92bd
000000e0: 3dbf 27bd 852a 21be 0967 14bd 0551 083e
000000f0: cc40 303d 7053 c2bc 73fa a43d 5b0d 043e
00000100: 037a 173e 0022 f5bd 63f3 643c a3fd 06be
00000110: 2beb fcbd 7832 fe3d 2162 04be 9165 f0bd
00000120: 0fda cb3d a261 2a3e 58d7 2cbe 56f2 dfbd
00000130: 0a5b abbd bf42 0a3e e760 ac3d 3270 b83d
00000140: 254c cd3d 4aa9 f9bc 7fdf 083e 084a bbbb
00000150: baf1 0d3c 2807 8bbd a153 7a3d 9a49 823d
00000160: 89c8 bfbc 4ffd 303e aa2b 86bd 4733 803d
00000170: 63a1 153e fe95 ef3d 77a5 91bd bffa 8ebd
00000180: 411f 293d ac09 3839 0b45 5fbb 56c1 f23d
00000190: 07cb b73c 039d d3bd e96e 0ebe ce37 363e
000001a0: c563 20bc 8931 5dbd 1237 03be efdd 333e
000001b0: 1281 ac3d 1d79 f0bd 56af 25be 3cfb 113e
000001c0: d9f8 9f3d d739 12bc 8814 dabd f979 df3d
000001d0: 3298 02be f217 8c3d 393b 32be ddd4 29be
000001e0: 2aed 2ebe 913e 303e 1679 363e 1ddb 1abe
000001f0: b2cc 0b3e 1c5c d8bd 7a5b 48be e298 b83d
00000200: f050 123e 1b14 0b3e 112f 833a d18a 503e
00000210: 9633 34be caa0 093d 970c 83bc f885 5abc
00000220: 2cda 1e3e 9f96 e5bd 8ce0 b13d d77c 45bc
00000230: 2fcb 803d 4d3e eb3b 3410 623d 9ac3 153e
00000240: 9a6b d9bd 658c 15be 5202 403e 0745 bdbd
00000250: 00d0 8e3a c13c bf3d 9ea4 38bd 09ad d93d
00000260: bb32 c53d d0a9 14bc d94e 633d 1a1f e33c
00000270: 207d 0a3e ccb8 113e cbfd 11be cfe4 543d
00000280: acee e03d 6843 193e 0f22 863d 77c4 c43d
00000290: 2e6b bfbc 26af 09bc ed62 e4bd b6d2 083e
000002a0: c4ec 1a3e 0fa9 d1bd 711c 2abe 9d10 133e
000002b0: d442 30be 4d10 0d3e fe52 3cbe be54 b2bd
000002c0: 7098 a8bd 03fe 223e 3971 07bd 0bfa 173e
000002d0: 32b9 103d 21ec 213e 37ab e53d f011 f43d
000002e0: 23e0 223e dd88 32bd 6561 71bd cb64 883d
000002f0: e336 173e 9d8e 9dbd f6fc 13be 541e 00be
00000300: 031a b7bd 22f5 bb3c fe33 4cbc 9905 6cbd
00000310: 5ec5 aebd 84dc 563d 1b89 19be 6ce6 2b3e
00000320: 613a efbc cbb2 df3c bbf7 7d3d fa17 8fbd
00000330: 5dfd 153e daea 863b 22cc 8b3c 833a 2abe
00000340: 07fe cf3c b24f 673d 6bfe f33c 43c5 eebc
00000350: 7c08 0e3e 49a0 f13d eda3 dc3d 0ee0 c8bc
00000360: 990f 043d 4f62 01be 385a 04be 17a0 0dbd
00000370: 6be1 bb3c 0376 c4bd 105e 1abe be89 973d
00000380: bc3c 813d 2083 fcbd 6cb4 d23d 99b8 07be
00000390: afa0 eb3d 4ed1 c93d fc03 5bbd 7ea7 3c3e
000003a0: 11fb d6bd 6dc2 89bd eb88 1f3e 4dc6 1dbd
000003b0: d2aa 84bd 12b2 ef3c 3bc3 ebbc c43f b93d
000003c0: 62fd 1b3e 700d ce3d ebc6 503d 2f17 623d
000003d0: 6da8 9e3b ecaf b23c b850 803b 3dcf fb3d
000003e0: 4ac6 a93d 74d4 90bc 3548 b23d cb05 90bb
000003f0: 5879 873d 1c39 2a3e 8ca2 12be 281d bf3c
0.13436939 0.01860114 0.11750547 -0.06505241 -0.16867627 0.12144964 0.063193165 0.11852327
0.07091791 -0.002773407 -0.116510764 -0.18150054 0.04524116 0.16105713 -0.02428826 -0.06754718
0.09988332 -0.07819374 0.0748653 -0.16079836 -0.15403806 -0.12871338 -0.05014255 0.06825707
0.079885855 -0.08294803 -0.024509955 0.06161579 -0.029823644 0.013241759 0.10338784 -0.061343443
0.08825432 0.13560177 0.04401295 -0.036620405 -0.124990806 -0.10486444 -0.037895035 0.052041106
0.0916886 0.010051618 0.15498571 -0.083361395 0.044102736 -0.074470535 0.050092172 0.13874197
0.08143519 0.022514965 -0.0509976 -0.121415414 -0.12107702 -0.16178618 0.124478936 -0.07129417
-0.040953863 -0.15738876 -0.036231074 0.13312156 0.043030545 -0.023721427 0.08055582 0.1289572
0.14792638 -0.119693756 0.013974044 -0.13182692 -0.12349542 0.1241197 -0.12928058 -0.11738122
0.09953701 0.16638806 -0.16879022 -0.10934894 -0.08366974 0.13502024 0.0841692 0.090057746
0.10024289 -0.030476231 0.13366507 -0.0057156123 0.008663589 -0.06788474 0.06111491 0.06361695
-0.023411052 0.1728413 -0.06551297 0.062597804 0.14612345 0.116985306 -0.07111638 -0.0698142
0.04128957 0.0001755121 -0.0034068252 0.11853282 0.022435678 -0.10332682 -0.13909496 0.17794725
-0.009789412 -0.05400232 -0.12813976 0.1756513 0.08423056 -0.117418505 -0.16180167 0.14255995
0.07811136 -0.008924923 -0.10648447 0.10911936 -0.1275337 0.06840505 -0.17405404 -0.16585107
-0.17082658 0.17211367 0.17819628 -0.15122648 0.13652304 -0.105644435 -0.19566146 0.09013535
0.14288688 0.13581888 0.0010008534 0.20365454 -0.17597803 0.033600606 -0.015997214 -0.013337605
0.15512913 -0.11210369 0.08685407 -0.01205369 0.06288754 0.0071790577 0.055191234 0.14625397
-0.106162265 -0.14604338 0.18750885 -0.092416815 0.0010895729 0.0933776 -0.045078866 0.10628707
0.09628817 -0.00907369 0.055495117 0.027724791 0.13524294 0.1423065 -0.1425697 0.05197602
0.10983023 0.1496712 0.06549465 0.09607785 -0.023366537 -0.008403575 -0.11151681 0.1336163
0.15129381 -0.102373235 -0.16612412 0.14361806 -0.17212993 0.1377575 -0.18391034 -0.087075695
-0.082322 0.1591721 -0.033066962 0.14841478 0.035332866 0.15812732 0.11214297 0.11917484
0.15905814 -0.043587554 -0.058930773 0.0665985 0.14767031 -0.07693217 -0.14451966 -0.1251157
-0.08940508 0.022944037 -0.012463568 -0.057622526 -0.085337386 0.052456394 -0.14993708 0.16787118
-0.029202642 0.027306935 0.062003832 -0.06986995 0.14647432 0.004117352 0.017065112 -0.16623883
0.025389684 0.056472488 0.029784402 -0.029146796 0.13870424 0.1179815 0.10773454 -0.0245209
0.032241438 -0.12635158 -0.1292504 -0.0345765 0.022934636 -0.095928214 -0.15074944 0.07399319
0.06310412 -0.123296976 0.10288319 -0.13254012 0.11505257 0.09854375 -0.053470597 0.18423268
-0.10497106 -0.06726537 0.15579574 -0.038519192 -0.06477894 0.029259715 -0.028779617 0.090453655
0.15233377 0.10061157 0.050970953 0.05519789 0.0048418553 0.021812402 0.0039158724 0.12295387
0.08289774 -0.01767943 0.08705179 -0.004395222 0.06614941 0.16623348 -0.14319819 0.023329332

lstm.weight_hh_l1 f4 [128, 32]
00000000: 458a 44bd 1d16 2a3e e3b6 a33d 66de 1b3e
00000010: 32a8 d23d efe4 853d e9c1 273e ba3a 2d3c
00000020: 77a3 e03d 4403 683d faff 1cbe a00b 093e
00000030: d575 293c 041c ffbd 70bb 023e 7b39 21be
00000040: 03c6 9e3d 95cf 09be 810c 15bd 6d88 1bbe
00000050: bf92 d63d 5267 f73c a849 023e 90ce 213d
00000060: da1c 98bd 26ba 223d 1e34 043e 5d26 fabd
00000070: f930 05be 514d 29bd 32a8 c1bd 5d62 4dbc
00000080: 4755 393e 2db4 d73d 376c 1bbe b999 acbd
00000090: 6504 143e c38c d0ba 0123 b3bd a357 313d
000000a0: 1aee acbc 6937 6e3d 3666 643c 6121 e53d
000000b0: c812 b13d 0ded 903d 82c7 873d fa8b 77bd
000000c0: 9e57 2dbe 4cf3 bbbb c599 edbd 1ec4 03be
000000d0: 18a7 28be b2ed 63bd 40cf 0bbe 5ee9 a53c
000000e0: def7 ba3d a5fc ea3d 1eea 45be 080e 233e
000000f0: dfc2 283d 5110 233e 4743 c63d b894 353d
00000100: 90b7 5fbd be22 1f3e c321 15be 8839 223e
00000110: aaed 2f3e e159 323d 0497 66bd 0f6d f4bd
00000120: cce2 c53b 273c 353e d680 f13c 7e13 74bd
00000130: dfcf afbd d8b6 fdbb 8674 ca3d bad5 0a3d
00000140: 287b 5b3c 150b c6bd 4846 9e3d b7d7 973b
00000150: d2bc 4ebe 0cff f73d a665 003e 2138 ebbc
00000160: 1ac9 71bd 9cd7 3e3e c684 3b3e b720 7b3d
00000170: ffbe 023e 447c d03d de00 f93d 6ad5 23bc
00000180: 2414 c0bb 1e9b fd3d e092 c3bd 5ea2 b0bd
00000190: 3e22 fa3d 9d91 373b 23b1 c73d 6c3c 9e3b
000001a0: b086 c6bd 092e b5ba d796 bd3b c181 a33d
000001b0: bb4f ffbd 1572 15be 3ce2 9f3c af6a 003e
000001c0: 4a9a e7bd 0620 afbd 1033 de3c 95ec 193e
000001d0: a64e f33d 1fc4 89bd 7caa 9ebc f525 2ebe
000001e0: ce82 503e ee44 113e 2848 863d 9de2 0ebe
000001f0: f397 9b3d 764f ebbd 811e 7dbc 7315 c53d
00000200: b050 f3bc d9f7 8dbd 27e6 d03d 0c65 0d3e
00000210: c7b1 3f3d 66ab bbbd 5b9a dcbd bb0e 10be
00000220: db0d abbd ba3f 06be bd6f 9c3b 7f78 dabd
00000230: f840 ea3d 215a 34be b275 dcbd f76c 08be
00000240: 584c 8ebd b3b7 bf3d 3862 fc3d 9101 423e
00000250: 5835 79bd 4b90 913c e66c 4b3c 07fa 9e3d
00000260: 29ea ce3d 1bed fb3d 87a6 0f3e eea2 2b3e
00000270: 6154 57bc 275b 113e 06ad a6bd c52c b4bc
00000280: 7e97 65bd 2871 b8bc 9808 91ba a880 29be
00000290: 227a b7bd 2a08 64bb b9c7 4c3d a457 053e
000002a0: e700 f3bd ec42 613d 7203 ba3d fd4e acbd
000002b0: 1c99 233d 700e d9bd 12c2 babc 29cd abbd
000002c0: 02be 6bbd a7bf 7abd b00d 0a3e e036 003d
000002d0: 0ccc 3cbe da41 b33b 0ac4 db3d 85ad abbd
000002e0: 1c86 eebd 3359 e8bc 5c95 14be 3afb 65bd
000002f0: 640f 6f3c 8748 0dbe dfee 21be 568f bcbd
00000300: f97b f8bd 1dc5 5fba 5df9 833d 3990 f53d
00000310: 8db9 353e 52ea d13d f51d b6bd 4239 93bc
00000320: 16f8 c2bd 42bf c53d a92e 943d f276 be3d
00000330: bc8b d7bd a45f 0b3e bdcd 19be 47da a83d
00000340: 4f58 25be 0aef 053e 3b6c cfbd ce35 05be
00000350: aa92 943d 85de 183e 686b d5bc f2a6 8a3d
00000360: e2a6 2e3e e786 0dbe 92ac 9f3d b6dc 4f3d
00000370: f60f d8bd 313a c83d 93d7 203e 36cf 203e
00000380: 7dd7 04be 1ca3 1e3e 8c5b 083e 17a2 ba3d
00000390: 4659 b1bc 4d41 1c3e 68ff f9bd dba3 94bd
000003a0: 383c d63d 3a1b f73d ebf4 0e3c 3941 2d3e
000003b0: 0522 a23d 646d be3d e9a1 1a3e c570 233e
000003c0: 9e03 f13d 6358 2a3e bd68 853c 29af 163e
000003d0: 893f c13d 4e36 ecbd 95be d43d d239 a6bc
000003e0: 44d6 68bd cf2a 243e eff3 113d c6e1 1f3e
000003f0: f018 753c a464 573d 69e7 dc3d 1fb8 6abd
-0.047983427 0.16609998 0.07993867 0.15221557 0.10285987 0.06537806 0.16382565 0.010573084
0.109686784 0.05664374 -0.15332022 0.13383341 0.010343035 -0.124565154 0.12766814 -0.15744583
0.077526115 -0.13458093 -0.036388878 -0.15188761 0.10477208 0.030200634 0.1272341 0.039503634
-0.07427378 0.039728306 0.12910506 -0.122143485 -0.13006963 -0.0413335 -0.09455909 -0.012535659
0.18098937 0.10532413 -0.15178 -0.08427758 0.14454801 -0.0015911091 -0.08746911 0.043296468
-0.02110963 0.058158312 0.013940385 0.11188007 0.0864616 0.07076464 0.0662985 -0.060436226
-0.16927955 -0.0057357904 -0.11601595 -0.12867782 -0.16469991 -0.055646606 -0.13653278 0.02025288
0.09129308 0.11473969 -0.1932759 0.15923321 0.04120147 0.15924193 0.09680801 0.044331282
-0.05461842 0.15540597 -0.1456366 0.15842259 0.17180505 0.043542746 -0.056296363 -0.11934864
0.006038999 0.17698728 0.02948038 -0.0595889 -0.0858457 -0.007742744 0.09885506 0.03389523
0.013396062 -0.096700825 0.07728249 0.0046338695 -0.20189217 0.12109193 0.12538776 -0.028713288
-0.059029676 0.18636936 0.18312368 0.061310496 0.12768172 0.10179952 0.121583685 -0.009999612
-0.005861776 0.12383102 -0.095494986 -0.08624719 0.122135624 0.0028010376 0.09750583 0.00482898
-0.09693658 -0.0013822924 0.005785804 0.07983733 -0.12466379 -0.145943 0.019517057 0.12540697
-0.11308725 -0.0855103 0.027123958 0.15031655 0.118802354 -0.0672686 -0.019368403 -0.17006667
0.20362398 0.14186451 0.065567315 -0.13953634 0.075973414 -0.11489765 -0.015449167 0.09623232
-0.02970156 -0.06932039 0.10200148 0.13808078 0.0468004 -0.09163551 -0.107716285 -0.14068119
-0.08352252 -0.13110247 0.0047740624 -0.10667514 0.11438173 -0.17612506 -0.10764636 -0.13322817
-0.06948155 0.0936121 0.12323421 0.1894591 -0.06084189 0.017769 0.0124161 0.07762533
0.10103256 0.12301084 0.14028369 0.16761371 -0.013142676 0.14194928 -0.0813847 -0.021994004
-0.056052677 -0.022514895 -0.0011065183 -0.16552985 -0.08958842 -0.0034794905 0.049995158 0.13021713
-0.118654065 0.054995462 0.090826884 -0.08413503 0.03994094 -0.10598457 -0.022797618 -0.083887406
-0.057554252 -0.06121793 0.13481784 0.031302333 -0.18437213 0.0054704966 0.10730751 -0.083827056
-0.11646673 -0.028362846 -0.14510101 -0.05614779 0.014591072 -0.13797198 -0.15813778 -0.09207027
-0.12133021 -0.0008536147 0.06444047 0.11990399 0.17746563 0.10249771 -0.088924326 -0.017971639
-0.09519975 0.0965562 0.07235462 0.09300031 -0.10524699 0.13610703 -0.15019889 0.08244758
-0.16146968 0.13079467 -0.10128065 -0.13008806 0.072545364 0.14928634 -0.026052192 0.067701235
0.17055848 -0.13820992 0.07796587 0.050747596 -0.10549919 0.09776724 0.15707235 0.15704045
-0.12972827 0.15491909 0.13316172 0.091129474 -0.021649014 0.15259285 -0.12206918 -0.072578155
0.104607046 0.1206574 0.008725385 0.16919412 0.07916645 0.09298208 0.15100826 0.15960987
0.11768268 0.1663528 0.016285295 0.14715256 0.094359465 -0.11533795 0.10387913 -0.020291243
-0.056844965 0.16031955 0.035633024 0.1561347 0.014959559 0.052586213 0.107863255 -0.057304498

lstm.bias_ih_l1 f4 [128]
00000000: b307 fbba 9e78 38be cd05 28bd 3e05 383d
00000010: 22e0 1a3e 46a6 f13b fe7e d73d ce17 9eba
00000020: 0957 2abe f1a8 a5bc d08b 93bd f737 4dbd
00000030: 4642 a2bd 5cbd f43d 09dd 24be 2a09 e8bd
00000040: 013e c0bd 3f76 0e3e 5147 aebc 7f1c 953d
00000050: 5a87 533d 281b 173e 0ca5 72bd 5631 e93c
00000060: 8f39 bdbd f2f5 2fbd e29f 32be d6b1 2ebe
00000070: 8865 263d 1958 22be c6ac bd3d 5d39 e93d
00000080: 5410 323d 9880 633d fad6 48be 332b f3bd
00000090: 0aa8 15be 5840 36be 2c5a 813d 4b47 973c
000000a0: ded7 0d3e 7ac5 87bd 86b5 03be bf65 31be
000000b0: f387 3cbb 9c1e dfbd 1239 993c 67b2 dd3d
000000c0: d086 d53d 966a 24bd f119 29be 20ce c8bd
000000d0: 417b 9b3d ad09 453d 5e22 09bc 6f86 35be
000000e0: 93ae b53d 64a3 bb3d 9292 66bb c93a 76bd
000000f0: 66f2 babd 97e4 babc ffdd 7239 c099 083d
00000100: efcb 653c 50e2 2e3e 10d0 ef3d b955 483d
00000110: 3729 54be d1de b9bd 625d 8c3d 3cbf ebbd
00000120: bd34 583d 8d27 523d b302 d1bd e0f8 b53c
00000130: 540c eebc e294 063e 0602 1abd bc32 413e
00000140: 3750 223e d28f 7cbd b357 c83c f320 97bd
00000150: e390 133e 2687 ee3d e4ab 233d c469 ee3d
00000160: fba9 1bbe 2f15 71bd 2b3e e83c e853 37be
00000170: 9c0c 433e ce88 ab3c 6611 263e d217 39bd
00000180: a5fa 4abb 32dc 76bd f185 c4bd 4bab dbbd
00000190: d089 d23d cafa 1b3e ccdb 2f3d 16c0 8f3d
000001a0: 8c0d 443d da0e 60bc ca93 12be bf9c a53c
000001b0: 772b 92bd 31e5 613d 316b 06be 1a38 9abc
000001c0: 6703 dfbd 9892 2fbe 4257 19be 4c4d 263e
000001d0: 789b 11bd dc2f 1fbe 957a 253c d6ab babc
000001e0: eafe 0d3e 46c4 eb3d 0c65 8cbd 574c 04be
000001f0: 6888 ddbd 4bc6 8fbd 4688 c8bd 552d 123e
-0.0019152075 -0.18014762 -0.041021157 0.044926874 0.15124562 0.0073745577 0.10522269 -0.0012061538
-0.16634764 -0.02022216 -0.072044015 -0.0501022 -0.07922797 0.1195018 -0.16099943 -0.11329873
-0.09386826 0.13912295 -0.02127424 0.07280826 0.051642753 0.14756453 -0.059239432 0.028465908
-0.09239494 -0.04295916 -0.17443803 -0.17060027 0.04062417 -0.15853919 0.092614695 0.11387894
0.043472603 0.05554256 -0.19613257 -0.11873474 -0.14614883 -0.17797983 0.06316027 0.018466612
0.13851878 -0.066294625 -0.12862214 -0.1732397 -0.0028767555 -0.1089451 0.018703971 0.10825043
0.10426104 -0.04014071 -0.16513802 -0.0980494 0.07591868 0.04810493 -0.00837001 -0.17727064
0.08871188 0.09162024 -0.0035182578 -0.060114656 -0.09128265 -0.022814078 0.00023161618 0.033349752
0.014025672 0.17078519 0.11709607 0.048909876 -0.20718847 -0.09075702 0.06853749 -0.115110844
0.05278467 0.05130725 -0.10205593 0.0222134 -0.029058613 0.13142732 -0.037599586 0.1886701
0.15850912 -0.061660595 0.02445588 -0.073793314 0.14410739 0.11646871 0.03995885 0.11641267
-0.15201561 -0.058858093 0.028349956 -0.17903101 0.19047779 0.020939257 0.16217574 -0.045188732
-0.003097215 -0.06026859 -0.0959586 -0.10726031 0.10280192 0.15232387 0.042934224 0.07019059
0.04786448 -0.013675416 -0.1431419 0.020216344 -0.071371965 0.055150215 -0.13126828 -0.01882558
-0.10889321 -0.17145765 -0.14974692 0.16240424 -0.035548657 -0.155456 0.010100027 -0.022787016
0.13866773 0.115120456 -0.06855211 -0.12919746 -0.10817033 -0.07020243 -0.09791617 0.14275105

lstm.bias_hh_l1 f4 [128]
00000000: 3fdc a6bd d002 a33d daea 623d c79e 023a
00000010: 8ca0 883d d6f8 0f3e 9892 8b3d 3106 553d
00000020: ea5d 33be 8632 f5bc 657c f7bb 3917 e63d
00000030: 5343 853d faa6 ff3d 4dd9 f53d 094c b7bd
00000040: 4bb8 63bc d368 233e 0181 9e3d a513 ce3d
00000050: 35d9 163d 8d9f 72bd 7041 c13c 2fbe 01be
00000060: 7fbd 203e a6fc 9ebc 8e90 e93d 523e 1abe
00000070: 78ee 2dbe 129e f7ba fab8 b7bc 57ce b4bd
00000080: 57b0 973d 1b2d 02be 3280 f43d 7f96 56be
00000090: ad59 913c e6e4 e8bd bfed d73c 5f3b 1c3e
000000a0: 417b 50bd 999e c03c 7430 a6bd 02ec e4bd
000000b0: 59b8 28be fd42 b83d 4b8c 6fbc e22c 573d
000000c0: 963b 3bbe 7d4a 22be 63fd 57be 65da d4bd
000000d0: 8505 73bd 5131 c7bc 9e3f 6e3d 9a42 b9bd
000000e0: 9fb8 293e 7360 cebd c383 40be affd d73d
000000f0: 58d1 f7bd b0d4 f2bb aedb d1bc f2b1 5abd
00000100: 9b36 b13c 65be 2ebe f1ff 253e df98 d8bd
00000110: 01aa 6b3d de15 e3bd 18e6 34bd f467 a5bb
00000120: de86 87bd 29ad 8cbd 3c11 0fbe f07d 09be
00000130: 4565 6dbc 34a7 54bd 6ce6 bfbc abcd a23d
00000140: b059 91bc 0a7c 2ebe 58d0 8fbd 439a ea3c
00000150: ef84 873d 4a24 f03d a1c8 493d 447e 053e
00000160: 4f30 06be c5e3 25be b6bd 60bd 66b9 29bc
00000170: 8e43 283e 19a5 c3bd 6742 f1bd 14e8 c13a
00000180: 7155 003d 8be4 30be 9d07 c2bd bcf4 38be
00000190: 6502 b33c a486 233c 8918 29be 5ebe 15be
000001a0: aedd aabc b4cb 78bd 67d9 17be 4820 9fbd
000001b0: d320 31be 8405 06bd 32ee 16bd 2ff7 203b
000001c0: dbd2 c7bc ed93 1ebd a278 1e3e ee0a 83bd
000001d0: 7166 363d 3468 823d b81c 26bd a4a1 10be
000001e0: c8a8 1fbe 4822 27bb 0465 fd3c 7f39 ac3d
000001f0: fa4f aebd b7ca f43d 0919 343e e919 37bd
-0.08147477 0.07959521 0.055399753 0.0004982766 0.06671247 0.14059767 0.0681507 0.052007858
-0.17516294 -0.029931318 -0.007552671 0.11234898 0.06506982 0.1248302 0.120043375 -0.089500494
-0.013898919 0.15957956 0.07739449 0.10062341 0.03682824 -0.05923419 0.023590773 -0.12670206
0.15697287 -0.019407582 0.11404525 -0.15062836 -0.169855 -0.0018891713 -0.02242707 -0.08828419
0.07406681 -0.12712519 0.11938514 -0.20955847 0.017742956 -0.11371784 0.026358483 0.15257023
-0.050898794 0.023513125 -0.081147105 -0.111778274 -0.16476573 0.08997152 -0.014620851 0.052533038
-0.18284449 -0.15848728 -0.21092753 -0.10393218 -0.059331436 -0.024315508 0.05816614 -0.09045906
0.16574334 -0.1007699 -0.18800263 0.10546433 -0.12100476 -0.007410608 -0.025617447 -0.053392358
0.021632483 -0.17064817 0.16210915 -0.10576033 0.057535175 -0.11088155 -0.044164747 -0.0050477926
-0.06617521 -0.06868965 -0.13971418 -0.13426948 -0.014489477 -0.05191727 -0.023425303 0.07949384
-0.017742962 -0.17039505 -0.0702216 0.02863801 0.06617152 0.117256716 0.0492636 0.13036448
-0.13104366 -0.16200168 -0.054868422 -0.010359144 0.1643202 -0.09552974 -0.11780243 0.0014793896
0.031331483 -0.17274682 -0.09474108 -0.18062109 0.021851728 0.009980831 -0.16513266 -0.146234
-0.020857658 -0.06074114 -0.14829026 -0.07769829 -0.17297678 -0.032720104 -0.036848255 0.0024561395
-0.024392536 -0.03871529 0.15475705 -0.06398569 0.04453129 0.063675314 -0.040554732 -0.14124161
-0.15591729 -0.002550261 0.030931957 0.08409404 -0.08511348 0.11952727 0.17587675 -0.044702444

lstm.weight_ih_l2 f4 [128, 32]
00000000: a766 88bd 726e 89bd 4802 23be da31 0c3e
00000010: 9bd0 793c f46a cf3d 96a3 ce3d 0535 48bd
00000020: 19ab 093d 31d6 173e f162 05be b39a 363e
00000030: 9c6f b43d 21ec 3dbd 285b 03be 2175 aa3d
00000040: e29b 783d 3b6f 8cbd 7ba9 c63d 21a8 863d
00000050: 1086 343e 5629 803d ed35 a33c 9aee 4dbe
00000060: d0ab 203e 2daa 453e f405 65bd 3ed4 3f3c
00000070: 510b 33bd 3376 86bc 9641 cc3d 2ded 5a3c
00000080: 3882 1fbe f184 be3d 1d3b f3bd e579 8e3d
00000090: 90f9 ce3d 10ce 83bd 5e67 ce3d 308e dc3c
000000a0: de72 a5bd 801b 263e febc 023e d274 243e
000000b0: b6fa f6bd bc19 1abe 0b9a 15be c2c5 ad3d
000000c0: 8db6 923d f49b b9bd f7d0 283d 3195 5f3d
000000d0: be7a bdbd f506 aebc 3516 f0bd f230 8abd
000000e0: a707 c33d 27b0 383d 897d f4bd b3bb 833d
000000f0: 6c6e 79bd e729 11be 1e2a 19be 1399 9d3c
00000100: 23a3 05be e1ae b4bd 1b7a 083d fac1 343c
00000110: d6c2 91bd 5b69 7f3d c642 be3d f26a a6bd
00000120: 7c95 90bd 535a fb3c 1eda 643d f039 8d3d
00000130: 21c8 073e 2f88 a8bc a9f5 4f3d 014e d7bd
00000140: 75be edbb 7062 f23d d2d2 2fbe 9549 f2bd
00000150: 1aa8 26be 4b3d 113e 7af1 a0bc 62e7 2c3e
00000160: 8316 b8bd 7ada 7dbd c8eb fe3d 020c 31be
00000170: a553 25be df6a f8bd 817e bd3b 0bef 14be
00000180: 94f1 013d 3320 133e 8bdc 1bbd 02f4 0bbd
00000190: 81a3 22be b15b 36bd 2fd9 593c 3c37 283d
000001a0: 5c6f 22bd b810 dabd 0a62 c1bd aef8 cc3d
000001b0: d902 dabd d635 ad3c a238 bfbc 0b8a 9bbd
000001c0: 18f0 a2bb 9a7d 103e d103 113e 6b6e 05bd
000001d0: 97a2 02bd 5c48 c8bd 2686 a0bd c06d 19bd
000001e0: 6d0b 033e e5f0 133d 5b25 25be 0e70 32bd
000001f0: 4c9c 28be 6292 2d3e cfe5 a23c 9c7c 6abd
00000200: dbe6 763d ab78 12be fc3c 99bd 4bda 1b3d
00000210: 3b82 153e 847b 2e3e 85e5 383c 43e2 26be
00000220: f014 273d ace7 a7bd dd34 353e 2ebe 70bc
00000230: d111 06bd 307a 39bd 82fd 193e 2cd4 8e3d
00000240: a958 04be 4f92 2d3d facc 3e3d 41d4 6abd
00000250: 9a7f 3d3d db67 3ebe 216b afbd 0edc c43d
00000260: 55b5 393e 3fc5 9b3d 390d aabd fc53 a63d
00000270: 8552 06be f0f8 f9bd 5f13 dfbd 3ae4 0bbb
00000280: 8486 183d c6bd 05bb 3913 323e 6a71 1839
00000290: 9962 223e c3de 2cbe 8063 cfbd 0aff 3b3d
000002a0: 69df d23d b0e1 513d f8b0 353e a0e3 c1bd
000002b0: 4896 173e 0045 843d 8435 643d 8352 86bc
000002c0: 2913 12be 591b f13d 3d7d 153d 3dab 033e
000002d0: 59e8 0f3e 05ad 2ebe d80c 2a3e be71 5dbd
000002e0: 046c f0bd cc30 313e 41f5 28bd f2fd 6a3d
000002f0: 95a9 213c db17 b5bd 3af6 c83d 0bee 483d
00000300: 8501 1b3e 25ba 4dbc 9600 23be 9dec 2f3d
00000310: aae8 5ebd da14 633c 1d3b 11be 65cd 273e
00000320: 6534 a1bd dd39 38bd 31ae 1c3c 9f1e 9cbd
00000330: 5d49 aa3d 1d96 09be 7ee3 89bc 96f3 09be
00000340: 11fd d93d d8b4 e0bd 13c9 233e dfae 0fbe
00000350: d7a6 6abe b3df a5bc 4280 38be abea 1c3e
00000360: cba6 343e 1d4b 8ebd 22ff f13d 7436 63bd
00000370: 0e69 983c 4ce3 8bbd bd74 693d 45b5 08bd
00000380: 4ea7 ee3c de5f a93d a6ea 36be e608 f93c
00000390: 252d 1c3e c9fb 263e 96c1 c43d 3490 7a3c
000003a0: 46dc 053e afc7 dc3d 4aa5 d2bd a3f6 d13c
000003b0: 119e 19be 0880 31bb 8b41 c2ba 133d fbbd
000003c0: bb52 f83c e273 063e 1e99 26be 5cc4 2abe
000003d0: 7ab6 cbbd 1468 a3b9 6739 2bbe 88a9 43bd
000003e0: 3363 1a3e e3c2 04be 2f79 01bd 5eef b9bc
000003f0: 49c0 ab3d 34f8 43bd 9efb 143e e513 99bd
-0.066602044 -0.06710519 -0.15918839 0.13690892 0.015247489 0.101278216 0.10089795 -0.04887869
0.033610437 0.14827801 -0.13026024 0.1783245 0.0881035 -0.04636777 -0.12827742 0.08323122
0.060695536 -0.06857153 0.097002946 0.06575037 0.17629266 0.06257884 0.019923175 -0.2011055
0.15690541 0.19303198 -0.05591388 0.011708317 -0.043711964 -0.016413784 0.09973447 0.013362211
-0.15577018 0.093027 -0.11876509 0.06956843 0.10106194 -0.06435788 0.100783095 0.026923269
-0.0807855 0.16221428 0.12767407 0.16060188 -0.12059538 -0.1504888 -0.14609544 0.08484985
0.07163725 -0.09062949 0.04121491 0.05458564 -0.09251927 -0.021243552 -0.11722986 -0.06747617
0.09522944 0.045089867 -0.119380064 0.06432285 -0.060896322 -0.1417614 -0.14957473 0.01923803
-0.13050513 -0.08822418 0.033319574 0.011032576 -0.0711724 0.062356334 0.0929008 -0.08125867
-0.07059762 0.030682718 0.055872075 0.06895816 0.13259937 -0.02057275 0.05077139 -0.10512925
-0.0072553703 0.11835182 -0.17170265 -0.11830441 -0.16275063 0.14183538 -0.019646395 0.1688514
-0.08988669 -0.061975934 0.124473155 -0.17289737 -0.16145189 -0.12129759 0.0057829027 -0.14544313
0.031724527 0.14367752 -0.038052123 -0.03416825 -0.15882684 -0.044521037 0.0132964095 0.0410683
-0.03965698 -0.1064772 -0.094425276 0.100083694 -0.106450744 0.021143835 -0.023342434 -0.07594689
-0.004972469 0.14110413 0.14161612 -0.032576006 -0.03189334 -0.097794265 -0.07838087 -0.03745818
0.12797327 0.036118407 -0.16127531 -0.043563895 -0.16465873 0.16950372 0.019884972 -0.057247743
0.060278755 -0.14303844 -0.07482335 0.038049977 0.1460046 0.17039305 0.0112851905 -0.1629725
0.040791452 -0.08198485 0.17695947 -0.01469378 -0.032731835 -0.045282543 0.15038112 0.06974062
-0.12924446 0.04237586 0.0465822 -0.057331327 0.04626427 -0.18594305 -0.08565355 0.096122846
0.18135579 0.07605981 -0.08303303 0.081214875 -0.13117416 -0.12205684 -0.108923666 -0.002134575
0.03723766 -0.0020407303 0.17390145 0.000145381 0.15857925 -0.16881852 -0.101264 0.04589752
0.10296518 0.051240623 0.1774329 -0.09467244 0.14803421 0.06458473 0.0557151 -0.016396767
-0.14265122 0.11772794 0.03649639 0.12858291 0.14053477 -0.17058189 0.16606462 -0.05406355
-0.11739352 0.17303771 -0.041249517 0.057371087 0.009867092 -0.08842441 0.09812589 0.04905514
0.15137298 -0.012556587 -0.15918192 0.04295026 -0.054421104 0.013859952 -0.14182706 0.16386946
-0.078713216 -0.044977058 0.009563015 -0.07623028 0.08314774 -0.1343617 -0.01683211 -0.13471827
0.10643972 -0.10971993 0.15994672 -0.14031552 -0.22915207 -0.02024827 -0.18017676 0.15323894
0.17641751 -0.069479205 0.11816241 -0.055471852 0.018604781 -0.06830463 0.056996096 -0.033375997
0.029132511 0.08270238 -0.17862949 0.03039975 0.15251596 0.16306986 0.09607236 0.01529317
0.13072309 0.10780274 -0.10285433 0.0256303 -0.15001704 -0.002708437 -0.0014820559 -0.12267508
0.030312886 0.13130143 -0.16269347 -0.16676468 -0.09946914 -0.00031167327 -0.16721116 -0.0477691
0.15076904 -0.12964968 -0.03160971 -0.022697147 0.08386285 -0.047844127 0.1454911 -0.07474498

lstm.weight_hh_l2 f4 [128, 32]
00000000: 6f56 75bd fe0b 6a3c 79f6 2abe 1252 093e
00000010: 0bfe a7bb ba76 eebd 79b3 d93d a1a7 743c
00000020: be2b 25bd 9e33 0b3e 73f0 61bd f5dc 6abd
00000030: 24f1 b7bd f309 4abc 6d85 24be 64b9 bc3a
00000040: b85a 25be 8da1 98bd fcd8 99bd f769 25be
00000050: e5cc 3f3d f066 bf3d 9bca 7cbc 4775 6cbd
00000060: 8424 ef3c 4706 23be aa7a 44be 2760 0fbe
00000070: e602 cebd 0394 f9bb c63f ea3d b5fc 093e
00000080: b478 c4bd e0ec 843d 7677 063e da6c 48bd
00000090: 0602 33bd d6f9 18be f4c4 51bd 14ac b9bd
000000a0: 06b0 a03d 2b46 3bbe 3694 06bb a885 573d
000000b0: b207 6ebd 98c6 3abd 7147 183e 3605 643d
000000c0: 508e 14be 818f 7cbd 57d4 c63d 0780 5b3d
000000d0: 289f fabd 753e e6bd c975 64bd b334 b0bc
000000e0: b10b d83c 9397 d13c 5f01 d8bd 2013 d4bd
000000f0: 0471 cd3d 59e1 1cbe 127c 49bd 6e47 17be
00000100: 730a 19be ceb2 5c3d 0d5f b5bc ba2f 153e
00000110: 1da8 413e 6723 1bbe 98ad bdbd 34da a13c
00000120: 3230 9bbc 1310 4abe ec7f d9bd 2d69 9dbd
00000130: 0174 be3c 7911 9f3d a6d1 b83d 8ba2 1b3e
00000140: 0d31 dcbd f26d 273e 2ac7 aabd b274 24be
00000150: bb4d 87bd b090 9c3d 60df 5c3d fa14 1cbe
00000160: 7bd1 693d 22a9 00bd cade fc3d 3d5a 9cbd
00000170: b48d 29be 0f7c e9bb 1fbd 7abd c17d ecbc
00000180: ec34 21bd 46b5 373e 53a3 c0bc 90fb 38be
00000190: d1e2 dcbd 74c4 d23b 6c07 bd3d d721 3f3d
000001a0: 1906 2ebe cbc9 ce3c 3e5a 0a3e 7b51 54bd
000001b0: 202e 983d 6643 053e 7713 1a3e 8b9e 4f3c
000001c0: d348 23be e521 1cbe 53fb 063e 4543 74bd
000001d0: 3738 083e 49b4 fb3d c67a 1dbe bae5 a13d
000001e0: 8569 11be 94ae 00be 7812 f83d 3fda 173e
000001f0: da25 d93d 6278 803d 0ead 1b3c def5 f53d
00000200: af5b 18be 4ae0 933d 5063 15bc df59 89bd
00000210: 8704 aabd 16d0 af3d 364f f8bc e47d a0bb
00000220: 32f2 48bc a70c f3bc 4037 35bd baf6 15be
00000230: 30ff c73c 032a 34bd 35c5 96bd 0a34 b93d
00000240: 8e52 bebd 5111 2bbb 8f3d 10be 8495 bcbd
00000250: cee9 2d3e 2020 aa3c 852b f23d 963f 1a3e
00000260: 692c 833d a31b e23d cbbd c93c dea2 c13d
00000270: c0f9 21be 3b1c e93d 46ea 2c3d a84b 293d
00000280: 3763 1dbe 5055 d53d 62d7 b23d ff6c 16be
00000290: 8a5a 153e c4a5 3b3e 2791 bfbc 4c57 4abd
000002a0: ae62 c1bb afd8 22be 839c 09be fe35 06bb
000002b0: 8edd b0bd 5b01 123e 7ace c03d a666 86bd
000002c0: 9edf 21be c066 843d 8bbb 3a3b bb20 d0bd
000002d0: f5a7 1f3e bca8 fe3d c672 35bd 2a45 153e
000002e0: 47fe 05be 1edc 14be 4521 9d3d 3b51 a93d
000002f0: 3d5e 5ebc 85c6 4abd 04e0 4bbe 07fb 8b3d
00000300: b2cd b23b 460a 9bbd fe31 1dbe aab7 b33d
00000310: d286 09be 2a77 4e3d e472 0b3e b2e3 90bd
00000320: c77b ff3d 7add 6e3d efa8 d6bc 6606 c2bd
00000330: e7ef f1bd b099 3ebe fb67 1a3c 2ad1 cc3c
00000340: 79b1 9dbd 5c67 e13d bd3b 0a3b f231 0e3d
00000350: 0590 3e3e f36c 333e 1e30 1d3e 0d30 8fbd
00000360: d264 723c 1c1e 94bd 47be fa3c 9aee c03d
00000370: b7b5 1b3c 5cfd 90bd e83b 803c 71a1 03be
00000380: 69ff 0fbe 5999 2fbd 2bcd 21bd 099d 3cbd
00000390: 31a4 c33d ac5c 8e3d 9b78 4d3d 34fa cd3c
000003a0: 1e76 ec3b 3a46 653c ffe7 dbbd fe5c c6bd
000003b0: 0083 fa3b 5e3a c23d a589 33bc 9105 113e
000003c0: 6078 053e 8e53 23be 51f5 84bd d7bc 223d
000003d0: e8cd 0f3d 0717 893d b127 a8bd 0d14 cd3d
000003e0: fd88 b4bd e321 88bb 1c05 22be c20d 6ebd
000003f0: daec cf3d 3752 9e3d 47c0 0ebe 7be8 e13d
-0.059896883 0.014285086 -0.16695584 0.13410214 -0.00512672 -0.11643739 0.10629935 0.014932544
-0.04032492 0.13593909 -0.05516095 -0.057339627 -0.08981541 -0.012331474 -0.16066523 0.0014398512
-0.16147888 -0.07452688 -0.075120896 -0.16153704 0.046826262 0.09345806 -0.015429164 -0.057729032
0.029192217 -0.15920363 -0.19187418 -0.14001523 -0.100591466 -0.0076165213 0.11437945 0.13475306
-0.09593335 0.06490493 0.13131508 -0.048931934 -0.0437031 -0.14939055 -0.05121322 -0.090660244
0.07846074 -0.18288486 -0.0020535118 0.0526177 -0.058112808 -0.04559955 0.14871003 0.055669032
-0.14507413 -0.061660293 0.09708469 0.053588893 -0.12237388 -0.112423815 -0.05577639 -0.021509504
0.026372762 0.025584972 -0.105471365 -0.1035521 0.10031322 -0.15320338 -0.04919059 -0.14773342
-0.14945392 0.05388146 -0.02214005 0.14568987 0.18911786 -0.15150224 -0.09261626 0.019757368
-0.01894388 -0.19732694 -0.10620102 -0.07686076 0.023248674 0.077670045 0.09024362 0.15198724
-0.10751543 0.16350535 -0.08338769 -0.1606014 -0.06606623 0.076447845 0.053923965 -0.15242377
0.05708454 -0.031411298 0.12347181 -0.07634399 -0.16557962 -0.0071253846 -0.061215516 -0.028868558
-0.03935711 0.17940244 -0.023515379 -0.18064713 -0.10785449 0.0064321104 0.09229931 0.04666313
-0.16994514 0.025242707 0.13510987 -0.05183552 0.07430673 0.13013992 0.15046488 0.012672077
-0.15945749 -0.15247305 0.1318181 -0.059634466 0.13302694 0.12290246 -0.15378866 0.07905145
-0.14200409 -0.12566596 0.12112898 0.14829348 0.10602923 0.06272961 0.009501709 0.12009786
-0.14878725 0.07220514 -0.009117916 -0.06706595 -0.08301645 0.08584611 -0.030311208 -0.00489782
-0.012264775 -0.029669119 -0.044242144 -0.146449 0.024413675 -0.043985378 -0.07361833 0.09043129
-0.0929309 -0.002610285 -0.14085983 -0.09208205 0.1698372 0.020767272 0.11824707 0.15063319
0.06404955 0.110404275 0.024626633 0.094548926 -0.15817928 0.11382338 0.042215608 0.041331917
-0.15369879 0.10416663 0.08732487 -0.14690016 0.14585319 0.18324953 -0.023384644 -0.04939966
-0.005901656 -0.1590297 -0.1343861 -0.002047896 -0.08636008 0.1425833 0.09414382 -0.065625474
-0.1580796 0.064649105 0.0028493132 -0.10162493 0.15591414 0.12434527 -0.04429891 0.14577165
-0.1308528 -0.14537093 0.07672361 0.082674466 -0.013572273 -0.04950573 -0.19909674 0.06834989
0.0054566497 -0.07570319 -0.15351102 0.087752655 -0.13430336 0.050406612 0.13618046 -0.070746794
0.124747805 0.058316685 -0.0262036 -0.09473877 -0.11813336 -0.18613315 0.009424205 0.025002081
-0.07699866 0.11006042 0.0021092736 0.0347156 0.18609627 0.1752203 0.15350387 -0.06991587
0.014794545 -0.072323054 0.03060831 0.0942051 0.009503773 -0.070795745 0.015653566 -0.12854554
-0.14062275 -0.042870853 -0.039502304 -0.046048198 0.095528014 0.069512695 0.050163846 0.02514372
0.007216229 0.013993794 -0.10737609 -0.096857056 0.007645011 0.09483789 -0.01095811 0.1416228
0.130342 -0.15949842 -0.06492103 0.039730873 0.035108477 0.06693845 -0.082106955 0.1001359
-0.08815191 -0.0041544302 -0.15822262 -0.05811859 0.10152598 0.07730525 -0.13940535 0.1103067
