result/uncertainty_LSTM_Expaliner_dp0.3.pth (torch, 207521 bytes, 13 tensors)

lstm.weight_ih_l0 f4 [200, 98]
0	0x3ca513ee	0.020151105
1	0xbc3c1629	-0.011479893
2	0xbcbe4fa2	-0.023231331
3	0xbce23004	-0.027610786
4	0x3da467fc	0.08027646
5	0x3c741c32	0.0148993
6	0xbe0c1a07	-0.13681804
7	0x3e0a278b	0.13491647
8	0x3d364299	0.044497106
9	0xbdf91408	-0.12162024
10	0x3dd5576e	0.104170665
11	0xbdcbc0df	-0.099488966
12	0xbcf84ba5	-0.030309508
13	0xbd590ac7	-0.052988794
14	0xbd51811e	-0.051148526
15	0x3c2a6af3	0.010401475
16	0x3cc7e9fc	0.024403565
17	0x3d240750	0.040046036
18	0x3cb1d4c5	0.021707902
19	0xbdf1f9f1	-0.11815251
20	0x3c3b9b44	0.011450592
21	0xbc2f0bea	-0.010683993
22	0xbd3b0cf6	-0.045666657
23	0xbdfa78ca	-0.1223007
24	0xbe0c8fab	-0.1372668
25	0x3dc4b1f1	0.09604252
26	0xbda50f60	-0.08059573
27	0x3d90295a	0.07039137
28	0x3dbe0d7c	0.09279916
29	0x3d1f0cde	0.03883063
30	0xbd4adaa0	-0.049524903
31	0xbd9b1eb4	-0.075742155
32	0x3df18689	0.11793239
33	0x3dd37896	0.10325734
34	0x3d9aa3c3	0.07550766
35	0x3df3004e	0.118652925
36	0xbe029f14	-0.12755996
37	0x3c560ed4	0.013065059
38	0xbe01b06c	-0.12664956
39	0x3d18ba53	0.037287068
40	0x3c497549	0.012296029
41	0xbe0e5d5f	-0.13902806
42	0xbd19dc27	-0.03756347
43	0xbcd1d190	-0.025612622
44	0xbca08cbd	-0.01959836
45	0x3da03295	0.07822148
46	0xbdea2aaa	-0.11433919
47	0xbdbed4ba	-0.09317918
48	0xbd289ef1	-0.041167203
49	0x3da9d662	0.082928434
50	0xbe077444	-0.13227946
51	0x3db3166c	0.08744511
52	0x3d474611	0.048650805
53	0x3dbdafb3	0.092620276
54	0xbd99cfff	-0.07510375
55	0xbdd2bed7	-0.10290306
56	0x3d21b856	0.039482437
57	0x3cb61cdf	0.022230564
58	0x3de7f76a	0.11326487
59	0x3be065bc	0.006848065
60	0x3d8884e6	0.06665973
61	0xbd57d02a	-0.052688755
62	0xbd0bf52f	-0.034169372
63	0xbdb52ee2	-0.08846833
64	0x3d6ec7e3	0.058296096
65	0x3d5b7fe1	0.05358875
66	0xbddac9e5	-0.106830396
67	0x3d39adab	0.04533164
68	0x3db8d234	0.09024468
69	0x3d88d209	0.06680686
70	0x3d861a06	0.06547932
71	0xbe1a7bc9	-0.15086283
72	0x3d3d6bc3	0.046245348
73	0x3d9b917d	0.07596109
74	0xbd53b0e0	-0.051682353
75	0xbd28ea39	-0.041238997
76	0xbd442d6e	-0.047894888
77	0x3dbba0f0	0.09161556
78	0xbd9dcd8c	-0.077052206
79	0x3c8e6dfd	0.01738643
80	0x3e042d3c	0.1290788
81	0x3df10347	0.11768203
82	0x3d4391c2	0.047746427
83	0x3dc7652f	0.09736096
84	0xbde58d79	-0.112086244
85	0x3b57495e	0.0032850127
86	0xbdc38f6b	-0.09548839
87	0xbd859e6d	-0.06524358
88	0x3ded2743	0.11579754
89	0x3de30e7a	0.110867456
90	0x3db75095	0.08950917
91	0xbd9710c4	-0.07376245
92	0xbd1acd67	-0.037793543
93	0x3e04576c	0.12923974
94	0x3d59b536	0.05315133
95	0xbd84f939	-0.06492848
96	0x3dc9a2f8	0.09845537
97	0xbd7543f4	-0.05987926
98	0x3defd353	0.11710229
99	0xbdaab637	-0.08335536
100	0x3b9e759a	0.0048357965
101	0xbd85e069	-0.065369435
102	0xbdc3aa8c	-0.095540136
103	0xbd10a615	-0.03531464
104	0x3cf10e7a	0.029425848
105	0xbd6ea59d	-0.05826341
106	0x3dc18ddb	0.09450885
107	0xbd7debc1	-0.06199241
108	0xbd7b577e	-0.061362736
109	0xbdce5586	-0.10074906
110	0xbd970ae3	-0.07375123
111	0x3db7590e	0.08952533
112	0x3dfbd9c0	0.12297392
113	0xbdf45222	-0.11929728
114	0x3d321080	0.043472767
115	0x3d967c25	0.073478974
116	0xbda7d055	-0.08194033
117	0xbe0a1559	-0.13484706
118	0x3cd58ed8	0.02606909
119	0xbe0f2c23	-0.1398168
120	0x3ca85e1c	0.020552687
121	0x3deaf2c6	0.114720866
122	0xb94de10a	-0.00019634157
123	0x3db62478	0.088936746
124	0x3dbacd28	0.09121162
125	0x3d8ddd4b	0.06926974
126	0xbd6f0019	-0.058349703
127	0xbd8a40f8	-0.06750673
128	0xbe0b8003	-0.13623051
129	0xbdbaadb4	-0.091151625
130	0x3d8b4d71	0.0680188
131	0x3d61b8b0	0.055107772
132	0xbdb899e4	-0.09013727
133	0x3c011473	0.007878411
134	0xbcf88d7f	-0.030340908
135	0x3d830d6a	0.06399043
136	0xbdaf205a	-0.085510924
137	0xbc801f54	-0.015639938
138	0x3cac856d	0.021059716
139	0x3c03d2cf	0.008045866
140	0xbd4c1c1d	-0.0498315
141	0x3d935c70	0.071953654
142	0xbdd1221b	-0.10211583
143	0xbd20339a	-0.03911171
144	0xbe070baa	-0.13188043
145	0x3d5569ff	0.05210304
146	0xbda3500d	-0.07974253
147	0x3d72f674	0.059317067
148	0xbcde1af4	-0.027112462
149	0xbd82405c	-0.06359932
150	0x3dce8b4f	0.10085165
151	0xbddc7bd3	-0.10765805
152	0x3d934f82	0.07192899
153	0x3de3d43b	0.11124464
154	0xbe13050b	-0.14357392
155	0x3d44da7d	0.04805993
156	0xbe05d1a6	-0.13068256
157	0x3d8b2438	0.067940176
158	0xbdc57f19	-0.096433826
159	0xbd3c1a05	-0.04592325
160	0xbda3a7f0	-0.07991016
161	0x3d5b3cbb	0.053524714
162	0xbca0fd2b	-0.01965197
163	0xbdf58300	-0.11987877
164	0xbde9cf41	-0.11416484
165	0xbcab31ce	-0.020897772
166	0xbdc6fd66	-0.09716301
167	0x3bc503fc	0.006012438
168	0x3db9a60d	0.09064875
169	0x3d797711	0.060904566
170	0x3cb2ab03	0.02181006
171	0x3e045357	0.12922417
172	0x3d10db5d	0.03536545
173	0xbcedf580	-0.029047728
174	0xbdecf852	-0.11570801
175	0x3c41d5a6	0.011830723
176	0xbde9c6cd	-0.11414871
177	0xbc9243ed	-0.017854655
178	0xbdf63cbf	-0.12023305
179	0xbd9c0b77	-0.07619374
180	0xbd706502	-0.05869008
181	0x3b912bcc	0.00443027
182	0x3c682b1a	0.014170432
183	0xbc9fd7b7	-0.01951204
184	0xbd9e9d61	-0.077448614
185	0xbe105c35	-0.14097674
186	0x3d0feaa1	0.03513587
187	0x3dfdd859	0.12394781
188	0x3daeb37c	0.08530328
189	0xbdd8978e	-0.10575782
190	0xbe065072	-0.13116625
191	0xbe052a23	-0.13004355
192	0xbdda6b9d	-0.10665057
193	0xbdcf3ed6	-0.10119407
194	0x3df7151c	0.12064573
195	0xbd44ccfb	-0.048047047
196	0x3d89f70b	0.06736573
197	0x3d68d43b	0.056843024
198	0x3d5386c6	0.0516422
199	0xbe10b536	-0.14131626
200	0x3e0c152b	0.1367995
201	0x3db35399	0.08756179
202	0xbe0c64b4	-0.1371029
203	0xbdc6bed0	-0.09704363
204	0x3d6cc62b	0.057806175
205	0xbcf56374	-0.02995465
206	0xbdcd97c9	-0.10038716
207	0x3ce6cf4c	0.028175019
208	0xbde25dad	-0.110530235
209	0x3ddf2a41	0.10896731
210	0x3de7ccd3	0.11318364
211	0x3d9470be	0.07248066
212	0x3d85315c	0.06503555
213	0xbdb48efa	-0.08816333
214	0xbc6d6335	-0.014488985
215	0x3da983b2	0.08277072
216	0x3cfa5f86	0.030563127
217	0x3de6a7c6	0.11262469
218	0x3cf5b939	0.029995548
219	0xbde7cd62	-0.113184705
220	0xbdb9896a	-0.09059413
221	0x3dcd6994	0.10029903
222	0x3dc2db5b	0.09514495
223	0x3d007e21	0.031370286
224	0x3c8c2ef4	0.017112233
225	0x3da63d54	0.08117166
226	0xbe0e2ce4	-0.13884312
227	0xbe0daeb6	-0.13836178
228	0xbd904610	-0.07044613
229	0xbd76e6bd	-0.060278643
230	0xbca13f4d	-0.019683504
231	0x3d6e02a3	0.058107983
232	0xbd230824	-0.039802685
233	0x3b0be533	0.002134633
234	0xbde04333	-0.10950317
235	0xbd6fa46b	-0.05850641
236	0x3def98b5	0.116990484
237	0x3ddfd97a	0.10930152
238	0xbd22131c	-0.039569005
239	0x3d5a2b82	0.05326415
240	0x3ded5845	0.11589102
241	0x3dd10875	0.10206691
242	0xbb3659d8	-0.0027824547
243	0xbd994593	-0.07483973
244	0xbd3a5625	-0.04549231
245	0x3d910455	0.070809044
246	0xbd8918bc	-0.06694171
247	0x3d920289	0.0712939
248	0xbdda1b82	-0.10649778
249	0x3d766d26	0.060162686
250	0x3dba9df4	0.091121584
251	0xbce6a807	-0.028156294
252	0x3e0b7646	0.13619336
253	0x3dab6f45	0.08370832
254	0x3aff5e06	0.0019482977
255	0xbd0a7f0c	-0.033812568

lstm.weight_hh_l0 f4 [200, 50]
0	0x3e047b0d	0.12937565
1	0x3c61a3c5	0.013771956
2	0xbde99c7e	-0.11406802
3	0xbbe88b88	-0.0070967115
4	0xbddfbb78	-0.10924429
5	0xbdc90a65	-0.09816436
6	0xbd4cabf0	-0.04996866
7	0x3dccdbda	0.10002871
8	0xbe13a188	-0.14417088
9	0x3ccb5313	0.024819886
10	0x3db870b2	0.0900587
11	0xbdc8f7c2	-0.09812881
12	0x3d11a4ea	0.035557665
13	0x3ddaa972	0.106768504
14	0x395ace1d	0.00020866883
15	0x3cec1942	0.028820638
16	0xbd2b3dca	-0.041806974
17	0xbd576abe	-0.05259203
18	0xbb48c46f	-0.0030634662
19	0xbc768ead	-0.015048665
20	0x3d1771a6	0.036973618
21	0x3e00ed6f	0.12590574
22	0xbdbc01e0	-0.09180045
23	0x3e026cc4	0.12736803
24	0x3db33bb4	0.08751622
25	0xbe105a9e	-0.14097068
26	0xbdd91927	-0.106005006
27	0x3db493bc	0.088172406
28	0xbc286db7	-0.010280064
29	0x3dbfd2fa	0.093664125
30	0x3db40b42	0.0879121
31	0xbcba6dac	-0.022757374
32	0xbdc51fce	-0.09625207
33	0x3c9e9b49	0.019361155
34	0xbd447857	-0.047966328
35	0xbca0ff5a	-0.019653011
36	0x3aa24f8d	0.0012383327
37	0x3e1f542b	0.15559451
38	0xbdb5f73d	-0.088850476
39	0x3c464168	0.012100555
40	0x3d9c3cd4	0.076287895
41	0xbd832ecc	-0.0640541
42	0xbe039c84	-0.12852675
43	0xbd9300cd	-0.07177887
44	0xbd8e3f58	-0.069456756
45	0x3e1ddee4	0.15417057
46	0xbd27ae97	-0.040937986
47	0x3d8e1ea0	0.06939435
48	0x3deeeb22	0.11665942
49	0xbdc97df5	-0.098384775
50	0xbd0aa97d	-0.033853043
51	0xbd5cb7b3	-0.053886127
52	0x3d6bdbfe	0.057582848
53	0x3dd49452	0.10379852
54	0xbddeb9a4	-0.10875252
55	0xbdd0b138	-0.10190052
56	0xbc34a2a9	-0.011025109
57	0xbd1713ce	-0.03688412
58	0x3e0196a4	0.12655121
59	0x3e008a89	0.12552847
60	0xbd86e0ba	-0.06585832
61	0x3da9b3b1	0.082862265
62	0xbb64d17d	-0.0034914904
63	0x3db741c8	0.08948094
64	0xbcb4b1fe	-0.02205753
65	0x3dda722b	0.10666307
66	0xbca897e7	-0.020580245
67	0x3e0df5c4	0.13863283
68	0xbd4ddadf	-0.05025756
69	0x3dcce011	0.10003675
70	0x3df0cd85	0.1175795
71	0xbdba2fc7	-0.09091144
72	0xbdd54f67	-0.104155354
73	0xbabec263	-0.0014553781
74	0xbdab3aa9	-0.08360798
75	0x3caa295e	0.020771679
76	0x3d34a86d	0.044105936
77	0x3da93ca6	0.08263521
78	0x3c8dd6f9	0.017314421
79	0xbdb84456	-0.08997409
80	0xbd8de358	-0.06928128
81	0x3dc16ac8	0.09444195
82	0x3e0b7f4d	0.1362278
83	0x3d52a728	0.051428944
84	0xbd458eb0	-0.04823178
85	0x3dc31d78	0.09527105
86	0xbd97300b	-0.0738221
87	0x3dfda9dd	0.123859145
88	0xbcb635e5	-0.022242496
89	0xbcc0057a	-0.023440111
90	0x3e171aaf	0.14756273
91	0xbe0bf9c1	-0.13669492
92	0x3d6ab21c	0.057298765
93	0xbd40c731	-0.047064964
94	0x3c8c1911	0.017101796
95	0x3cfcc48c	0.03085544
96	0xbd785ab6	-0.060633384
97	0xbcf354e5	-0.029703567
98	0xbc898031	-0.01678476
99	0xbc6e2ce8	-0.014537074
100	0x3e0e2a71	0.13883378
101	0x3a7b7487	0.0009592254
102	0xbd7e32b7	-0.062060084
103	0x3d5fa54e	0.054601006
104	0xbdc2d1ba	-0.095126584
105	0xbd80065c	-0.06251213
106	0x3ab9e1a8	0.0014181631
107	0x3d89bba1	0.067252405
108	0x3c85f0f9	0.016350256
109	0x3d148bf5	0.036266286
110	0xbd1042e2	-0.035220034
111	0x3df05661	0.117352255
112	0xbde62f83	-0.11239531
113	0xbddd169c	-0.10795328
114	0xbdea5774	-0.114424616
115	0x3d9d87ee	0.07691942
116	0x3d3c8fe6	0.04603567
117	0x3cfb15d7	0.030650062
118	0xbb477f04	-0.0030440697
119	0xbd8c3dad	-0.06847701
120	0xbdf64cf5	-0.12026397
121	0x3dc3a4ba	0.095529035
122	0x3daefad5	0.08543936
123	0x3d939ff0	0.0720824
124	0xbd3022c7	-0.043001916
125	0xbde83de9	-0.113399334
126	0xbd1e163a	-0.038595416
127	0xbe036eba	-0.12835208
128	0xbcdebfe0	-0.027191103
129	0x3e06d775	0.13168128
130	0x3c77cd11	0.015124575
131	0x3e0e91a6	0.13922748
132	0xbcea9401	-0.028635027
133	0xbda11719	-0.07865734
134	0xbde828d3	-0.113359116
135	0x3e10a43b	0.14125149
136	0xbe040dcd	-0.1289589
137	0xbda57cf9	-0.08080477
138	0xbd5f3cff	-0.05450153
139	0x3d516c59	0.05112872
140	0x3dbf5515	0.093424
141	0x3d73e15f	0.059541102
142	0x3c3f7f9c	0.011688139
143	0x3e03bf55	0.12865956
144	0x3db0f268	0.08639985
145	0xbd80fd4d	-0.06298313
146	0xbbaac805	-0.0052118325
147	0x3df12285	0.11774162
148	0xbdaf0d0b	-0.085474096
149	0xba542e99	-0.0008094102
150	0xbc85b89e	-0.016323384
151	0xbe0ba538	-0.13637245
152	0x3dc3a4e9	0.095529385
153	0x3d9e2799	0.077223964
154	0x3d9868d7	0.074418716
155	0xbd965e23	-0.07342174
156	0x3e04dad6	0.12974104
157	0xbda98d3b	-0.08278891
158	0xbd955b7e	-0.072928414
159	0xbe0c3aaa	-0.13694254
160	0x3df88228	0.121342
161	0x3da42830	0.08015478
162	0xbd287793	-0.04112966
163	0xbdf83173	-0.12118807
164	0x3c84ba44	0.0162021
165	0xbe07391b	-0.13205378
166	0x3dd71581	0.105021484
167	0xbdc9bd38	-0.09850544
168	0x3d414c39	0.047191832
169	0x3bc1186a	0.005892803
170	0x3dec9eaf	0.11553704
171	0xbd7cd93a	-0.0617306
172	0xbcc8d0e6	-0.024513673
173	0xbde7390e	-0.11290179
174	0xbd84bef6	-0.064817354
175	0x3e1233c8	0.14277565
176	0x3e066a19	0.1312641
177	0x3d92b7d1	0.071639664
178	0xbde955bb	-0.11393305
179	0x3d9cd788	0.07658297
180	0xbe1121fe	-0.14173123
181	0xbdc9b6f1	-0.098493464
182	0xbdf57a1a	-0.1198618
183	0xbd83347a	-0.064064935
184	0xbd62c94a	-0.055367745
185	0xbdd4a6e4	-0.10383394
186	0xbdaf8c91	-0.08571733
187	0xbd7b36d0	-0.06133157
188	0xbd6c50dd	-0.057694305
189	0x3d852067	0.06500321
190	0x3de0bc86	0.10973458
191	0x3cf2af84	0.029624708
192	0x3ccf9ea4	0.0253442
193	0x3de8bf17	0.113645725
194	0xbc89342c	-0.01674851
195	0xbdb1b270	-0.086766124
196	0xbdf200f3	-0.11816587
197	0xbdecb562	-0.115580335
198	0x3cd14c17	0.025548978
199	0x3ddc972b	0.107710205
200	0xbc90c190	-0.017670423
201	0xbcb264cd	-0.021776581
202	0x3deb4696	0.114880726
203	0xbd928f10	-0.07156193
204	0x3ddc8ca0	0.107690096
205	0xbdc37e43	-0.09545567
206	0x3e004f88	0.12530339
207	0xbe12a480	-0.14320564
208	0xbdd345e8	-0.10316068
209	0x3d5e1757	0.054221477
210	0x3dab64c5	0.0836883
211	0xbd892ab5	-0.06697599
212	0xbd5e307d	-0.05424546
213	0x3e001fbd	0.12512107
214	0x3dc4d0d1	0.09610141
215	0xbe0ed036	-0.13946614
216	0x3dd4b155	0.10385386
217	0x3ce17f15	0.027526418
218	0xbde2ac87	-0.11068063
219	0xbc6a75e0	-0.01431033
220	0xbbc1b875	-0.0059118816
221	0x3d6fb99c	0.05852662
222	0xbdb7723a	-0.08957334
223	0xbd21eb24	-0.03953089
224	0xbd23f016	-0.040023886
225	0xbd5b1301	-0.05348492
226	0x3d1dfdf5	0.03857227
227	0xbad9744b	-0.0016590444
228	0x3d33d4ba	0.043904044
229	0xbcfb6eea	-0.030692536
230	0x399d7310	0.00030031102
231	0x3d12fe3f	0.035887
232	0x3d8af09a	0.06784172
233	0xbd897870	-0.06712425
234	0xbd56ae9b	-0.05241261
235	0x3d307fc3	0.043090593
236	0xbdab6f6b	-0.08370861
237	0x3da7d6d7	0.08195274
238	0x3c4827ca	0.012216518
239	0x3dfa16ae	0.12211357
240	0x3de9bef1	0.11413372
241	0xbd78578d	-0.06063037
242	0x3d9b59bd	0.075854756
243	0x3c48d43a	0.01225763
244	0x3d56fa80	0.05248499
245	0x3d149e67	0.036283877
246	0x3ca54659	0.020175146
247	0x3c37803a	0.011200005
248	0x3cfa0a5d	0.03052252
249	0xbe031913	-0.12802534
250	0xbda6aae5	-0.08138064
251	0xb9c3b182	-0.00037325552
252	0xbd7d67f0	-0.0618667
253	0x3d053064	0.032516852
254	0xbd3421a7	-0.043977406
255	0x3cb1ab9f	0.02168828

lstm.bias_ih_l0 f4 [200]
0	0xbd66bdf8	-0.056333512
1	0xbcfda6a7	-0.030963255
2	0x3d5c80d4	0.053833798
3	0x3d66c994	0.056344584
4	0xbcf67c16	-0.030088466
5	0x3d9dab55	0.076986946
6	0xbe0f3ee4	-0.13988835
7	0xbdab4339	-0.08362431
8	0x3d7f7cb4	0.062374786
9	0xbd98945e	-0.07450174
10	0x3e04014a	0.12891117
11	0xbe185252	-0.14875153
12	0xbe013e0d	-0.12621327
13	0xbdf0e675	-0.11762706
14	0xbe1825b7	-0.14858137
15	0xbd8705c4	-0.065928966
16	0xbde5d393	-0.11221995
17	0x3db5c501	0.08875466
18	0xbe096350	-0.13416791
19	0xbc8067d8	-0.015674517
20	0xbdf728c2	-0.12068321
21	0xbd1f5efd	-0.038908947
22	0x3c41a210	0.011818424
23	0xbdbadebb	-0.09124514
24	0xbdd4b2fb	-0.103857
25	0xbd9e96f3	-0.07743635
26	0x3d0a7a59	0.033808086
27	0x3dffc97b	0.12489601
28	0xbc963a45	-0.018338332
29	0xbe14f507	-0.14546596
30	0x3daac278	0.08337873
31	0xbdc7e9cb	-0.09761389
32	0xbdd8bfdd	-0.1058347
33	0xbd4f0361	-0.05054033
34	0xbd259fb5	-0.04043551
35	0xbd6a2b76	-0.057170354
36	0x3e0049fb	0.12528221
37	0x3ddbb02f	0.10726964
38	0xbdfcf837	-0.12352031
39	0xbdc2b147	-0.09506469
40	0x3d00e486	0.031467937
41	0x3d62126d	0.055193353
42	0xbdd00f7e	-0.10159205
43	0xbcceed51	-0.025259646
44	0xbd8075f1	-0.062724955
45	0x3c294e81	0.010333658
46	0xbdd8d5ed	-0.10587678
47	0xbdbc0111	-0.09179891
48	0x3d98bcdd	0.07457898
49	0xbdd3d439	-0.10343213
50	0xbd19a907	-0.037514713
51	0xbe0dbe92	-0.13842228
52	0xbcb234b6	-0.02175365
53	0x3cc9f2ef	0.024651973
54	0xbdacb8c6	-0.0843368
55	0xbc0c2b6a	-0.008555273
56	0xbe06aac9	-0.13151087
57	0xbd602e3f	-0.054731604
58	0x3e02fee7	0.1279255
59	0x3d4fcf52	0.050734825
60	0x3e05f475	0.13081534
61	0x3de94bdb	0.113914214
62	0xbdf0bc42	-0.11754657
63	0xbda5e066	-0.08099441
64	0x3d9d6cba	0.076867536
65	0xbd02ce57	-0.031935062
66	0xbddbcc4c	-0.10732326
67	0xbd9c3527	-0.076273255
68	0xbd3c4f12	-0.045973845
69	0x3de635a1	0.11240698
70	0xbdf07758	-0.11741513
71	0xbd3be3a6	-0.0458714
72	0xbd8a0453	-0.06739106
73	0x3e0fee5e	0.14055774
74	0xbcde58d3	-0.027141964
75	0xbc532b7e	-0.012888787
76	0x3db1cac2	0.08681251
77	0xbdfbb1fb	-0.122898065
78	0x3d83aa90	0.064290166
79	0xbe10684a	-0.14102283
80	0x3d294489	0.041325126
81	0x3d35dd2d	0.044400383
82	0x3e06a783	0.13149838
83	0xbe11e360	-0.14246893
84	0x3dcc3d23	0.099725984
85	0xbdac242b	-0.08405336
86	0x3dc670c3	0.09689476
87	0x3e043a25	0.12912805
88	0xbd939f2e	-0.072080955
89	0xbc3f7c4d	-0.01168735
90	0xbd4c27ba	-0.049842574
91	0xbe047915	-0.12936814
92	0x3d593afa	0.05303476
93	0x3e00178d	0.12508984
94	0x3df73d24	0.120722085
95	0x3dc8bb5c	0.09801361
96	0xbd7e637b	-0.06210659
97	0x3c125273	0.00893079
98	0x3dcae65f	0.09907221
99	0xbc8158d4	-0.015789427
100	0xbdc2f3dd	-0.095191695
101	0x3cda4f32	0.026649091
102	0x3d6c787f	0.0577321
103	0x3de4aac0	0.111653805
104	0x3e0c966d	0.13729258
105	0xbcc7e4d0	-0.024401098
106	0x3da9d557	0.082926445
107	0xbdd0f938	-0.10203785
108	0x3ce2c47a	0.027681578
109	0x3dcc2d72	0.099696055
110	0x3b86ffe5	0.0041198605
111	0x3e0cb945	0.1374255
112	0xbdfad849	-0.12248284
113	0xbc1bfc3e	-0.009520588
114	0xbe05957f	-0.1304531
115	0x3e09c9e6	0.13455924
116	0x3d0a8ac6	0.03382375
117	0xbd3cae55	-0.046064693
118	0xbcccfb4c	-0.025022171
119	0xbc8ac6ca	-0.016940493
120	0x3ddbfb8a	0.10741337
121	0xbc8f5801	-0.017498018
122	0xbca72473	-0.020403123
123	0x3c504e26	0.012713945
124	0xbd3e11ca	-0.046403684
125	0x3e057cd6	0.13035902
126	0xbde1c5d7	-0.11024063
127	0xbd3cb803	-0.046073925
128	0x3d07d227	0.0331594
129	0xbde4afbe	-0.11166333
130	0xbcfb33d6	-0.030664366
131	0x3d8f01f4	0.069827944
132	0xbd2da1ad	-0.042390514
133	0xbcaf8649	-0.021426337
134	0xbe045ec4	-0.12926775
135	0x3ceeb9c3	0.029141312
136	0x3d09d864	0.03365363
137	0x3df85a3b	0.12126585
138	0xbdceea53	-0.101032875
139	0x3db3805b	0.08764716
140	0x3d98321d	0.07431433
141	0x3e024bb3	0.1272419
142	0xbd628113	-0.055298876
143	0xbdecd72a	-0.11564477
144	0xbddb23f3	-0.10700216
145	0x3d2cae51	0.04215843
146	0xbd00a35b	-0.031405788
147	0x3d7ad43e	0.061237566
148	0x3d611833	0.05495472
149	0x3dd4ec88	0.10396677
150	0xbded17b9	-0.1157679
151	0x3d6ec474	0.05829282
152	0x3da3cc89	0.07997996
153	0xbd8be704	-0.06831172
154	0x3e00fb7c	0.12595934
155	0x3d7d4823	0.061836373
156	0xbd8922f7	-0.06696122
157	0x3ca37af7	0.019956095
158	0xbc05bed4	-0.008163173
159	0xbd44dba6	-0.048061036
160	0xbdd796f6	-0.105268404
161	0xbe192e53	-0.14959078
162	0x3aa46f1c	0.001254532
163	0xbcfe98d1	-0.031078728
164	0x3c417c2e	0.011809392
165	0xbda8e143	-0.0824609
166	0x3dd14654	0.10218492
167	0xbde6e2ea	-0.11273749
168	0x3c9f942b	0.019479832
169	0x3db27c47	0.0871511
170	0x3de6800d	0.112548925
171	0x3d379e15	0.044828493
172	0xbde63833	-0.11241188
173	0xbca99f13	-0.020705735
174	0x3cc6a875	0.024250248
175	0xbdda1ee0	-0.1065042
176	0xbdb251bb	-0.08706995
177	0xbd99a01d	-0.07501242
178	0xbddc5aad	-0.107594825
179	0xbd132348	-0.03592232
180	0xba6c9bd5	-0.00090259063
181	0x3d65c08d	0.056091834
182	0x3e0d3dbe	0.13793084
183	0x3df7a15d	0.120913245
184	0x3d4fcb97	0.050731268
185	0xbd743161	-0.059617404
186	0xbd34e692	-0.0441652
187	0x3dfb1559	0.12259931
188	0x3d2fedab	0.042951267
189	0x3a37dc9c	0.00070137694
190	0x3bcf57d1	0.006327607
191	0xbde6dada	-0.112722114
192	0xbd5c11d4	-0.05372794
193	0x3ce90cc6	0.028448474
194	0xbdf266ce	-0.11836015
195	0x3d91aaa7	0.071126275
196	0x3da4f307	0.08054166
197	0xbdb69b97	-0.08916395
198	0x3de439cb	0.11143836
199	0xbdc260e6	-0.09491138

lstm.bias_hh_l0 f4 [200]
0	0x3bb57476	0.005537565
1	0xbdff9968	-0.12480432
2	0x3b297fec	0.00258636
3	0xbd86254e	-0.06550084
4	0xbc6dfa7b	-0.014525051
5	0x3d277cab	0.040890377
6	0x3d56de2f	0.052457985
7	0xbe121091	-0.14264132
8	0xbde76905	-0.11299328
9	0x3d884318	0.06653422
10	0x3d3d3b89	0.046199355
11	0xbd2ec4d6	-0.042668186
12	0x3c74dcd2	0.014945226
13	0xbe0157c5	-0.12631138
14	0x3d8c6792	0.06855692
15	0xbd450878	-0.04810378
16	0x3de43287	0.1114245
17	0x3c9d650f	0.019213228
18	0xbdf5b8fb	-0.11998173
19	0xbc5e2769	-0.013559201
20	0xbe13b756	-0.14425406
21	0x3df70a5a	0.12062521
22	0xbe082fa5	-0.13299425
23	0xbddd386d	-0.10801778
24	0x3d808831	0.062759764
25	0x3de0f152	0.10983528
26	0x3d910145	0.0708032
27	0xbdb8fc53	-0.09032502
28	0x3d54551f	0.05183899
29	0x3c8a41ae	0.016877022
30	0xbd4e108e	-0.050308757
31	0xbdd2cd7a	-0.10293098
32	0x3d0176ed	0.031607557
33	0xbdb8aaba	-0.090169385
34	0xbd6b684d	-0.057472516
35	0xbe115a0d	-0.14194508
36	0xbd862203	-0.06549456
37	0xbb6af8fb	-0.003585397
38	0x3c773373	0.01508795
39	0xbde1e861	-0.11030651
40	0xbcf7e643	-0.030261165
41	0xbbea35cd	-0.007147527
42	0xbe04bd95	-0.12962945
43	0xbdafdcd0	-0.085870385
44	0xbd30a10d	-0.04312234
45	0xbe0048e4	-0.12527806
46	0x3d9b1969	0.07573206
47	0x3d4aa595	0.049474318
48	0xbcb0f0d8	-0.021599218
49	0xbce8e493	-0.028429305
50	0xbd3f73f7	-0.046741452
51	0xbdd58381	-0.10425473
52	0x3dacf4d9	0.084451385
53	0xbde489f0	-0.11159122
54	0xbe0800ae	-0.1328151
55	0x3dff4a2e	0.124653205
56	0x3c5e3dc0	0.013564527
57	0x3da18d6c	0.07888302
58	0xbd5ec3aa	-0.05438582
59	0xbdf2f4d0	-0.118631005
60	0x3d982125	0.07428197
61	0xbd50e3d6	-0.05099853
62	0xbdaa62f2	-0.083196536
63	0xbddbb50c	-0.10727891
64	0xbdca9dee	-0.09893404
65	0xbd870559	-0.06592817
66	0x3d5c470c	0.053778693
67	0x3da11004	0.07864383
68	0xbdcd489d	-0.100236155
69	0x3dca3ff8	0.09875482
70	0xbdc579d2	-0.09642376
71	0xbdc50759	-0.09620542
72	0xbbaaa361	-0.0052074646
73	0x3dab4f8a	0.0836478
74	0x3d3f4e5b	0.046705585
75	0xbadc942e	-0.0016828829
76	0x3dc361f1	0.09540165
77	0x3dba9eb7	0.09112304
78	0xbd9d536d	-0.07681928
79	0xbd9cc8ea	-0.07655509
80	0x3c4509bc	0.012026247
81	0xbe037e5f	-0.12841175
82	0xbda6d2d7	-0.08145683
83	0x3c85cb3d	0.016332263
84	0x3d9d3573	0.0767621
85	0x3dbe4d8c	0.09292135
86	0xbd3027a8	-0.04300657
87	0xbd830a05	-0.063983954
88	0xbe0d7690	-0.13814759
89	0xbe1b30f7	-0.15155397
90	0xbd749bd6	-0.05971893
91	0x3d5ec88f	0.054390486
92	0xbc592fdf	-0.013256042
93	0x3d35b2f5	0.04436012
94	0xbd971f11	-0.07378972
95	0x3d2a276b	0.0415415
96	0x3ce0e2ee	0.027451959
97	0x3dff56f9	0.124677606
98	0xbd8a96da	-0.06767054
99	0xbba4ee24	-0.0050332714
100	0x3d2dd263	0.04243697
101	0x3d5523b6	0.05203601
102	0x3de062f5	0.109563746
103	0xbddfc569	-0.10926325
104	0x3d331417	0.04372033
105	0x3ddfb9e7	0.1092413
106	0xbcf8fc2a	-0.030393679
107	0xbdce9256	-0.10086505
108	0x3dddae30	0.10824239
109	0xb98d146c	-0.0002690883
110	0x3d5e49cb	0.054269593
111	0xbd733945	-0.05938079
112	0x3de0e726	0.10981588
113	0x3c94f158	0.018181488
114	0xbcc64313	-0.024201905
115	0xbdcbb619	-0.09946842
116	0x3daf5dcb	0.085628115
117	0xbd45e3dd	-0.04831301
118	0x3d17f592	0.03709943
119	0xbc1165b5	-0.0088743465
120	0x3c4e2951	0.012583093
121	0x3cd777ca	0.026302237
122	0xbc19a2f6	-0.009377232
123	0xbd09a3e7	-0.033603575
124	0xbd9a59ab	-0.07536634
125	0xbd52949a	-0.05141125
126	0x3d1dcc53	0.038524937
127	0x3de00ea2	0.10940291
128	0x3ccc53de	0.024942335
129	0xbdfc587f	-0.12321567
130	0x3d6dcccd	0.05805664
131	0xbd772aa8	-0.060343415
132	0xbd802dc5	-0.0625873
133	0xbdc2ef58	-0.095183074
134	0x3d6ae36d	0.057345796
135	0xbd353f9b	-0.044250112
136	0x3d36774c	0.044547364
137	0x3d829f8f	0.0637809
138	0x3d9ea0ff	0.07745551
139	0x3dd90f86	0.10598664
140	0xbdca4204	-0.09875873
141	0x3d563f05	0.052306194
142	0xbe066fca	-0.13128582
143	0xbc95a70e	-0.018268134
144	0x3e189f8e	0.14904615
145	0x3da50884	0.08058265
146	0xbdc4e9b7	-0.0961489
147	0x3df5139a	0.11966629
148	0xbdd16d08	-0.10225874
149	0xbd8677f7	-0.0656585
150	0xbd36a020	-0.0445863
151	0xbd164e8f	-0.036696013
152	0xbc8d1488	-0.017221704
153	0xbdc5aec1	-0.09652472
154	0xbb463834	-0.0030245902
155	0x3c9f6635	0.019457916
156	0xbd2e6b2f	-0.042582687
157	0xbdaf153c	-0.08548972
158	0x3dd51597	0.104045086
159	0x3d6baf66	0.05754032
160	0x3ceafabb	0.02868401
161	0xbb959130	-0.004564427
162	0x3d514f60	0.05110109
163	0xbdbc98c2	-0.09208824
164	0x3d482615	0.048864443
165	0x3d2fd6f6	0.042929612
166	0x3d848a61	0.06471706
167	0x3d6c83f8	0.057743043
168	0xbdc76abe	-0.09737156
169	0x3d61ba74	0.055109456
170	0xbe01c539	-0.1267289
171	0x3c986683	0.018603569
172	0xbd9fd854	-0.07804933
173	0x3c1ae66a	0.009454349
174	0xbdebc0d6	-0.1151139
175	0x3d4c36d5	0.04985698
176	0x3da2fed7	0.07958763
177	0xbcbdf539	-0.02318822
178	0xbd3d8b57	-0.046275463
179	0xbdd8d4d4	-0.10587469
180	0xbd8b5126	-0.06802587
181	0x3c315251	0.010822848
182	0xbd075342	-0.033038385
183	0xbde1a098	-0.11016959
184	0xbe09a788	-0.13442814
185	0xbd38732c	-0.04503171
186	0xbc147849	-0.009061881
187	0xbd8121f4	-0.06305304
188	0xbd09fc08	-0.03368762
189	0x3de64705	0.11244015
190	0xbd9b4921	-0.075823076
191	0x3dc36f01	0.09542657
192	0x3c789351	0.015171842
193	0xbd628c5c	-0.05530964
194	0xbd7811fc	-0.060564026
195	0xbd61b125	-0.05510058
196	0xbc33d66d	-0.010976416
197	0xbdba22c1	-0.0908866
198	0x3dc8b0f6	0.097993776
199	0x3c8f9fd1	0.017532261

lstm.weight_ih_l1 f4 [200, 50]
0	0xbda7e363	-0.081976674
1	0xbe08f63b	-0.1337518
2	0xbd5a27ff	-0.0532608
3	0x3da2f506	0.07956891
4	0xbd3da9ff	-0.0463047
5	0x3d566343	0.052340757
6	0xbd432f4e	-0.047652535
7	0x3d9cc456	0.076546356
8	0x3d26771f	0.040640946
9	0xbc1d4305	-0.009598498
10	0x3c5f8e66	0.01364479
11	0x3df0441c	0.11731741
12	0xbdc9fd25	-0.098627366
13	0x3d558493	0.052128386
14	0x3db872e4	0.09006289
15	0xbd1eca58	-0.03876719
16	0x3d9e5e6d	0.07732854
17	0x3c983d5f	0.018583952
18	0xbd172bdf	-0.036907073
19	0x3d98fa9f	0.07469677
20	0x3c621da2	0.01380101
21	0x3cb2af8b	0.021812221
22	0xbd554375	-0.052066285
23	0xbdb1f619	-0.086895175
24	0xbdc03ee9	-0.09386999
25	0x3d173e25	0.0369245
26	0xbd019f02	-0.031645782
27	0xbd5cdd6a	-0.053922094
28	0xbda74926	-0.08168249
29	0xbd86cd98	-0.06582183
30	0xbd923236	-0.07138483
31	0x3d719e73	0.058989
32	0x3da297e9	0.07939131
33	0xbdffe3e6	-0.1249464
34	0x3bb12fe2	0.0054073194
35	0x3d3ee2b5	0.046602923
36	0x3df625bc	0.12018916
37	0x3dc4cc14	0.09609237
38	0xbcf639e9	-0.03005691
39	0xbaa7793c	-0.001277722
40	0xbc869f8a	-0.016433496
41	0xbde98e93	-0.11404147
42	0x3d80df88	0.06292635
43	0x3cd09bea	0.02546497
44	0xbd851960	-0.064989805
45	0x3d3f02f9	0.046633694
46	0xbd255052	-0.040359803
47	0xbcb87f3d	-0.02252161
48	0xbd77baf5	-0.06048103
49	0x3d05d1f4	0.03267093
50	0xbcd816e1	-0.026378097
51	0x3d43f335	0.047839362
52	0xbb12f28e	-0.0022422406
53	0x3bb47e7f	0.0055082436
54	0xbc278555	-0.01022466
55	0x3c3ff54f	0.011716201
56	0x3bbfafc4	0.0058498103
57	0xbdba3b87	-0.09093385
58	0xbde4dab2	-0.11174525
59	0x3d4be284	0.04977657
60	0x3df3f575	0.119120516
61	0xbdbd573d	-0.09245155
62	0x3df773da	0.12082644
63	0xbddfe4e1	-0.10932327
64	0xbd8e9b1f	-0.06963181
65	0x3c948bbe	0.01813304
66	0xbdf8161d	-0.12113593
67	0xbcbcaf45	-0.023032794
68	0xbe01f89b	-0.12692492
69	0x3d7deb29	0.061991844
70	0xbe0f3524	-0.13985115
71	0x3bedaa7e	0.0072529903
72	0x3d0e4a87	0.034739044
73	0xbd48035a	-0.04883132
74	0x3e0166e0	0.126369
75	0x3e0e66d9	0.13906421
76	0x3e09f0ff	0.13470839
77	0x3e15ba19	0.14621772
78	0x3b137bcb	0.0022504206
79	0x3ca71223	0.02039439
80	0xbcf5ef4e	-0.030021336
81	0x3d4ef1b2	0.050523467
82	0x3e0500a7	0.1298853
83	0xbe036076	-0.12829766
84	0xbc7532da	-0.014965737
85	0x3e18bec9	0.14916529
86	0xbcdc75da	-0.026911665
87	0xbd354d8c	-0.044263408
88	0x3e16ca08	0.14725506
89	0xba8bc136	-0.001066244
90	0xbdea4f6e	-0.11440931
91	0xbb945ab5	-0.0045274147
92	0xbd81f23f	-0.06345033
93	0xbde0afa1	-0.109709986
94	0xbd9d738f	-0.07688057
95	0x3ad6be91	0.0016383698
96	0xbd255f43	-0.04037405
97	0x3dc11865	0.09428481
98	0x3dc6148c	0.09671888
99	0xbcf1c8c4	-0.029514678
100	0xbd82c311	-0.06384862
101	0x3dc10ed6	0.09426658
102	0x3d80ba4c	0.06285533
103	0x3d1af8ce	0.037834935
104	0xbdb5c548	-0.08875519
105	0xbb5628ad	-0.0032678053
106	0xbc855782	-0.016277079
107	0x3de248a7	0.110490136
108	0x3ca3c4b2	0.019991253
109	0x3ba77387	0.0051102075
110	0xbe103ce4	-0.14085728
111	0xbd748c2e	-0.059704
112	0x3d78959b	0.06068955
113	0xbd58180e	-0.052757315
114	0xbdadafcc	-0.08480796
115	0xbdf42185	-0.11920456
116	0xbdf4d2e1	-0.119542845
117	0x3d0959a9	0.033532772
118	0x3d381d41	0.044949774
119	0xbd5ce775	-0.053931672
120	0xbdebdc7e	-0.11516665
121	0x3de9412e	0.11389385
122	0x3de0caac	0.109761566
123	0x3de6c869	0.11268694
124	0xbda7ef05	-0.08199886
125	0xbc94285d	-0.018085653
126	0x3bae7ab9	0.0053246883
127	0xbde89c36	-0.1135792
128	0xbd0444fa	-0.032292344
129	0xbdbd48ff	-0.092424385
130	0x3dddace9	0.108239956
131	0xbc9bdc26	-0.019025873
132	0xbe0b74ba	-0.13618746
133	0xbd4d8120	-0.05017197
134	0x3d90c2e0	0.070684195
135	0xbd463249	-0.0483878
136	0x3dd44f59	0.10366697
137	0xbd77dd1c	-0.0605136
138	0xbd075a8e	-0.033045344
139	0xbd9a4480	-0.075325966
140	0xbb725466	-0.0036976575
141	0x3d8983f9	0.06714625
142	0x3d8630a0	0.06552243
143	0x3dad2c0c	0.08455667
144	0x3d5886c4	0.052862898
145	0xbd6f30e6	-0.058396243
146	0xbe0f3659	-0.13985576
147	0xbe046823	-0.1293035
148	0xbcc64f6e	-0.024207797
149	0xbc9c35b1	-0.01906857
150	0xbd8f90fd	-0.07010076
151	0xbdb1aecd	-0.08675919
152	0xbdc87520	-0.09787965
153	0x3d897df4	0.06713477
154	0xbcf2aedf	-0.0296244
155	0xbd9af89c	-0.0756695
156	0xbbe360b1	-0.0069390167
157	0xbdec2977	-0.11531346
158	0x3db097a2	0.08622672
159	0x3da94be2	0.082664266
160	0x3b35132a	0.002762983
161	0x3e05ab39	0.13053598
162	0xbdd8fc5d	-0.105950095
163	0x3b57cc49	0.003292816
164	0x3dfed1fc	0.12442395
165	0xbdda51ae	-0.106601104
166	0xbda547fd	-0.08070371
167	0xbdc9ac28	-0.09847289
168	0xbd9ed49d	-0.077553965
169	0x3e041b90	0.1290114
170	0xbd03a2aa	-0.03213755
171	0xbca1bb94	-0.019742765
172	0xbd65f515	-0.05614193
173	0xbda9491f	-0.082659
174	0x3d3b1fef	0.04568475
175	0xbdbf364b	-0.093365274
176	0x3c7f57ec	0.015584927
177	0x3db61de2	0.088924184
178	0xbd818d23	-0.06325748
179	0x3c8a2846	0.016864907
180	0x3da194e3	0.07889726
181	0x3dea2f28	0.114347756
182	0xbd0fe467	-0.03512993
183	0x3dbd9a03	0.09257891
184	0x3dccea6a	0.100056484
185	0xbe01d1ed	-0.12677737
186	0xbdcd5185	-0.10025314
187	0x3d823962	0.06358601
188	0x3dc98ab7	0.09840911
189	0x3db857e8	0.09001142
190	0x3d97730e	0.07394992
191	0xbd90280b	-0.070388876
192	0xbd6a7b3f	-0.057246443
193	0x3c264f44	0.010150734
194	0x3de903b7	0.11377662
195	0xbc590e9e	-0.013248114
196	0xbdec5dde	-0.11541341
197	0xbd8f16f0	-0.06986797
198	0xbdcbe784	-0.099562675
199	0xbd693377	-0.056933846
200	0x3ded9e92	0.116025105
201	0x3cdfabfe	0.027303692
202	0x3d55a1d7	0.052156296
203	0xbd88a22c	-0.06671557
204	0x3df408c5	0.11915735
205	0x3db7bc76	0.08971493
206	0x3df3a763	0.11897161
207	0x3cbb9ab1	0.022900911
208	0x3b40a1b0	0.0029393248
209	0x3da563b7	0.0807566
210	0xbd9a7c8b	-0.07543286
211	0xbd8cf8f3	-0.06883421
212	0x3d40e436	0.04709264
213	0xbdeb9c9b	-0.115044795
214	0x3dad4547	0.08460479
215	0x3caf6fc3	0.021415597
216	0x3c86aa97	0.016438765
217	0x3d11b9de	0.035577647
218	0x3d3f2409	0.046665225
219	0xbc2923e1	-0.010323496
220	0xbcb0d7be	-0.021587249
221	0x3df00018	0.11718768
222	0xbc730049	-0.014831611
223	0x3de9c8d7	0.1141526
224	0x3d93bea9	0.072141
225	0x3d9899f3	0.074512385
226	0x3d337a85	0.043818016
227	0x3d902cf9	0.07039828
228	0xbd666fac	-0.056258842
229	0x3d9dee93	0.0771152
230	0x3d883b6c	0.06651959
231	0xbdf308f5	-0.11866943
232	0x3dc043c2	0.09387924
233	0x3d65477c	0.055976376
234	0xbd7261b0	-0.059175193
235	0xbccad494	-0.024759568
236	0xbe066413	-0.13124113
237	0x3d817eec	0.063230366
238	0xbdf1e4ea	-0.1181124
239	0x3da227a7	0.07917719
240	0xbde2424b	-0.11047801
241	0xbdaecf67	-0.085356526
242	0x3d1a28df	0.037636634
243	0x3df252e0	0.118322134
244	0xbdf75736	-0.12077181
245	0x3d1bd5ca	0.038045682
246	0xbaa7aca1	-0.0012792536
247	0xbe0de0bf	-0.13855265
248	0x3d608d41	0.05482221
249	0xbde2545c	-0.110512465
250	0xbd718b30	-0.05897063
251	0xbdf824a1	-0.121163614
252	0xbd4cba46	-0.04998233
253	0x3c9eddb4	0.019392826
254	0xbcd98c38	-0.02655612
255	0x3d6bd82f	0.057579216

lstm.weight_hh_l1 f4 [200, 50]
0	0x3d37220a	0.044710197
1	0xbd4f9b65	-0.050685305
2	0xbe13fd36	-0.14452061
3	0xbc576159	-0.013145768
4	0xbc90ff00	-0.017699718
5	0x3d96617b	0.07342812
6	0xbe0ff650	-0.14058805
7	0x3c960fd0	0.018318087
8	0xbdd31693	-0.1030704
9	0x3d97baf2	0.07408704
10	0x3e05bd48	0.13060486
11	0xbdd269fc	-0.10274121
12	0xbde0cd2c	-0.109766334
13	0xbcabf36c	-0.020990096
14	0x3d43f2ce	0.04783898
15	0x3c947e4a	0.018126626
16	0x3df02a2e	0.11726795
17	0x3e0b40bd	0.13598914
18	0x3db720a6	0.08941774
19	0x3c0f4dc8	0.008746572
20	0x3dcacd05	0.099023856
21	0x3bdf69e4	0.006818043
22	0xb8624930	-5.395076e-05
23	0x3e0ab4c0	0.13545513
24	0x3d4cdfeb	0.050018232
25	0xbdc4cddc	-0.09609577
26	0x3d1a38e6	0.03765192
27	0x3dd2dc00	0.10295868
28	0x3df11561	0.11771656
29	0x3deb7500	0.11496925
30	0xbd0da17c	-0.03457783
31	0x3d70bea1	0.058775548
32	0xbde24204	-0.11047748
33	0x3d89ad18	0.06722468
34	0xbd5c2900	-0.05375004
35	0xbc8935d8	-0.016749308
36	0x3dcdb589	0.10044391
37	0x3dd87ee3	0.10571077
38	0x3e0bc5e8	0.13649714
39	0x3cd319b0	0.025769085
40	0x3d35c9f1	0.04438204
41	0x3d841d6f	0.064509265
42	0xbbab0f57	-0.0052203345
43	0xbd45e5b3	-0.04831476
44	0xbd1c7d1f	-0.038205262
45	0xbc7c7074	-0.01540767
46	0xbdedcf33	-0.11611786
47	0xbdce49ee	-0.10072695
48	0x3d80ded8	0.06292504
49	0xbce0077f	-0.027347324
50	0x3d5b643b	0.053562384
51	0x3d6e32c7	0.058153894
52	0x3d861e2a	0.06548722
53	0xbd90ea94	-0.07075992
54	0x3baf0738	0.0053414367
55	0xb8532224	-5.0338116e-05
56	0xbc1b6af2	-0.009485947
57	0xbd9f2ba8	-0.07771999
58	0x3cad9b6a	0.021192271
59	0xbd7ea088	-0.062164813
60	0x3da09818	0.078415096
61	0x3c69a5da	0.0142607335
62	0x3ca1c80e	0.019748714
63	0xbde45bb7	-0.11150306
64	0x3c947654	0.01812283
65	0xbd8deef8	-0.06930345
66	0x3d861fc6	0.06549029
67	0xbd3cfc3c	-0.046138987
68	0x3d04c523	0.032414567
69	0x3e09f983	0.13474087
70	0xbe06e870	-0.13174605
71	0x3d316b9c	0.043315515
72	0xbdbb54e7	-0.09147053
73	0xbdbece9c	-0.09316751
74	0x3d9620b3	0.07330456
75	0xbb55971e	-0.0032591294
76	0x3da3335c	0.079687804
77	0x3df8dc89	0.12151439
78	0xbd22b26a	-0.03972093
79	0x3b0a9d1e	0.0021150778
80	0x3b8e6188	0.0043451227
81	0xbda7a05d	-0.08184884
82	0x3dc7ba2b	0.097523056
83	0x3e045688	0.12923634
84	0x3d8c547b	0.06852051
85	0x3df30419	0.11866016
86	0x3c164387	0.009171373
87	0xbc59d655	-0.01329573
88	0xbdb0cd0f	-0.08632862
89	0xbd9583fd	-0.073005654
90	0x3ba983ec	0.005173197
91	0x3db7d7cc	0.08976707
92	0xbda6c096	-0.081422016
93	0x3d6eb7e7	0.05828085
94	0xbdebfd21	-0.1152289
95	0xbda6a089	-0.081360884
96	0xbdbb3b1c	-0.091421336
97	0x3d11ce00	0.035596848
98	0x3dae3c62	0.08507611
99	0x3e032039	0.1280526
100	0x3ca7886f	0.020450799
101	0xbdb3913f	-0.08767938
102	0xbddc1d4a	-0.10747774
103	0xbd12a1c7	-0.035798814
104	0x3da730a0	0.08163571
105	0xbc4d63fd	-0.012536046
106	0x3da9b206	0.082859084
107	0x3ce50fa0	0.027961552
108	0xbd90902f	-0.07058751
109	0x3d8a0b31	0.06740416
110	0xbd581df7	-0.05276295
111	0xbe103a47	-0.14084731
112	0x3ddf3d1a	0.10900326
113	0xbdbbcf23	-0.091703676
114	0xbd42c613	-0.04755218
115	0x3ded6ad0	0.115926385
116	0xbddeb5d6	-0.10874526
117	0x3e075284	0.13215071
118	0xbc83677b	-0.016040554
119	0x3dc69e8e	0.09698211
120	0xbca1f390	-0.01976946
121	0xbd7aef02	-0.06126309
122	0x3dfe7cd7	0.12426155
123	0x3de33624	0.11094311
124	0x3de87f92	0.11352457
125	0x3dde7e8a	0.10863979
126	0xbd191500	-0.037373543
127	0xbcf74578	-0.030184492
128	0xbdbde969	-0.09273035
129	0x3e1650f7	0.14679323
130	0xbcfdaab9	-0.030965196
131	0x3cdeba73	0.027188515
132	0xbd297ad5	-0.041376907
133	0xbb75324c	-0.0037414012
134	0xb9db7601	-0.00041858855
135	0xbd0086ea	-0.031378664
136	0x3cae2d55	0.02126185
137	0x3e027bf0	0.12742591
138	0xbde0e16a	-0.10980494
139	0x3deb4c06	0.1148911
140	0xbbc37746	-0.0059651462
141	0x3b75e022	0.0037517627
142	0xbd93f9c0	-0.072253704
143	0x3d76839b	0.060184103
144	0xbdae3f8d	-0.08508215
145	0xbdcdd65c	-0.100506514
146	0xbdf92636	-0.12165491
147	0xbdfa8570	-0.122324824
148	0x3cfb067f	0.030642746
149	0x3de0af28	0.109709084
150	0xbd0ae54d	-0.033910085
151	0xbdb7ba62	-0.089710966
152	0x3d956200	0.07294083
153	0xbd138f33	-0.036025237
154	0xbdf0c1c4	-0.11755708
155	0xbd0da9af	-0.03458565
156	0xbcc6ffab	-0.024291834
157	0xbd0b00f7	-0.033936467
158	0xbbb1cdd1	-0.0054261466
159	0xbd76477a	-0.06012676
160	0x3d9fc67b	0.07801529
161	0xbc7aaf73	-0.015300619
162	0x3c4ab1c4	0.012371484
163	0x3dd20ab8	0.10255951
164	0xbcca6323	-0.024705475
165	0x3cab3c0b	0.020902654
166	0x3da180a1	0.07885862
167	0xbdabe5c9	-0.083934374
168	0xbd85aa6f	-0.06526648
169	0xbcf22f69	-0.029563623
170	0xbc5dab8e	-0.013529671
171	0xbdeb089e	-0.11476253
172	0xbe0aa673	-0.13540058
173	0x3e08b1d4	0.13349086
174	0xbd855861	-0.065109976
175	0xbd42803d	-0.04748558
176	0xbda476e0	-0.08030486
177	0x3da17077	0.07882779
178	0x3d8f67dc	0.070022315
179	0xbd300adc	-0.042979106
180	0xbd3b56c0	-0.045737028
181	0xbd74bff7	-0.059753384
182	0x3ceacd04	0.028662212
183	0x3dd57a2e	0.104236946
184	0x3c51f74b	0.012815307
185	0xbd4ba5ce	-0.04971867
186	0xbd0ecfa1	-0.03486598
187	0xbdf1348d	-0.117776014
188	0xbe0b01b2	-0.13574865
189	0x3d1218a4	0.03566803
190	0x3ddd246d	0.10797963
191	0x3d6f2ff8	0.058395356
192	0x3cdb27b8	0.026752338
193	0x3d74e35f	0.05978715
194	0x3dc1b0ba	0.09457536
195	0x3e1e2d8d	0.15447064
196	0x3d5afd06	0.05346396
197	0xbd984761	-0.074354894
198	0xbddcb1bc	-0.10776088
199	0x3c6cebac	0.014460485
200	0xbd2ffbed	-0.042964865
201	0x3dbedfd3	0.09320035
202	0x3dbb71b6	0.09152548
203	0x3d6e47ee	0.058174066
204	0x3dbe604e	0.092957124
205	0xbcaab9b9	-0.020840513
206	0xbde7c277	-0.11316388
207	0xbd5ed92f	-0.05440634
208	0xbd91e32f	-0.0712341
209	0x3dda344f	0.10654508
210	0x3d41a2d1	0.047274414
211	0xbe0efec8	-0.13964379
212	0x3dc495c2	0.095988765
213	0xbc9130e8	-0.017723516
214	0xbe042052	-0.12902954
215	0x3d71bc31	0.059017364
216	0xbdf7f822	-0.121078745
217	0xbe1f7cc6	-0.15574941
218	0xbda22dde	-0.07918905
219	0x3d4b1167	0.049577143
220	0x3d57b721	0.05266488
221	0x3dd902db	0.10596248
222	0xbc1f5a83	-0.0097261695
223	0x3dc6b66a	0.097027615
224	0xbcd10996	-0.025517266
225	0x3d655278	0.05598685
226	0xbda8a9c4	-0.08235505
227	0xbd14ac35	-0.036297042
228	0xbd33b13a	-0.04387019
229	0xbe055f54	-0.13024646
230	0x3dff39e6	0.12462215
231	0xbdf75977	-0.12077611
232	0x3de67d96	0.11254422
233	0x3dbd2ee6	0.09237461
234	0xbdaa5ccc	-0.08318481
235	0x3e019780	0.12655449
236	0x3db52fd0	0.0884701
237	0xbdfc1116	-0.123079464
238	0xbd8328d4	-0.06404272
239	0x3ddcee51	0.10787643
240	0x3c391df3	0.011298644
241	0xbdc6e429	-0.09711487
242	0x3dbc1793	0.09184184
243	0xbbb054fc	-0.0053812247
244	0x3dff0f70	0.12454116
245	0x3d8cf6df	0.068830244
246	0x3a6a32fb	0.0008933988
247	0x3db28baa	0.08718045
248	0x3daac387	0.08338075
249	0x3dde4c3c	0.10854384
250	0xbd8bbcf1	-0.06823147
251	0x3cf80575	0.03027604
252	0x3dc62421	0.0967486
253	0xbd7f11ba	-0.062272765
254	0xbd49147a	-0.049091794
255	0xbc7e1453	-0.015507775

lstm.bias_ih_l1 f4 [200]
0	0xbda10b88	-0.078635275
1	0x3dd0d649	0.10197122
2	0xbdffe2ac	-0.12494406
3	0xbd918d2d	-0.07107005
4	0xbd6f3e0f	-0.058408793
5	0x3de08494	0.10962787
6	0xbcb8684a	-0.022510666
7	0xbd4a639e	-0.04941141
8	0xbde5770a	-0.112043455
9	0x3e01c428	0.12672484
10	0xbe08938f	-0.13337539
11	0x3d189e5b	0.037260395
12	0x3dacd20f	0.08438503
13	0xbd54bed8	-0.051939815
14	0x3deaf424	0.114723474
15	0xbd43e6cf	-0.047827538
16	0x3d40a74a	0.04703454
17	0x3dddb0dd	0.108247496
18	0xbe1b54b0	-0.15169024
19	0xbc3bcda3	-0.011462602
20	0xbde6c45c	-0.11267921
21	0xbd90b2f5	-0.07065383
22	0xbd9b5ada	-0.07585688
23	0xbe20ff36	-0.15722355
24	0xbe16c60d	-0.14723988
25	0x3dbdca3d	0.092670895
26	0x3df8ead4	0.12154165
27	0xbe0d1073	-0.13775806
28	0xbd4fdaa5	-0.050745625
29	0xbda7bcb3	-0.081902884
30	0x3d94ee28	0.07271987
31	0x3da85b64	0.082205564
32	0x3da6b498	0.08139914
33	0x3ddac112	0.106813565
34	0x3da9917d	0.08279703
35	0xbd60b7bc	-0.054862723
36	0xbd0bf138	-0.03416559
37	0xbcd33073	-0.025779938
38	0xbe17af5f	-0.14812993
39	0x3dda936d	0.106726505
40	0xbdfd42ae	-0.12366234
41	0xbcf0bd7a	-0.029387224
42	0xbceac04c	-0.028656147
43	0x3daa8404	0.08325961
44	0xbd62185e	-0.05519902
45	0xbda65c1b	-0.081230365
46	0xbd152681	-0.036413673
47	0x3dc762ee	0.09735666
48	0x3dbccdc1	0.09218932
49	0x3d43b4e3	0.04777993
50	0xbd03fa59	-0.032221172
51	0x3ce2934a	0.027658124
52	0x3d3ae6b0	0.045630157
53	0x3d4eec2f	0.05051821
54	0x3da92e3c	0.08260772
55	0xbe0bbfbf	-0.13647364
56	0xbd4151df	-0.04719722
57	0xbb9a9ff2	-0.004718774
58	0x3df8dba6	0.121512696
59	0xbd9897d1	-0.07450832
60	0x3d4c66a3	0.04990257
61	0xbd2c704a	-0.042099275
62	0xbe08873f	-0.13332842
63	0x3df0c96b	0.117571674
64	0x3d598ea4	0.05311455
65	0xbdaa661f	-0.08320259
66	0x3dc57002	0.096405044
67	0x3dd44033	0.103638075
68	0xbd3e951c	-0.04652892
69	0x3dc9bd86	0.09850602
70	0xbe10e7c5	-0.14150913
71	0xbe0d8226	-0.13819179
72	0x3dadeca2	0.084924
73	0x3ccfb861	0.025356473
74	0x3d6efa3e	0.05834412
75	0xbcbc2070	-0.022964686
76	0x3cc395ce	0.023875143
77	0xbe28821c	-0.16455883
78	0xbe0a2bf9	-0.13493337
79	0x3d9c63dc	0.07636234
80	0xbdfd3bd8	-0.1236493
81	0x3d01846d	0.03162043
82	0x3bca2cf5	0.00616991
83	0x3c7fb293	0.01560654
84	0xbc1c7511	-0.009549395
85	0xbcbc2cef	-0.022970645
86	0x3d592b17	0.05301961
87	0x3b851ea7	0.004062492
88	0x3dc0b1f9	0.094089456
89	0x3e0145e6	0.1262432
90	0xbdc6ef0f	-0.097135656
91	0x3cbd12ff	0.023080347
92	0xbdf74b55	-0.12074915
93	0xbdfbd4b1	-0.12296427
94	0xbd7d1da1	-0.061795834
95	0x3de1dc1e	0.11028312
96	0xbd8b485c	-0.06800911
97	0x3c1eb53c	0.009686764
98	0xbdf12ed6	-0.11776511
99	0xbd8ded2f	-0.06930005
100	0x3e0d51ee	0.13800785
101	0x3df57f9c	0.1198723
102	0xbc0bc674	-0.008531202
103	0xbdbdde0b	-0.09270867
104	0xbca88199	-0.02056961
105	0x3d2b3daa	0.041806854
106	0xbde54da2	-0.11196448
107	0x3d0f2577	0.03494784
108	0xbc71470e	-0.014726413
109	0xbe0ba98e	-0.13638899
110	0x3e08cec0	0.13360119
111	0xbd4cbf79	-0.04998729
112	0x3cf59c1e	0.029981669
113	0x3d8b6c92	0.068078175
114	0x3df6c34e	0.1204897
115	0x3cb9ed4c	0.02269616
116	0x3d80bd45	0.062861
117	0x3e0e16e3	0.13875918
118	0xbde87918	-0.11351222
119	0x3db39aff	0.087697975
120	0xbd9e1eae	-0.077206954
121	0xbdee3463	-0.11631086
122	0xbd2bdeeb	-0.041960638
123	0x3df9f8e6	0.12205677
124	0xbd0147d1	-0.03156263
125	0x3dfb30c9	0.122651644
126	0x3d47560c	0.048666045
127	0x3d5c2059	0.053741787
128	0xbe0120e4	-0.12610203
129	0xbc9b113f	-0.018929122
130	0xbcb9bdd1	-0.02267352
131	0x3d12fc29	0.03588501
132	0xbd54c353	-0.05194409
133	0xbd625a65	-0.05526199
134	0xbd97f828	-0.07420379
135	0x3a9ca7e7	0.0011951894
136	0x3ddef0f9	0.10885806
137	0xbda96bf4	-0.082725435
138	0x3df423de	0.119209036
139	0xbcab5a6f	-0.020917146
140	0xbd2158ce	-0.03939133
141	0x3d5a2eba	0.05326722
142	0xbdae3b0e	-0.085073575
143	0x3d26487a	0.040596463
144	0x3df54057	0.119751625
145	0xbdaa403c	-0.08313033
146	0x3e00e083	0.12585644
147	0x3db09e7f	0.08623981
148	0x3dcf0a1a	0.101093486
149	0xbdd1853d	-0.10230491
150	0x3d3f4993	0.046701025
151	0x3b651d62	0.003496014
152	0xbe1359e4	-0.1438976
153	0x3cc365cb	0.02385225
154	0xbc7ec37c	-0.015549537
155	0x3d9b5b06	0.07585721
156	0xbd8179e1	-0.06322075
157	0x3d87d4f4	0.066324145
158	0xbe0e6a1c	-0.13907665
159	0xbc96705e	-0.018364128
160	0xbbe8733a	-0.007093814
161	0x3b30ed5c	0.0026996946
162	0xbdeab848	-0.1146093
163	0xbdb26c1d	-0.08712027
164	0xbda4a077	-0.08038419
165	0xbd947350	-0.072485566
166	0xbca10049	-0.019653456
167	0xbd525552	-0.0513509
168	0xbdeb73b8	-0.11496681
169	0xbd83246f	-0.064034335
170	0xbd8e74a9	-0.06955845
171	0xbdb0c2b4	-0.08630887
172	0xbdc97518	-0.09836787
173	0x3daaf740	0.083479404
174	0xbe14febe	-0.14550301
175	0x3df25dcc	0.118342966
176	0xbdcfa055	-0.10138003
177	0x3a8cdd0d	0.0010747031
178	0xbdefa80d	-0.11701975
179	0xbd6a7b46	-0.05724647
180	0xbcb70310	-0.022340328
181	0xbcc4f113	-0.024040734
182	0x3c245e94	0.010032315
183	0x3cbe595e	0.023235973
184	0xbde5873e	-0.11207436
185	0xbd8be2fd	-0.06830404
186	0xbd251ef4	-0.040312722
187	0xbd1e1dfe	-0.03860282
188	0x3dac7f50	0.084227204
189	0x3e02aa50	0.12760282
190	0x3deec9ee	0.11659609
191	0x3dd95614	0.10612121
192	0xbd9bffc0	-0.0761714
193	0xbdb02d86	-0.08602433
194	0xbd8a3682	-0.06748678
195	0x3c51bef6	0.012801876
196	0xbcc44c52	-0.023962174
197	0xbe140334	-0.14454347
198	0xbd5d9132	-0.054093547
199	0x3dd95e12	0.106136456

lstm.bias_hh_l1 f4 [200]
0	0x3c44df68	0.012016155
1	0xbde219dc	-0.110400885
2	0xbdb91fa3	-0.09039237
3	0xbd667452	-0.056263275
4	0x3db76f57	0.08956783
5	0x3da6bf58	0.08141965
6	0xbd8281a9	-0.06372387
7	0xbd634e14	-0.055494383
8	0xbe1543e8	-0.14576685
9	0x3dd48f7a	0.103789285
10	0xbd9d1b28	-0.07671195
11	0x3c06274a	0.008188078
12	0x3d171d9a	0.036893465
13	0x3dd18c1f	0.10231804
14	0xbdc938e7	-0.098253064
15	0xbc9e85dc	-0.019350938
16	0xbdc40004	-0.095703155
17	0x3c3d2309	0.011543998
18	0xbdf950a2	-0.121735826
19	0x3d3902a3	0.04516853
20	0x3afc5d53	0.0019253887
21	0x3dacecac	0.08443579
22	0xbe01219f	-0.12610482
23	0x3d979fee	0.07403551
24	0xbe25a2f4	-0.16175443
25	0xbda93265	-0.08261565
26	0xbe085c96	-0.13316569
27	0xbe049647	-0.12947951
28	0x3dafa6cc	0.08576736
29	0xbe200bfd	-0.15629573
30	0x3dda7f60	0.10668826
31	0x3dbc6e84	0.09200767
32	0xbdc11fe2	-0.09429909
33	0x3d44de4e	0.04806357
34	0xbd9db329	-0.07700188
35	0x3d849069	0.064728566
36	0xbde519bc	-0.11186549
37	0xb9f7aa74	-0.0004723851
38	0xbd551677	-0.052023377
39	0xbcf061d2	-0.02934352
40	0xbe15c2ba	-0.14625064
41	0xbdffef7a	-0.124968484
42	0xbd99918b	-0.07498463
43	0x3b8539d1	0.00406573
44	0x3da5e014	0.0809938
45	0xbcc3c97d	-0.023899788
46	0x3d994870	0.074845195
47	0x3cee6cdd	0.029104644
48	0xbe035039	-0.12823571
49	0x3dcddda1	0.10052038
50	0x3cfc0fcc	0.030769251
51	0x3d87bc1e	0.066276774
52	0xbd4a7755	-0.04943021
53	0x3da09a47	0.07841926
54	0x3d2185f9	0.039434407
55	0x3dc2cf81	0.095122345
56	0x3de26860	0.11055064
57	0x3d932f8d	0.07186804
58	0xbde3afc2	-0.111175075
59	0x3dbf40f3	0.0933856
60	0xbdc76b6d	-0.09737287
61	0xbda94787	-0.08265596
62	0xbd821f99	-0.06353683
63	0xbe023178	-0.12714183
64	0x3d837943	0.06419613
65	0x3df7f773	0.12107744
66	0xbde6c2fd	-0.1126766
67	0xbd331627	-0.043722298
68	0xbe14f047	-0.14544784
69	0x3db9e408	0.09076697
70	0xbe1437bf	-0.1447439
71	0xbdc467ad	-0.09590087
72	0x3d92b994	0.071643025
73	0x3d7e39c5	0.062066812
74	0xbdc947da	-0.09828158
75	0x3dbb3e07	0.0914269
76	0xbcca0ec8	-0.024665251
77	0x3de5ce2e	0.11220966
78	0x3dede2f6	0.11615555
79	0xbe035582	-0.12825587
80	0xbd94c7a4	-0.07264641
81	0xbd3d18ad	-0.04616611
82	0x3ca140f9	0.019684302
83	0xbce270c0	-0.027641654
84	0x3d91b718	0.071150005
85	0xbc00dd3d	-0.007865247
86	0xbdd49896	-0.10380666
87	0xbe1ab855	-0.1510938
88	0xbd982453	-0.07428803
89	0x3ce52267	0.027970506
90	0xbd5cc05d	-0.05389439
91	0x3d1f7545	0.038930196
92	0x3df06a0a	0.11738975
93	0xbdeec72e	-0.11659084
94	0x3d72e938	0.059304446
95	0xbdac4c13	-0.084129475
96	0x3d6094bd	0.054829348
97	0xbbe1b781	-0.0068883304
98	0x3e0d36a6	0.13790378
99	0x3dbf7e2d	0.09350238
100	0x3dad747d	0.08469484
101	0xbdcb56d4	-0.099286705
102	0xbdccebdd	-0.10005925
103	0x3de3b5f3	0.111186884
104	0xba728058	-0.0009250692
105	0x3dd87158	0.105684936
106	0x3d1f31af	0.03886574
107	0xbd71f74f	-0.059073742
108	0x3e08d8ab	0.13363902
109	0xbe0aa32f	-0.13538812
110	0x3d8fbd15	0.070184864
111	0xbc61c90e	-0.013780845
112	0x3d780c50	0.060558617
113	0xbcb64d7f	-0.02225375
114	0xbced9139	-0.028999912
115	0x3db693a3	0.08914878
116	0x3dc8ad16	0.097986385
117	0x3dcec6b5	0.10096494
118	0xbd5d42e3	-0.054018866
119	0xbdfd0330	-0.123541236
120	0xbcd0f775	-0.025508622
121	0xbddf54fa	-0.1090488
122	0xbd465709	-0.048422847
123	0xbd973568	-0.07383233
124	0x3d806a2e	0.06270252
125	0xbd4e0760	-0.050300002
126	0xbc9d79af	-0.019223062
127	0x3de3aa56	0.111164734
128	0x3deea074	0.11651698
129	0x3d9d6e9f	0.07687115
130	0xbca76928	-0.020435885
131	0x3aac21ea	0.0013132666
132	0xbd9e9031	-0.07742346
133	0xbe153921	-0.14572574
134	0xbd8e4d45	-0.06948332
135	0x3c9d54f3	0.019205546
136	0xbd7f8c57	-0.062389698
137	0x3d48d14a	0.04902772
138	0xbd260270	-0.04052967
139	0xbdba6e4b	-0.09103068
140	0x3cf982ac	0.030457817
141	0xbdc7a966	-0.09749107
142	0xbdc4b5ea	-0.0960501
143	0x3d5900ed	0.0529794
144	0xbc1b19ad	-0.009466571
145	0xbdd53e9e	-0.10412334
146	0xbdf7a368	-0.12091714
147	0xbcf0b42a	-0.029382784
148	0x3d93f201	0.07223893
149	0x3dc26e1c	0.09493658
150	0x3decdc93	0.11565509
151	0xbdab3d9c	-0.083613604
152	0x3cd955c5	0.026530156
153	0xbd6a8675	-0.057257134
154	0xbe0c7ccd	-0.13719483
155	0x3db38717	0.08766001
156	0x3c7398ac	0.014867943
157	0xbdc4cbb4	-0.09609166
158	0xbd655785	-0.05599167
159	0xbd2cdc9c	-0.042202577
160	0x3dceba19	0.10094089
161	0xbc7bee90	-0.015376702
162	0xbdaac5ae	-0.08338486
163	0x3c91a62e	0.017779436
164	0xbd392642	-0.0452025
165	0xbd7c8d3a	-0.06165812
166	0xbcab5dc6	-0.020918738
167	0x3d1f872a	0.038947262
168	0x3d334fc5	0.043777246
169	0xbc8cf629	-0.017207222
170	0xbdd2ddca	-0.10296209
171	0x3bc4c927	0.0060054245
172	0xbe285b8c	-0.16441172
173	0xbc540c2d	-0.012942356
174	0xbb66fd2f	-0.0035246124
175	0xbba7bacc	-0.0051187035
176	0x3b3bf3fc	0.0028679362
177	0xbd27b221	-0.04094136
178	0xbcd780d3	-0.026306545
179	0x3d5787e7	0.05261984
180	0x3dcd8f36	0.10037081
181	0xbe309530	-0.1724441
182	0xbe18c23b	-0.14917843
183	0x3d15f524	0.036610737
184	0x3e0c9738	0.1372956
185	0xbe001515	-0.12508042
186	0x3ca9dc1d	0.020734841
187	0xbe37c158	-0.17944849
188	0xbd0374a0	-0.032093644
189	0x3c506e9d	0.012721685
190	0x3a55adda	0.0008151211
191	0xbdd40928	-0.10353309
192	0xbd955e90	-0.07293427
193	0x3defff3e	0.117186055
194	0xbdb22050	-0.08697569
195	0x3db29a5c	0.08720848
196	0x3da35f97	0.07977217
197	0x3de4f653	0.11179795
198	0xbd99cc25	-0.075096406
199	0x3c9ab91d	0.018887097

batch_norm.weight f4 [50]
0	0x3f7b9fe8	0.9829087
1	0x3f7956cc	0.97398067
2	0x3f7d127a	0.9885632
3	0x3f7fb016	0.9987806
4	0x3f7c3fa2	0.98534596
5	0x3f7b6702	0.9820405
6	0x3f7f96a7	0.9983925
7	0x3f731b3e	0.94963443
8	0x3f7c05f4	0.98446584
9	0x3f76cdda	0.96407855
10	0x3f7cb4a1	0.9871312
11	0x3f7cd5ed	0.98763925
12	0x3f7f0e49	0.9963117
13	0x3f7b1070	0.98071957
14	0x3f7931b3	0.9734146
15	0x3f7aefc9	0.98022133
16	0x3f7b417e	0.9814681
17	0x3f79459f	0.9737186
18	0x3f79dbbe	0.97600925
19	0x3f787017	0.97046036
20	0x3f7bb076	0.98316133
21	0x3f765eb1	0.9623824
22	0x3f79933e	0.974903
23	0x3f7d1cf9	0.98872334
24	0x3f7cdb73	0.9877235
25	0x3f7cfa7c	0.9881971
26	0x3f7c57bb	0.98571366
27	0x3f787a69	0.97061783
28	0x3f764bb3	0.9620926
29	0x3f7c4fa6	0.98559034
30	0x3f7bea61	0.9840451
31	0x3f77e49e	0.9683322
32	0x3f79d308	0.97587633
33	0x3f7ba030	0.982913
34	0x3f7d28ac	0.98890185
35	0x3f78cd95	0.97188693
36	0x3f7527fa	0.95764124
37	0x3f79c657	0.9756827
38	0x3f7e79cb	0.9940459
39	0x3f78d829	0.97204834
40	0x3f7cd878	0.98767805
41	0x3f7a8f4f	0.9787492
42	0x3f7776bc	0.9666555
43	0x3f7a3103	0.97731036
44	0x3f770a12	0.9649974
45	0x3f7c5b83	0.98577136
46	0x3f77c68a	0.9678732
47	0x3f7706c6	0.9649471
48	0x3f782f57	0.96947235
49	0x3f7af51a	0.98030245
