result/uncertainty_LSTM_Expaliner.pth (torch, 206221 bytes, 13 tensors)

lstm.weight_ih_l0 f4 [200, 98]
000000 a1 91 97 bd 6b 76 0a be 8b 32 14 bb 60 64 cb 3d
       -0.074008234 -0.13521735 -0.0022613134 0.099312544
000010 77 53 a3 bd fa fe 34 3d ee d3 e0 3d a0 c6 98 bd
       -0.07974904 0.044188477 0.109779224 -0.0745976
000020 6b e5 9c 3d be 45 c9 bb be bb 5f 3d e3 4c 68 bc
       0.076609455 -0.006142347 0.054622404 -0.0141784875
000030 44 09 1f bd 20 fa 01 be 7f 81 0f 3e 9f 6b e5 3d
       -0.038827196 -0.12693071 0.14014243 0.11202168
000040 30 8e bc bc 6e fa 01 3d a0 b9 b5 3d f0 6f 0e 3e
       -0.023017019 0.03173297 0.08873296 0.13909888
000050 c2 2d 22 3d fc 34 f5 3a 59 d8 38 3d fa 3a e9 bd
       0.03959442 0.0018707807 0.0451282 -0.11388202
000060 3f 3f fd bd a6 26 a7 bd b6 80 63 3a 44 e3 0f 3e
       -0.12365579 -0.081616685 0.0008678542 0.14051539
000070 c2 cd a6 bb 5f de dd bd c7 8b fb 3d 48 88 a7 3d
       -0.005090446 -0.108334295 0.1228252 0.081802905
000080 44 47 c4 bd 65 44 04 3d 0b b2 55 bd e8 c3 e2 bd
       -0.09583905 0.03229179 -0.052171748 -0.110725224
000090 a5 56 07 bd 3e 3e f9 3d b4 14 ca bd 2c 8f 8c bd
       -0.033041615 0.12170075 -0.0986723 -0.06863245
0000a0 a5 44 b6 3d 76 15 e2 bd 60 8f 59 bd ee 1f 12 bc
       0.08899812 -0.110392496 -0.05311525 -0.008918745
0000b0 70 eb 9c 3d 2e 31 0b be c5 a1 b7 bc 4d 11 4a 3d
       0.07662094 -0.1359298 -0.022416005 0.049332906
0000c0 62 ee b0 bd 0f b5 92 3d 5e 80 eb 3d d6 98 bc 3d
       -0.08639218 0.071634404 0.114990935 0.09208839
0000d0 e9 30 0b 3e 48 1d ce 3d 75 6f f1 3d 12 7e 01 3d
       0.13592876 0.10064179 0.11788837 0.03161437
0000e0 f4 71 09 be 28 dd fb bd 58 6b d4 ba a3 36 29 3c
       -0.13422376 -0.122980416 -0.0016206307 0.010327968
0000f0 f8 f3 23 3d 6d 28 c8 bc e5 5d ed 3c ff 58 0e 3e
       0.04002759 -0.024433339 0.028975436 0.13901137
000100 09 9a f7 bd 10 70 a9 3d 5c b1 b7 bd 56 3e e7 3d
       -0.12089927 0.08273327 -0.089693755 0.112911865
000110 76 34 cc bd 92 38 ee 3d 09 c0 94 bd d3 2c 15 bd
       -0.09970944 0.11631884 -0.0726319 -0.0364197
000120 77 44 b7 bc 66 ec 5e bd e0 ed b3 3d 8b ec 18 bd
       -0.022371514 -0.054424666 0.087856054 -0.03733496
000130 f0 37 0f be 6f e9 04 3d b2 c7 8e bd 18 0d 32 bd
       -0.13986182 0.032449182 -0.069716826 -0.04346952
000140 d2 14 34 bb 71 bb 71 bb 18 50 e6 bd a9 37 13 3b
       -0.002747823 -0.0036885405 -0.112457454 0.0022463596
000150 ed 91 d2 3d a2 f2 bc 3a 0c ea 09 3e 9a 9a 98 3d
       0.102817394 0.0014415572 0.13468188 0.07451363
000160 bf 32 97 bb b8 5e 01 be 01 f9 05 3e ed 88 b5 3d
       -0.0046142037 -0.12633789 0.13083269 0.08864007
000170 9a df 06 3c da 10 28 3d 79 38 e0 bd 65 f0 bc bd
       0.008232022 0.041031696 -0.10948271 -0.09225539
000180 1e 76 a7 bd 96 7f bb bd fc 2a 8c bb 8a 18 cb 3d
       -0.08176826 -0.091551945 -0.004277585 0.0991679
000190 0a f2 c7 bd 47 ca cb bd b9 44 7a 3d 7a ea ce bd
       -0.09762962 -0.09950691 0.061100695 -0.101033166
0001a0 b8 cb 79 3d f5 80 25 3d 73 70 ce 3d 7b 22 ae 3d
       0.060985297 0.040406186 0.10080042 0.085026704
0001b0 75 54 a2 3d 00 8a af 3d 14 04 e1 bd b1 1a 0b be
       0.07926265 0.08571243 -0.10987106 -0.135844
0001c0 60 c7 db bd 96 a0 07 3e 0d 74 a7 3d 58 db cf 3b
       -0.10731387 0.13244852 0.08176432 0.0063432865
0001d0 fa 89 b7 bc 57 64 81 bd 33 a5 2c 3d 7b 42 09 be
       -0.02240466 -0.063179664 0.042149734 -0.13404267
0001e0 04 26 22 bd 88 dc 49 3d c3 11 04 3e 7d 57 aa 3c
       -0.039587036 0.04928258 0.128974 0.02079367
0001f0 d2 2a 52 3d 4a 48 00 be ca 00 01 be 35 49 df bc
       0.051310368 -0.12527576 -0.12597957 -0.027256588
000200 9d 68 32 3d e8 c8 79 bd 6b fa 88 bb e9 c0 01 bd
       0.0435568 -0.060982615 -0.004180243 -0.031678114
000210 84 a1 01 be 64 4f f0 bd a3 47 ef bd 7e ed 95 3d
       -0.1265927 -0.117338926 -0.116835855 0.07320689
000220 07 f3 ca 3d 07 1b 8f 3c 45 95 63 3d 33 c9 81 3d
       0.09909635 0.017468942 0.055562276 0.06337204
000230 91 af 98 3d c7 8f bb 3d a8 00 75 bb 14 9a b0 3c
       0.07455362 0.09158283 -0.0037384424 0.021557845
000240 a0 cc d2 3c 57 ae a9 bd 85 ea 1b bd 45 9f 95 bd
       0.025732338 -0.08285206 -0.038065452 -0.07305769
000250 9c 9b 01 3e 86 95 db 3d 25 8f 0e 3e 9c c9 c6 3d
       0.12657017 0.10721879 0.13921793 0.09706423
000260 a9 bc 86 3d f9 a6 c6 3d 65 28 ca bd ef 85 98 bd
       0.06578953 0.09699816 -0.09870986 -0.07447421
000270 9f 0f 15 3d 07 23 4e 3c 32 bf 7f bd d0 7e 15 3d
       0.03639185 0.012581593 -0.062438197 0.03649789
000280 6a 9f 72 3d d2 20 d7 bd 32 db 8c bb c7 f4 c8 3c
       0.05923406 -0.10504307 -0.004298591 0.024530781
000290 55 d1 ad 3d df 9f e8 3d da 33 ab bd f8 82 86 bc
       0.084871925 0.11358618 -0.08359499 -0.016419873
0002a0 0a f0 eb 3d 1c 21 98 3c 4d f7 ce 3d 43 58 9b bd
       0.11520393 0.018570475 0.10105763 -0.07585194
0002b0 6c 2f 29 bd bd 4f 9f 3d d3 cd 56 3d ce 98 b7 3d
       -0.04130499 0.07778881 0.052442383 0.08964692
0002c0 bf d0 2d bd 6f 44 92 bd 9a 84 a1 3d e9 ae 64 3d
       -0.042435404 -0.07141959 0.0788662 0.05583087
0002d0 8a a1 b9 ba 52 85 c0 3d d7 9d bf bb 7e 05 eb 3d
       -0.0014162522 0.09400429 -0.0058476734 0.11475657
0002e0 30 b0 87 3d d1 04 d9 3d 0c 7d b5 3d eb 55 d4 bc
       0.06625402 0.10596622 0.088617414 -0.025919875
0002f0 49 a2 49 3d cb b3 0c 3d 7b f2 94 3d 49 f9 88 bb
       0.049227033 0.03435115 0.07272812 -0.0041801077
000300 b9 1f 03 3d 78 ef 59 bd ae 94 0e be af 8e 8d 3d
       0.032012675 -0.05320689 -0.13923904 0.0691198
000310 80 4b cf bd db 91 fd 3c 5d da a3 3d 35 3d fa bd
       -0.10121822 0.030953338 0.08000634 -0.122187056
000320 da 6b 08 3e 02 70 88 3d f7 a3 5f bd 25 ae c1 bd
       0.13322392 0.06661989 -0.05459973 -0.094570436
000330 e0 b2 d5 bd 47 6a 02 be 4d 4f 51 bd 5c d2 48 bd
       -0.10434508 -0.12735854 -0.051101018 -0.04902874
000340 64 9a f7 3d 71 de 87 bd 64 82 b9 bc 38 3b b0 bc
       0.120899945 -0.06634224 -0.022645183 -0.021512613
000350 26 c4 9d bd 0a f9 dc bd dd 13 0a 3e 54 9e 8e bc
       -0.07703428 -0.10789688 0.1348414 -0.017409481
000360 76 92 79 3d 34 08 f6 3d 30 b7 8a 3c ce 8a d7 bd
       0.06093069 0.12013283 0.016933054 -0.10524522
000370 8f 5b 0f 3e 65 f7 e7 39 ee d9 ed bd fc 65 04 be
       0.1399977 0.00044244077 -0.116138324 -0.12929529
000380 fa dd 67 bd 75 e8 13 bd c4 c7 78 bc 16 fc 61 3c
       -0.056608178 -0.03611036 -0.015184347 0.013793012
000390 57 32 69 3d 23 56 f7 3d bf 4a d2 3d c7 04 01 be
       0.056932773 0.12076976 0.10268163 -0.12599479
0003a0 16 48 dd 3d 09 aa 95 bd b8 ac 7c bb 5d d2 63 bd
       0.10804765 -0.07307822 -0.0038555097 -0.05562054
0003b0 71 0d f3 3d b2 08 b9 3c d0 2e 35 bd 45 ec 08 3e
       0.11867798 0.022587154 -0.044234097 0.1337138
0003c0 9a 91 ba 3c f0 36 b4 3c 20 5f 61 bd e5 de 27 bd
       0.022774506 0.021998852 -0.05502236 -0.040984053
0003d0 91 b4 bb bd 4b 29 bb bd 53 16 30 3d 0b 8b ed bb
       -0.091653 -0.091387354 0.04299004 -0.007249241
0003e0 8f cc 34 bd 6d 65 4e bc 02 8b 57 bd 81 f7 4f 3d
       -0.044140395 -0.012597424 -0.052622803 0.050773147
0003f0 60 bd df bd 6f dd 49 bd aa 25 97 bc e8 3e a0 3c
       -0.10924792 -0.04928344 -0.018450577 0.019561246

lstm.weight_hh_l0 f4 [200, 50]
000000 0d ac 7f bd 1a ac 20 3d d3 f6 b7 bd 64 5e ae 3d
       -0.06241994 0.03922663 -0.08982625 0.08514097
000010 1a 89 04 3e a2 94 90 3d 1c ca 2c 3d f1 77 51 3d
       0.12942925 0.070595995 0.042184934 0.051139776
000020 3b 06 ce bd 09 a8 04 be 99 2d a4 3d 18 99 dd bd
       -0.10059782 -0.12954725 0.080165096 -0.10820216
000030 59 e8 64 bc 53 39 60 3d 8e b6 a5 bc 0b fe 02 be
       -0.013971412 0.05474217 -0.02022865 -0.12792222
000040 b6 15 9f bd 5b f8 96 3d 56 d6 b2 3d 79 6a 8e bd
       -0.07767813 0.07371589 0.087322876 -0.06953902
000050 d0 cf 76 3d 35 5f bd bd e3 6e b5 3d df 70 23 3d
       0.06025678 -0.09246675 0.088590406 0.039902564
000060 6f 9d f2 bc c0 b4 91 3d 12 64 f0 3c fc 03 ba bd
       -0.029616086 0.071145535 0.029344592 -0.09082791
000070 18 51 03 3e ab 20 99 3d 1b 5c 00 be 7a df 04 3e
       0.12823904 0.07476934 -0.12535135 0.12975875
000080 f1 d0 e1 3d 2c 03 7c 3d b8 44 12 bd a7 4e d4 3d
       0.110261805 0.061526462 -0.035710067 0.10366564
000090 62 70 05 be c5 c2 d3 bc e4 69 09 bd d0 a7 82 3d
       -0.13031152 -0.02584971 -0.03354825 0.06379664
0000a0 50 3e 04 3d d3 5d d7 3c 0f bd f3 bd f2 ae fa bd
       0.03228599 0.026289856 -0.119012944 -0.122403994
0000b0 5f 43 ec 3c 9e 4e 0c be 90 bf ba 3d fc 9c ba bd
       0.028840719 -0.13701865 0.09118569 -0.09111974
0000c0 97 bd 46 bd f7 cd 95 bd 06 aa 0a 3e 6a 46 3c 3d
       -0.04852065 -0.07314675 0.13541421 0.04596559
0000d0 9e 94 e4 3d f7 71 3b 3d 2b 50 21 ba f0 2a 30 3d
       0.11161159 0.045762982 -0.00061536086 0.0430097
0000e0 ff d5 10 3c f9 ed 74 bd d8 cb 12 3d 80 75 00 be
       0.008840083 -0.05979726 0.03583893 -0.12544823
0000f0 d7 5f ed 3d 44 95 13 3d 57 be dc 3d 30 2e fd 3c
       0.115905456 0.036031023 0.10778492 0.030905813
000100 43 38 a1 bd 12 4d a7 3d 94 94 c6 bd 94 78 e3 3c
       -0.07872059 0.08168997 -0.09696308 0.027767457
000110 e9 b9 0a 3e e0 fa e2 3d d2 e4 16 bc 74 4d 10 be
       0.13547482 0.11083007 -0.009209828 -0.14092046
000120 cd 69 8c bd 34 e1 ef bd 0f 7a 0b be 8c 7c 97 bd
       -0.068561174 -0.11712876 -0.1362078 -0.07396802
000130 d7 bb 08 bc 8e b9 eb bd 23 67 8f 3d 39 99 55 bd
       -0.008345566 -0.11510001 0.07002094 -0.052148078
000140 7d f2 c0 3c a7 5b 78 bd 45 1f 00 3e 7b 63 c3 bd
       0.023553127 -0.06063428 0.12511928 -0.09540459
000150 69 5b bb bd f3 5f b4 bc 55 8b b2 3d 0f cd 0b be
       -0.091482945 -0.022018408 0.08717982 -0.13652442
000160 8b 02 5c bd 1d 04 0d 3e dc c0 7f 3c 37 32 a9 3c
       -0.053713363 0.137711 0.015609946 0.020653827
000170 2b b9 09 be ba 4c 12 bd ee 44 54 bd 2e cd bc bd
       -0.13449542 -0.035717703 -0.05182355 -0.092188224
000180 47 5b 07 3e e7 20 aa 3c 56 fb a0 bd 88 3d fe bd
       0.13218413 0.020767642 -0.078604385 -0.1241408
000190 00 5e fa bc 65 57 27 bd 72 b2 0e 3d da 1e 68 3c
       -0.0305624 -0.04085483 0.034838147 0.014167512
0001a0 45 d9 81 3c 46 43 e3 3d f9 8c 17 bd d6 88 0c be
       0.015850672 0.11096816 -0.036999676 -0.13724074
0001b0 d4 d6 a2 3d 19 0a 93 3d 9f c7 ca bd 3b df e8 bd
       0.079511315 0.0717966 -0.09901356 -0.11370703
0001c0 49 16 0c 3d df 30 55 bd 73 05 c8 bd bf 65 f6 bc
       0.03420094 -0.05204856 -0.09766664 -0.030077813
0001d0 cd 84 6f bd 19 eb ec 3c 20 d7 c8 3d bc 08 58 bc
       -0.058476258 0.028920697 0.09806657 -0.013185676
0001e0 2d 3b 64 bc ea da ff bc 23 33 bf bd 3d 31 bc bd
       -0.013930124 -0.031232316 -0.093359254 -0.09189079
0001f0 14 db 98 bd 1e 8b bd bd 5f 94 c1 3d df 48 94 bd
       -0.07463661 -0.0925505 0.09452128 -0.072404616
000200 5f 10 2a 3d d6 ca 0d be 07 dc e2 3d 7d 62 0e be
       0.04151952 -0.13846907 0.11077123 -0.13904758
000210 7b cf db 3d ef e3 bb bd e6 79 97 bd cb 9c d7 3c
       0.10732933 -0.09174334 -0.07396297 0.026319882
000220 6d d8 3b bc 92 1a b7 bd 8f ab c5 bd 78 4b 9d bb
       -0.011465174 -0.08940615 -0.09651863 -0.0048002563
000230 27 2e fd bc 82 d1 ce 3d 40 c6 b5 bd 0e bb 5b bc
       -0.030905796 0.10098554 -0.08875704 -0.0134112965
000240 d1 95 f1 bd aa 1a c7 bd 11 35 8e 3d 56 d2 9c bd
       -0.11796153 -0.09721883 0.06943715 -0.07657306
000250 e1 e8 b4 bd 5c 7e a1 bd 17 17 0f 3e 5b b8 de 3d
       -0.088334806 -0.07885429 0.13973652 0.10875007
000260 c2 78 a2 bd 20 25 09 be ba ae 42 bd 44 37 92 3c
       -0.07933189 -0.13393068 -0.047529913 0.017848618
000270 26 30 3d bd 1c ee f0 3d e8 7c ea bd bd e3 1c 3d
       -0.046188496 0.11764166 -0.11449605 0.038303126
000280 ba 4a b6 bd 26 3c 81 3d 55 b5 eb bd 02 e9 18 3c
       -0.08900972 0.063103005 -0.11509196 0.009332897
000290 38 c5 03 3e 03 d5 05 3e 16 c6 0c 3e 15 72 7a bd
       0.12868202 0.13069539 0.13747439 -0.061143953
0002a0 a9 74 e7 3d 54 13 c8 bd 2f b0 d1 bd d0 4e 91 3d
       0.11301548 -0.097693115 -0.102386825 0.070951104
0002b0 ef 5d 0a 3e ad 0b c1 bd 5a ad 5f 3d a0 f5 f8 3c
       0.13512395 -0.09426055 0.05460868 0.03039056
0002c0 50 a3 0e bd a1 78 b1 bd 15 9c 9b bd c3 02 8a 3d
       -0.034823716 -0.08665586 -0.0759813 0.06738808
0002d0 bb d4 b1 bd a0 c6 5c 3d 54 03 88 3d a7 d8 5e 3d
       -0.08683153 0.05390036 0.0664126 0.054405835
0002e0 c4 8f 2d bb ad 93 91 3d 76 35 c8 bd 6e 31 33 3d
       -0.0026483396 0.07108245 -0.09775822 0.04374831
0002f0 97 67 63 3d 5c 43 c3 3c 69 85 8f bd 85 bc bc bd
       0.055518713 0.02383583 -0.07007868 -0.09215645
000300 7d 10 c8 3c 06 3d 0c be 77 a5 75 bd a5 7f 05 3e
       0.024421925 -0.13695154 -0.059972253 0.13036974
000310 da 85 b4 3d eb 9f be bc 3c d4 ea 3d 80 98 d6 3d
       0.08814593 -0.023269614 0.11466262 0.10478306
000320 4f 7a 30 bd d2 b1 a0 3d 5e 54 ae 3d 7e 10 25 3c
       -0.043085393 0.078464165 0.085121855 0.010074733
000330 a8 7e e8 3d 0f 45 81 bc 6a 93 8f 3a d6 32 f6 3b
       0.11352283 -0.01578 0.0010953967 0.0075133843
000340 b4 ca 22 3d ce 68 b7 bd 7d 7f 3d 3c fe ed 7b bd
       0.039744094 -0.08955537 0.01156604 -0.061506264
000350 cb ab d8 3d f1 6b ab 3d c4 70 39 bd 28 2d 0e 3e
       0.10579642 0.083701976 -0.045273557 0.13884413
000360 87 fe f6 bd 2f 36 aa 3d 6c db 47 bd 42 f2 c9 bd
       -0.12060266 0.08311116 -0.04879324 -0.0986066
000370 db 37 f3 3d 94 25 74 bd d6 d3 ea bd 37 ab 5b bd
       0.11875888 -0.05960615 -0.11466186 -0.05363008
000380 62 85 75 3c 31 93 98 3d 11 da 93 3d 02 e9 6e bd
       0.014985414 0.074499495 0.07219327 -0.058327682
000390 b7 a3 3e bd d1 66 ec bd a0 c6 97 bd 4c c3 ab bd
       -0.04654285 -0.11543048 -0.074109316 -0.08386859
0003a0 4f 00 fa bd f1 77 25 bd d2 74 73 bc 48 ff 7b 3d
       -0.1220709 -0.04039759 -0.014859395 0.061522752
0003b0 74 4a ea 3d 75 2b e6 bc 37 6f 05 3d 27 12 bb 3d
       0.11439982 -0.028096894 0.032576766 0.09134322
0003c0 80 65 9e bc 05 ca 18 bd d3 e1 b5 bd 77 ba d7 3d
       -0.019335508 -0.037302036 -0.08880963 0.10533612
0003d0 c6 b0 04 3c 6c e3 bb 3d 98 a2 1c bd 43 a4 ae 3d
       0.008098787 0.09174237 -0.038241 0.08527424
0003e0 f0 53 08 be dc 1e 15 3d 4f 5c 4a 3d a4 78 cc 3d
       -0.1331327 0.036406383 0.04940444 0.09983948
0003f0 8a 80 7e 3b 4e 89 f5 3c 8e a5 54 3d 3c b8 30 bd
       0.003883394 0.029972699 0.051915698 -0.04314445

lstm.bias_ih_l0 f4 [200]
000000 34 76 8a bc 18 23 2a bd 37 ca 65 3d e2 e7 dd 3d
       -0.016902067 -0.041537374 0.05610105 0.10835244
000010 4f 44 54 bc 7c d9 05 3e 63 93 ce 3d 12 b8 d8 3d
       -0.012955739 0.13071245 0.100867055 0.105819836
000020 f0 a3 34 3d 8d e3 ea bd ff f7 01 be d3 3a 36 3d
       0.044101655 -0.11469183 -0.12692259 0.044489693
000030 11 7a bf bd 77 6f 07 be 8b 1a 80 3d 74 e9 4b 3a
       -0.09349454 -0.13226114 0.06255063 0.00077786227
000040 b0 f2 78 3c 4c 18 71 bd 7d 61 9c bc 15 03 d0 bc
       0.01519458 -0.058861062 -0.019089455 -0.025392095
000050 43 b6 dd 3c aa da b7 3d 6a 30 7d bd 10 af cd 3c
       0.027064448 0.08977254 -0.06181375 0.02510789
000060 22 5a 10 be 2b a4 d1 3c 8d 07 df 3c 2e 9e 04 bb
       -0.14096883 0.025590977 0.02722528 -0.0020235884
000070 13 94 dc bd 5a 86 bf 3d 8c 8a ce 3d ba 85 bd 3d
       -0.107704304 0.093517974 0.100850195 0.09254022
000080 e5 d1 d9 bd b8 5c 9a bd b4 a0 67 bc 5f d2 09 be
       -0.10635737 -0.07537216 -0.014137436 -0.13459156
000090 a1 d1 d0 bc 9b 00 aa bd b6 37 08 be c4 a4 81 bd
       -0.025490584 -0.08300897 -0.13302502 -0.06330255
0000a0 1b c8 d7 3d f5 04 19 bd 31 ac 00 3e 85 a0 85 bc
       0.10536214 -0.037358243 0.12565686 -0.016311893
0000b0 1e 06 ef 3d 99 9a 84 3d 5f 47 07 bd e6 59 04 3e
       0.11671089 0.064748 -0.03302705 0.12924919
0000c0 2e e8 21 bd 41 3e ed 3a c0 2a d2 3d 96 18 1c bd
       -0.039528064 0.0018100218 0.1026206 -0.038109384
0000d0 e5 e4 bd bd c1 76 bd 3c ca 07 a2 bd 47 9b a6 3d
       -0.09272174 0.023127915 -0.07911642 0.081350856
0000e0 77 e3 c6 3d d6 48 b1 bc dd dd 6f bd e8 d1 c2 3c
       0.09711354 -0.021641176 -0.058561195 0.023781732
0000f0 94 47 d8 3d 60 2a 5f bd 24 84 42 bd ce 27 09 be
       0.105605274 -0.05448377 -0.0474893 -0.1339409
000100 45 d0 05 be f2 22 0a be 26 5a 00 be 7a f3 2a bc
       -0.1306773 -0.13489893 -0.12534389 -0.010434026
000110 36 b7 7b 3d f0 a3 08 bd 4e 40 d7 3d fd 81 b1 bd
       0.06145402 -0.033359468 0.10510312 -0.086673714
000120 61 b5 a4 3c 17 97 08 3e ae 0a 5f bd 2e ca ab bd
       0.02010602 0.13338886 -0.054453544 -0.08388172
000130 09 96 93 bd e1 05 09 3e 29 28 69 bd 40 d8 02 3d
       -0.07206351 0.13381149 -0.056923065 0.031944513
000140 7e 3e 00 3e 1d f0 a5 bd 5f ce ea bc 7f d3 b9 bc
       0.12523839 -0.081024386 -0.028662859 -0.022683857
000150 ee 12 7b 3d 65 ce a4 bd 10 cf 01 be 70 06 8b 3d
       0.06129735 -0.08047179 -0.12676644 0.06788337
000160 71 56 fd 3d e1 13 4c 3b b6 03 90 bd 99 2e 9a bd
       0.12370003 0.0031139778 -0.07031958 -0.07528419
000170 f1 62 09 3e 80 9b 0e be 91 39 10 be e7 a3 89 bd
       0.1341665 -0.13926506 -0.1408446 -0.06720715
000180 fc d7 e7 bd a7 8c 0e bb c5 76 c1 bd 6f 06 0d 3d
       -0.113204926 -0.0021751316 -0.094464816 0.034429964
000190 90 2a 7f bd b1 a1 a9 bd c6 09 98 3d 2b 82 db 3d
       -0.06229645 -0.08282793 0.07423739 0.10718187
0001a0 d1 e8 77 bd 23 09 c4 bd d0 27 6a bd 8e c8 06 3e
       -0.060524765 -0.09572055 -0.057166874 0.13162443
0001b0 a4 fb 03 3e 6d 61 c0 bd 9d 26 db 3d bd b0 ff 3c
       0.12888962 -0.093935825 0.10700724 0.031212205
0001c0 87 55 0b be 7a aa b4 3c 50 af c0 3c 8e 3f ab bd
       -0.13606845 0.022053946 0.023521096 -0.083617315
0001d0 d2 82 e5 3d c1 9d f9 bd c4 2d 98 3d 9a 37 db bd
       0.112065926 -0.12188292 0.07430604 -0.107039645
0001e0 20 08 1e bc 5e 97 0a be 3f 48 f3 3d ff a5 89 bd
       -0.009645492 -0.13534304 0.11879014 -0.06721114
0001f0 3a 03 80 bd fa 1d 9b bd ff 56 14 3d 20 a2 3e 3d
       -0.062506154 -0.07574077 0.03621578 0.046541333
000200 9a 1f 53 bd ed 2e 09 3e d7 b3 b0 bd cb 73 dc 3d
       -0.05154381 0.13396807 -0.08628052 0.10764273
000210 c2 79 fe 3d 72 a0 87 3d df 9b 9a 3d 74 e3 bf bd
       0.12425567 0.066223994 0.07549261 -0.09369555
000220 2b 8e aa bd a8 0d fa bd 75 ba f8 3d 52 0c 82 bd
       -0.08327898 -0.12209636 0.12144939 -0.06350006
000230 36 0c d1 bc ff 3e 93 bd 48 6f af bd ef 4c ab bd
       -0.025518518 -0.0718975 -0.08566147 -0.08364283
000240 79 96 c2 bc ea d2 d6 bc aa 45 25 3d 8a 02 e1 3d
       -0.023753392 -0.026223619 0.04034964 0.109868124
000250 4e 8c 00 3e 73 5a 76 bd ba 15 21 bd 91 93 08 3e
       0.12553522 -0.060144853 -0.03932736 0.13337542
000260 d3 55 4d 3c 7f 85 80 bd 93 8f a5 bd f2 a9 ce 3d
       0.012532669 -0.06275462 -0.08084025 0.10091008
000270 ba 41 4b bb 49 43 b1 ba 04 15 85 bd ef 2e 79 bb
       -0.0031014518 -0.0013524081 -0.06498149 -0.003802236
000280 48 75 e3 bd d9 52 d5 3b c2 df de 3d 9c 57 d9 bd
       -0.11106354 0.0065101204 0.10882522 -0.10612413
000290 79 6e a6 bd 55 08 09 3e 54 99 a0 bd f2 99 fa 3d
       -0.0812654 0.13382085 -0.07841745 0.12236394
0002a0 33 cb e1 3d 49 0b 45 3d 1e 3e 10 3e 23 58 dc bd
       0.11025085 0.048106465 0.14086196 -0.10758998
0002b0 fd 4d 0e be 4c c4 ff 3d 0e 1a f2 3d 5c a1 0f bd
       -0.13896938 0.124886125 0.11821376 -0.035065994
0002c0 5b b4 ef 3d dc 46 3a 3c ce e5 27 3d 6b 67 c8 3d
       0.11704322 0.011369433 0.040990643 0.097853504
0002d0 17 bf 88 bd a3 45 9c 3d 8b b5 1e bd 67 bc f5 bd
       -0.066770725 0.0763047 -0.03874735 -0.119988255
0002e0 d9 e3 39 3d 36 28 32 bd 67 9c 24 3d 62 1d 03 be
       0.045383308 -0.04349538 0.04018822 -0.12804177
0002f0 74 7b e1 3d 13 b7 06 3e 03 96 8d 3d d3 fd 0d be
       0.11009875 0.13155775 0.06913378 -0.13866358
000300 34 aa 40 bd 5e 42 a8 bd f3 5a a7 bd f9 0c c6 3b
       -0.04703732 -0.082157835 -0.08171644 0.006044027
000310 90 10 7d bd 72 82 89 bd 4b e6 71 3d e2 c4 4e bc
       -0.061783373 -0.067143336 0.059057515 -0.012620183

lstm.bias_hh_l0 f4 [200]
000000 7e 25 27 bd 21 53 b6 bb 08 48 bf 3d d3 ac 4e 3d
       -0.04080724 -0.005564109 0.09339911 0.050457787
000010 79 97 07 3e 8f b4 09 3e 6a 5d e6 3b 46 bf f8 3d
       0.13241376 0.13447784 0.007030179 0.121458575
000020 11 ed 0c 3e 6c d1 20 3d 29 c7 6a 3d ae 49 81 3d
       0.13762309 0.03926222 0.05731884 0.063128814
000030 8e 97 c9 3d 01 a9 d4 3b 54 a5 fc bd a0 9a 84 bd
       0.0984336 0.0064898734 -0.12336221 -0.06474805
000040 7d 86 9a 3c e2 17 21 bd 12 34 96 3d 35 13 96 3d
       0.018862957 -0.039329417 0.073341504 0.07327882
000050 40 87 cf bd a7 5f f9 3d 8e 70 c2 bd 48 2a 5c 3d
       -0.10133219 0.12176447 -0.09494124 0.05375126
000060 a5 fb 6c bd f3 30 1a bd 2b 2b 44 bd e6 c3 f4 3d
       -0.057857174 -0.037644338 -0.04789273 0.11951427
000070 3f 98 8e 3d 42 de 85 3d 9c 50 bb 3d 5f 1b bd bd
       0.069626324 0.06536533 0.091462344 -0.09233736
000080 92 73 c1 3d 5e 95 38 bd e7 16 2d bd bb 87 04 be
       0.094458714 -0.045064323 -0.04225817 -0.12942402
000090 a6 7a ec 3d 56 93 a1 3d 76 03 9d 3d 64 66 d5 bd
       0.11546831 0.0788943 0.07666676 -0.1041992
0000a0 31 42 3a bb 3a dc c3 3d 1e e9 0b bd ea 2e 72 bd
       -0.00284208 0.09563489 -0.034157865 -0.059126772
0000b0 20 51 04 be bf dd 83 3d c2 ff a7 bd e4 b7 24 bd
       -0.12921572 0.06438779 -0.08203079 -0.040214434
0000c0 84 99 8b bd 37 46 0d be fc e8 e2 3d 99 d4 fc 3d
       -0.0681639 -0.13796316 0.110795945 0.12345237
0000d0 a1 85 d4 bd 73 b1 a3 3c c5 1b 91 bd 69 84 be bc
       -0.1037705 0.019982075 -0.07085375 -0.023256497
0000e0 7c b0 08 be 32 00 ef bd 8b c2 cb 3d 7b 52 5c 3d
       -0.13348573 -0.11669959 0.099492155 0.053789597
0000f0 28 6b 57 bd 3d 1c 83 bb 3b 33 00 3c e6 6e af 38
       -0.052592427 -0.004001169 0.007824714 8.365307e-05
000100 52 42 f4 bd 5a aa eb ba fb c5 97 bd 80 05 5f 3a
       -0.11926712 -0.0017979846 -0.07410809 0.00085075945
000110 8f 2e 34 bd 28 d4 ae 3d 5c 2a 47 bd 03 57 33 3d
       -0.043989714 0.08536559 -0.04862438 0.043784153
000120 f9 5f cf bd b5 dc 4d bd f3 79 f8 bc 02 c1 0f 3e
       -0.10125727 -0.05025931 -0.030331587 0.1403847
000130 97 b3 cd 3c 97 a8 67 bd f7 5b 52 3d 75 86 ac bd
       0.02511005 -0.056557264 0.051357236 -0.08424083
000140 77 99 07 3e 4e 55 ca 3d ef 04 ed 3d b7 c0 d5 bd
       0.13242136 0.09879552 0.11573207 -0.10437148
000150 b8 67 bd 3d b1 01 1e 3d eb db c5 3d 2a 89 b3 bc
       0.092482984 0.03857583 0.09661087 -0.02191599
000160 66 03 07 3d c3 95 7b 3d 8c b1 01 bd e7 56 c5 3d
       0.032962225 0.06142212 -0.031663463 0.09635716
000170 00 10 8b 3b 34 ec 34 bd c6 e4 0e bd ec 93 0a bd
       0.0042438507 -0.044170573 -0.034886144 -0.033832476
000180 04 78 d8 3d 67 b5 f6 3d 99 fd 60 bc 78 e0 04 3d
       0.10569766 0.120463185 -0.013732337 0.032440633
000190 ea f6 d5 bd 8f 2e ea 3d 2f c5 10 3d 3b 98 8c bd
       -0.10447486 0.114346616 0.0353443 -0.06864973
0001a0 30 a5 fc bc c9 df 5d bd 7a dc b9 bc 5f 1e 63 3d
       -0.030840486 -0.054168496 -0.02268814 0.055448886
0001b0 d9 97 c8 bd 62 65 f9 bb 4d 6b 27 bd 2e 3f 7b bd
       -0.09794588 -0.0076109627 -0.040873814 -0.06133955
0001c0 99 e0 8a bd d5 94 a9 3d c0 26 b9 3c f4 e7 89 3d
       -0.0678112 0.082803406 0.022601485 0.06733695
0001d0 1a 5c c3 bd 61 d5 99 bd 91 11 11 bd ed ed bf bd
       -0.09539051 -0.07511402 -0.035417143 -0.093715526
0001e0 57 45 a5 bd d4 78 a1 bd a8 b5 61 3c 5e 00 5c bd
       -0.08069866 -0.07884374 0.01377622 -0.053711288
0001f0 c8 fd 80 3d 99 1c 27 bd df 85 e7 3c d8 c2 77 bd
       0.06298405 -0.040798757 0.028262077 -0.06048855
000200 66 df b0 3d c4 06 87 bd 77 69 0e be d8 99 8a 3c
       0.0863636 -0.06593087 -0.13907419 0.016919062
000210 f0 0e 8b bc 1b 0a 2b bd 2e d8 8e 3d f8 3a 11 3c
       -0.016974896 -0.041757684 0.06974827 0.008864157
000220 25 5e 0a 3e fe 35 10 be da a6 a0 bc d8 5c f7 bc
       0.13512476 -0.14083096 -0.019610811 -0.030195639
000230 88 e8 da bd 5b f2 fe bd 83 8f f2 bd 79 ae e2 bd
       -0.10688883 -0.124485694 -0.11843779 -0.11068434
000240 3c d4 03 3e 5a d4 38 bd 33 04 c1 bd d2 f9 04 bc
       0.1287393 -0.04512439 -0.09424629 -0.008116202
000250 8b 94 83 bd ea a7 c8 bc 02 b2 b7 3d ac 04 50 bd
       -0.06424817 -0.02449413 0.08969499 -0.050785705
000260 cf 85 fa 3d 98 da 78 3d c2 58 8f 3d 17 11 d1 bc
       0.12232553 0.060755342 0.06999351 -0.025520844
000270 bd 4d b7 bd 22 3e bf 3c 0f 88 d5 3d c5 7a e4 bd
       -0.08950374 0.023345057 0.10426342 -0.11156229
000280 78 55 1a bd 02 92 45 bc 3b 4b b2 bd e3 9e 63 bd
       -0.037679166 -0.012058737 -0.08705755 -0.055571448
000290 e7 52 92 bd 04 ce 39 3c c6 74 d4 bd b0 63 fe 3c
       -0.071447186 0.011340622 -0.10373835 0.031053394
0002a0 d1 13 d8 3d 53 d6 82 3d c8 70 5c ba 95 d1 f4 3d
       0.10550655 0.06388535 -0.00084091397 0.11954037
0002b0 b1 00 81 bd 37 81 99 3c a8 53 05 bd 6f 42 ee 3d
       -0.0629896 0.018738372 -0.032550484 0.11633765
0002c0 5c 20 b6 3a 49 c3 02 3d 33 38 ee bd 5c e5 a0 bd
       0.0013895142 0.03192452 -0.11631813 -0.07856247
0002d0 0b 60 c4 bb d3 73 f8 3d fb 79 09 3d f1 78 07 be
       -0.0059928945 0.12131467 0.033563595 -0.13229729
0002e0 48 72 06 bd 55 97 0b be 46 a7 ef 3b df a4 8c bd
       -0.03282383 -0.13631947 0.0073136417 -0.06867384
0002f0 d9 ed bf 3d 9d 4b ba 3d f0 fd b0 3d 94 b4 ae bc
       0.09371538 0.09096453 0.08642185 -0.02132634
000300 7b f8 14 3d 15 16 e1 3d bd fc da bc b6 90 0a 3e
       0.036369782 0.1099054 -0.026731843 0.13531765
000310 0a 32 8a 3c 67 ce bb 3d b1 f8 d5 bd b5 b0 9f bd
       0.016869564 0.091702275 -0.10447825 -0.07797376

lstm.weight_ih_l1 f4 [200, 50]
000000 76 24 a0 3d 82 ad 07 be 95 9f 66 bd fa 1f 18 3c
       0.07819454 -0.13249782 -0.056304533 0.009284968
000010 55 1d 66 bd a1 e8 c2 3d 57 ec bc bc 5e 7f f9 bd
       -0.056180317 0.09517027 -0.023061914 -0.121824965
000020 00 fc 66 3d 36 cc d9 bd 6d 6b 1a bd 5a ff 25 bd
       0.05639267 -0.10634653 -0.037700105 -0.040526725
000030 5f 85 ad 3d b9 26 a3 bd 79 9c 03 3d 5d 78 69 3d
       0.08472704 -0.0796637 0.032131646 0.056999553
000040 cc 0b db 3d 39 77 0b be 82 dd 3a bd f1 35 0d 3e
       0.106956095 -0.13619699 -0.045621403 0.13790108
000050 a9 60 0b be 0d 4d 53 bd 10 6a a5 bd 8b 0c 08 3e
       -0.13611092 -0.051587153 -0.080768704 0.13286035
000060 b9 9b 00 be c0 23 ff bd 05 c0 dc bd 4a b6 46 3d
       -0.12559403 -0.12457991 -0.10778812 0.04851369
000070 32 0d 24 bd 13 d8 5a 3c 29 28 df 3d f1 f0 a7 3c
       -0.040051647 0.01335718 0.10896332 0.020500632
000080 96 b5 a3 bc 32 99 2e 3d fb bc 09 be af 45 0f 3e
       -0.019984048 0.042626567 -0.13450997 0.13991426
000090 81 c1 9b bd 8c e1 04 3e 0d bd 85 3d ab f0 bc 3d
       -0.07605267 0.12976664 0.06530199 0.09225591
0000a0 4a 96 4a 3d a9 86 83 bd cc d2 0c 3e 59 fb bc 3d
       0.049459733 -0.06422169 0.13752288 0.09227628
0000b0 b8 06 1f bd a1 14 79 bd 94 73 bf 3d 30 53 91 bd
       -0.038824767 -0.06081069 0.09348217 -0.07095945
0000c0 38 84 af 3d 4a 77 b6 3d 17 a1 07 be 63 d5 6e 3d
       0.085701406 0.08909471 -0.13245045 0.05830897
0000d0 7a 7d 8d 3d 79 5c 97 bd f7 31 09 be ab 51 04 bc
       0.069086984 -0.07390685 -0.13397966 -0.008076112
0000e0 67 4a b1 3d 54 9f bb bc 49 7a 81 3d 4e 3d fa 3d
       0.08656769 -0.022903122 0.06322152 0.12218724
0000f0 c2 f4 c3 bd 24 46 d3 3c 16 5d a8 bd d1 a2 f5 bd
       -0.09568168 0.025790282 -0.0822088 -0.119939454
000100 50 9c 03 bd be 24 05 bc da 40 8a 3d 28 a7 e6 bd
       -0.032131493 -0.008126436 0.06750651 -0.11262351
000110 d5 63 0f be ef fa c5 3d d8 4b 05 bb 4c 20 04 bd
       -0.14002927 0.096670024 -0.0020339396 -0.032257363
000120 9a c8 6b 3d f0 57 24 bc 91 7f 05 be 50 cc 57 3d
       0.057564355 -0.010030732 -0.13036944 0.052685082
000130 68 98 3c bb 0b 0e d0 3c 20 93 55 3c b0 ee cb 3b
       -0.0028777365 0.025397321 0.013035566 0.006223522
000140 95 e3 80 bc 50 a9 46 3c 48 33 ae 3c 8a 5b df 3d
       -0.01573352 0.012125328 0.021264687 0.109061316
000150 ac ed 67 bd d0 4f cf 3d 05 62 d0 3d 82 0f 9d bb
       -0.056623146 0.10122645 0.10174946 -0.0047931084
000160 b0 3b 24 3d 93 a1 23 bd 4c f1 0f be 5c 5a 0c 3c
       0.040095985 -0.03994901 -0.14056891 0.008566465
000170 8d 9b 54 bd 1f 9d ea bc f8 0c f7 3d e1 9d c3 bd
       -0.051906157 -0.028639374 0.120630205 -0.095515974
000180 f5 5b 39 3a c8 5d d9 3d 01 2d 72 bd 39 c6 c0 bd
       0.00070708926 0.106135905 -0.05912495 -0.09412808
000190 42 5f b7 3d 5c 94 43 bd 1f cd ee bd 75 86 ac bc
       0.08953716 -0.04774891 -0.116602175 -0.021060208
0001a0 3e d0 63 bd f3 a8 56 bc f3 1b a3 3d 8e a2 0c 3e
       -0.055618517 -0.013101804 0.07964315 0.13733885
0001b0 2d 51 6c 3d 40 6a c3 bd c3 c1 a5 bd 2f d1 61 bd
       0.057694603 -0.0954175 -0.08093598 -0.055131134
0001c0 dc 28 e7 3d 01 b9 47 3d 36 8b fa 3d e4 bd 7b 3d
       0.1128709 0.048760418 0.12233584 0.06146039
0001d0 26 7a 5c bd c8 f7 96 3d 4c 6b a8 bd a3 7a 3c 3d
       -0.053827427 0.07371479 -0.0822359 0.046015393
0001e0 11 b1 0e 3d f1 51 af bc 31 3d e4 bd 81 04 bd bd
       0.034836832 -0.021401377 -0.11144484 -0.09229375
0001f0 4c 74 e7 bb e7 2e 9d 3d 6a e6 00 bb 2a 96 36 3c
       -0.007063424 0.076749615 -0.0019668587 0.0111442
000200 c9 86 81 3c 76 ff 2a bd 9d a4 e5 bd 31 b9 8e 3d
       0.01581134 -0.041747533 -0.11213038 0.06968916
000210 96 d5 d4 bd 7a 6e cc 3d 89 4e cc 3d 30 8f b9 bc
       -0.10392301 0.09982009 0.09975917 -0.022651285
000220 9e d0 2a ba ae f7 85 bd ee 19 e7 bb 55 be bb ba
       -0.0006516072 -0.06541382 -0.0070526516 -0.0014323691
000230 80 5b ce 3d 2b 1c 83 3c fe 0a 27 3c 98 42 09 be
       0.10076046 0.016004642 0.010195492 -0.1340431
000240 a1 7c ee bd c0 dd 89 bd a0 4b b6 bd 2b 3c e1 3d
       -0.11644865 -0.067317486 -0.08901143 0.10997804
000250 b0 ac 3d 3d f2 e2 18 bd 31 66 65 bd 5d 2a f9 3d
       0.046307266 -0.037325807 -0.05600566 0.12166283
000260 bb 93 0d 3d 86 5e c2 3d 1b 60 cd 3d 7f fc c4 bd
       0.034564715 0.09490685 0.10028096 -0.09618472
000270 0a 99 05 be 46 bc 01 3e 27 28 45 bc 1a 08 b0 3d
       -0.13046661 0.12669477 -0.012033499 0.08595295
000280 e2 4d bf bd 2f c2 de 3a bd d9 cd bc da 3c be bb
       -0.09341027 0.0016995127 -0.02512824 -0.005805594
000290 36 9f 19 bd 51 0c a8 bd 99 4c a4 3d 70 c1 e5 bd
       -0.03750535 -0.08205474 0.08022422 -0.11218536
0002a0 7a dc ce 3d bb d3 c9 3b a4 fc ef bd 32 38 dc bd
       0.10100646 0.0061592734 -0.11718109 -0.10752906
0002b0 37 27 fc 3c da 50 7f bd 38 ef 73 3c 50 3a 62 3d
       0.030780418 -0.062332965 0.014888577 0.055231392
0002c0 2a 00 92 3d 58 50 3b bd e4 7f 15 3d e3 a0 00 3d
       0.071289375 -0.04573092 0.03649892 0.031403434
0002d0 4d 0b 92 bd de c3 82 3d 45 df c0 bd 81 46 66 3d
       -0.07131062 0.06385015 -0.09417585 0.05621958
0002e0 10 72 31 3d 50 b1 01 be 3f 7f 54 bd a2 94 08 3e
       0.04332167 -0.12665296 -0.051879164 0.13337949
0002f0 a9 1b b2 bd f7 7b ec bd da 87 04 3d 84 b4 8d 3d
       -0.08696682 -0.11547082 0.03235612 0.06919196
000300 de 19 e8 3c 96 20 9c bd 0b 13 a6 3c f4 5b 60 3d
       0.028332647 -0.07623403 0.020272752 0.054775193
000310 69 7b ec bd 50 d7 4f bc cf 81 a1 3c f6 be 8f 3d
       -0.11546976 -0.012685612 0.019715218 0.07018845
000320 3e 14 ad bd 7c 88 06 3d 68 12 d2 bc 96 ef e1 3d
       -0.084511265 0.032845005 -0.025643542 0.110320255
000330 0c 3d 3c 3b 73 8f a9 bd 03 4a 9f bd 9e 75 e4 bc
       0.002872291 -0.08279314 -0.077777885 -0.027888115
000340 24 fe 73 bb 36 e4 d7 bc 4a e8 92 bd 91 2f e7 bb
       -0.0037230337 -0.026353937 -0.07173212 -0.007055231
000350 d9 e3 e3 3b 46 78 2b 3d fc 15 ab 3c 4f 20 bf bd
       0.006954652 0.04186275 0.020884506 -0.09332334
000360 ba 16 c1 3d 0f 29 00 3e 76 23 b0 bd 5a cb 86 3d
       0.09428163 0.12515663 -0.08600514 0.06581755
000370 e9 59 16 bd 3a f9 09 be 31 14 94 3d ca f2 91 3d
       -0.03670684 -0.13473979 0.07230414 0.071263865
000380 e5 68 27 3d 14 f6 47 bc ea 6b 01 3c d7 a4 13 bb
       0.04087152 -0.012204666 0.007899264 -0.0022528672
000390 0f ac b5 bd d4 ee b5 3d f5 db 57 3d 92 ac 4b 3d
       -0.08870708 0.088834435 0.0527 0.049725123
0003a0 80 86 03 be 48 72 15 bd 54 50 cb 3c 91 09 b3 3c
       -0.12844276 -0.03648594 0.024818577 0.021855148
0003b0 d3 16 06 be a3 52 e2 3a c2 30 75 3d 5a 56 05 3e
       -0.13094644 0.0017267059 0.059860952 0.13021222
0003c0 b6 c4 05 3e 8b 65 54 3c c9 7d 0b 3e 47 21 43 3c
       0.1306332 0.012963663 0.13622202 0.011909789
0003d0 fb 85 aa bc 7f 35 d5 3d d5 f7 d0 3d 1e a8 a8 bc
       -0.02081584 0.10410594 0.1020352 -0.020587977
0003e0 17 4b 13 3d 12 3b f8 3d 35 76 fd bd cb 64 d6 bd
       0.035960283 0.12120642 -0.12376062 -0.104684435
0003f0 d5 df db bd a1 55 70 3d 8f 7a f0 3c ac e1 c6 bc
       -0.10736052 0.058675412 0.029355315 -0.02427753

lstm.weight_hh_l1 f4 [200, 50]
000000 08 5f b2 bd 14 07 98 bd 61 66 43 3d cc 75 f5 3d
       -0.08709532 -0.07423225 0.047705058 0.119853586
000010 ad b8 9c 3c 61 c3 28 bd 04 9d 89 3c ab f1 1c bd
       0.019131029 -0.041201953 0.016798504 -0.03831641
000020 b9 11 ef bc d5 74 65 3d b4 a9 ef 3d 2b 00 02 be
       -0.029183256 0.056019623 0.1170229 -0.12695377
000030 f7 c9 a5 bc ff 98 3f bd 70 86 f1 bd f9 2f 08 3c
       -0.020237906 -0.046776768 -0.1179322 0.008312219
000040 d8 eb 73 3d 28 e7 92 3c ea 7d 11 3d 50 3d dd bc
       0.05955109 0.01793249 0.03552047 -0.027006775
000050 3d 95 3e 3b 11 7c 9d 3d f4 aa ca 3d 6e fd 02 be
       0.0029080652 0.076896794 0.09895888 -0.12791988
000060 39 58 8c 3d a6 3a e0 3c a4 94 b2 bd d4 81 d4 bb
       0.06852765 0.027371716 -0.08719757 -0.0064852033
000070 e0 1d d8 bb cc d6 a9 bc 93 fb 07 3c 32 48 b9 bc
       -0.0065953583 -0.020732306 0.008299726 -0.022617433
000080 07 51 57 bc 1f 8e 0c 3c 22 72 1d 3d 6b e2 b3 3d
       -0.013141877 0.008578806 0.038438924 0.0878342
000090 fa 78 b7 bd 99 d8 00 3e cb 74 0f 3e a1 ad 42 3d
       -0.08958621 0.12582625 0.14009397 0.047528867
0000a0 95 ce 16 3d 72 08 88 bd b7 e2 0b 3e 75 15 74 bd
       0.036818106 -0.06642236 0.13660704 -0.059590776
0000b0 e0 81 bb 3d bf de 8f bd a1 31 0c bd b6 ab 0d be
       0.09155631 -0.07024907 -0.034227017 -0.13835034
0000c0 7c c3 d4 3c ff 2f 0f be 1a 23 95 3c d1 3a ff 3d
       0.02597212 -0.13983153 0.018205214 0.1246239
0000d0 27 c0 d4 3d c9 b6 5c bd b5 49 ab bd 8c 57 90 3d
       0.10388213 -0.053885255 -0.08363668 0.07047948
0000e0 b8 4c 23 bb 6c df de 3d 27 0a 9a bd c4 c8 16 3d
       -0.0024917554 0.10882458 -0.07521468 0.03681256
0000f0 9a 8e 55 3c e5 35 b2 3d f1 ec 43 bd 7a 17 2a bd
       0.013034487 0.08701686 -0.047833387 -0.041526295
000100 2c b0 27 bd b0 31 0b 3e 55 82 e0 bd 94 5c 04 3d
       -0.040939495 0.13593173 -0.10962359 0.032314852
000110 84 26 10 3e 0b e6 aa 3d 59 87 31 bd a9 1a 80 3d
       0.14077193 0.083446585 -0.04334197 0.06255085
000120 83 99 01 be 54 2d 0a 3e 0e 8b b7 3d 35 0f a9 bd
       -0.12656216 0.13493854 0.089620695 -0.08254854
000130 7c ea 1b 3c e2 21 8a bd 1a dd 24 bd ad 5f 04 3e
       0.009516355 -0.06744744 -0.04024992 0.12927122
000140 6f 27 04 be 88 6e b5 bd 5a 6a b4 bd 1d 4b d9 3d
       -0.12905668 -0.08858973 -0.088093475 0.1061003
000150 6e 53 0c 3d 0c 2e 0a 3e 4b ec 93 3c a1 67 5f 3d
       0.034259252 0.13494128 0.01805701 0.054542188
000160 3e 00 48 bd 76 47 af bd 62 5a 30 bd 43 c3 80 3d
       -0.048828356 -0.08558552 -0.043054946 0.06287243
000170 06 30 78 3d 5b ed 06 3e 4a 3b ae 3d 34 06 79 bd
       0.060592674 0.13176481 0.08507402 -0.06079693
000180 ff b3 2c bb 89 50 e7 bd e4 3e 7f bb 6e 61 af bc
       -0.0026352403 -0.11294658 -0.0038947398 -0.021408763
000190 69 f5 80 3d ac 01 f9 bd a7 6c d0 bd ac f7 d9 bc
       0.06296808 -0.12158522 -0.10176974 -0.026607357
0001a0 07 11 ea 3d 9d c5 13 bd 5a 50 b1 3d 3a 7b 86 bd
       0.11429029 -0.03607713 0.08657904 -0.06566472
0001b0 39 ce 6b 3d 53 4b c4 bc 6c e1 7d bd 6e 2d 11 3d
       0.057569716 -0.023961699 -0.061982557 0.035443716
0001c0 13 28 4f 3d e0 b2 eb bc 30 cf 49 3d 50 61 a5 bc
       0.050575327 -0.028771818 0.049269855 -0.020188004
0001d0 4b 91 cb bd cf 01 bc bd a1 c7 d5 bc 51 2b 0f be
       -0.09939822 -0.091800325 -0.026096167 -0.13981368
0001e0 d7 6f 0b 3e 9a 6b fb 3d 29 6c 64 3d 81 3c 6d bd
       0.13616882 0.12276383 0.055767212 -0.05791903
0001f0 9b 0f 34 3d b8 16 80 bd 37 b4 a4 bb 3b d3 63 bc
       0.043960195 -0.06254333 -0.005026366 -0.013905342
000200 0b 29 0e 3e ac d8 11 bd e1 20 09 be 1d 79 9d bd
       0.13882844 -0.035607025 -0.13391449 -0.07689116
000210 06 3f 28 bd 50 fb c3 bd e4 42 db 3d 8a e3 80 bd
       -0.04107573 -0.095694184 0.10706118 -0.062934
000220 0a 98 3f 3d 95 35 04 be f5 38 e4 bd 1b 6c 19 bb
       0.046775855 -0.12911065 -0.11143676 -0.0023410383
000230 3c 3f 0b 3d b6 de bb bd bb e8 b4 bd 96 03 10 3e
       0.033995852 -0.09173338 -0.08833452 0.14063868
000240 22 98 e5 3d 97 e1 fd 3d 77 ef 77 bd 55 a3 ad 3d
       0.11210658 0.123965435 -0.060531106 0.08478419
000250 91 da cd 3d 6e b8 fb bd b4 85 71 3c 7b 4f b6 bd
       0.10051454 -0.122910365 0.01474135 -0.089018784
000260 6a 0c c7 bc d4 2f e1 bd de 82 01 3e 7d 94 c8 3d
       -0.024297912 -0.109954506 0.12647578 0.09793947
000270 26 36 c0 3a b1 03 9c 3c ce 0c c4 3d 00 1b 90 3d
       0.0014664575 0.019044729 0.09572755 0.070364
000280 34 47 03 3e 29 98 45 bd 23 33 06 bc f7 81 8e 3d
       0.1282013 -0.048240814 -0.008190903 0.069583826
000290 fa b5 f5 3d be cd b7 bd e5 00 ec 3d d4 63 ab 3d
       0.119976 -0.08974789 0.11523608 0.0836865
0002a0 59 7f 0a 3e 97 10 7c 3b ed c5 8f 3d 90 af fd bd
       0.13525142 0.0038462037 0.07020173 -0.123870015
0002b0 62 4d e7 bd 36 ff b8 bd 7f 0e 0a be a9 1d c5 bd
       -0.112940565 -0.090330526 -0.13482092 -0.09624798
0002c0 b6 f8 fe bd a3 b2 73 3d 9a 24 07 be a8 d3 ee 3d
       -0.124497816 0.059496533 -0.13197556 0.11661464
0002d0 a5 f5 b4 3c 95 6c 7e bd 18 6d 7e 3c a6 00 eb bb
       0.022089789 -0.06211527 0.01552894 -0.007171708
0002e0 43 b7 1c 3d c3 74 98 3c 50 8c f5 3d 31 1a d7 3d
       0.03826071 0.018610364 0.11989653 0.105030425
0002f0 49 81 fa 3c 71 8f e9 bd ad 81 55 3d 05 f4 bb bd
       0.030579226 -0.114043124 0.05212562 -0.091774024
000300 da 4c ef 3d be 6a 05 3e 39 9d e5 3d 1c ac c5 3d
       0.1168458 0.13029 0.112116285 0.09651968
000310 86 ac 38 bc d7 f9 8d 3d 75 37 01 be 2b 34 a3 bd
       -0.011271602 0.06932419 -0.12618811 -0.079689346
000320 6c f5 bf bd 14 e9 fd 3c 1f 24 7e 3d 9d 72 e3 bd
       -0.093729824 0.03099493 0.062046167 -0.11105845
000330 5a 47 fc 3d 97 5d bd bd 8b ec 86 bd ee 40 cc bd
       0.12318297 -0.092463665 -0.06588086 -0.09973322
000340 9b b8 8e 3d ba d8 0d bd c2 63 fe bc 99 80 09 be
       0.069688044 -0.034630515 -0.031053428 -0.13427962
000350 74 fa 72 bd 78 3e bd bd cb b4 94 3b 1d 71 d7 3d
       -0.059320882 -0.092404306 0.0045381538 0.105196215
000360 19 7f 1c 3d 29 aa a8 bd 6c 58 e5 bc 97 33 71 3d
       0.038207147 -0.082355805 -0.027996264 0.05888709
000370 7c a6 c9 bd a9 b5 89 3b e6 03 01 3e ff a4 10 3e
       -0.098462075 0.004202564 0.12599143 0.14125441
000380 a4 82 21 bd 32 df 0b 3e 92 16 0c be c3 12 0b be
       -0.03943123 0.13659361 -0.13680485 -0.13581376
000390 2d 85 d7 bc 36 6d 39 bc 93 cf 09 3e 33 2a 04 be
       -0.02630862 -0.011317542 0.1345809 -0.12906723
0003a0 d1 4b 5c 3d be ec 87 bd 43 d7 18 bc b4 53 af 3d
       0.05378324 -0.06636952 -0.009328666 0.08560887
0003b0 be d4 e4 3d 99 2b c8 bd d6 5a e4 bd 3b 6d f0 3d
       0.1117339 -0.097739406 -0.11150138 0.11739584
0003c0 54 e4 94 bd 18 e8 0c 3e c7 f0 05 3e bb 73 de bc
       -0.07270113 0.13760412 0.1308013 -0.027154794
0003d0 4a 37 76 bd 91 3b ec 3d be 28 d3 bd 02 26 d8 3d
       -0.06011132 0.11534799 -0.10310505 0.105541244
0003e0 89 b1 ef 3d 8e b3 06 be 70 a1 75 3d 46 94 03 3e
       0.11703784 -0.13154432 0.059968412 0.1284953
0003f0 2f b7 31 bd 7c 7d cc bd f7 6c d7 3d 20 49 2d 3c
       -0.043387588 -0.09984872 0.1051883 0.010576516

lstm.bias_ih_l1 f4 [200]
000000 5d e7 4f 3d fa ec e4 bd d2 ad 13 bc 21 f7 eb bd
       0.050757755 -0.11178012 -0.00901361 -0.115217455
000010 9b de 66 3d c2 d6 22 3d 7f 37 1d 3d e7 e0 ba 3d
       0.056364637 0.03975559 0.038383003 0.09124928
000020 ae 11 05 be eb dc 4d bd bf ea 85 3d f9 79 0f 3e
       -0.12995026 -0.050259512 0.06538915 0.14011373
000030 e1 0c 22 bd 20 3d 0c 3e 6d 70 03 3e 57 c3 04 be
       -0.039563064 0.13695192 0.12835856 -0.12965141
000040 90 5b ce 3c 2e 83 9f 3d 03 70 c8 bd 76 6b 58 bd
       0.025190145 0.077886924 -0.097869895 -0.052836858
000050 66 3f 6f 3c be eb 43 3d 9a 46 c7 3d 89 ba 02 3d
       0.014602518 0.047832243 0.09730263 0.031916175
000060 58 a5 9d 3c b2 b6 dc bd 8f 50 09 3e 51 d3 af bd
       0.019243881 -0.10777034 0.13409637 -0.08585227
000070 de b3 d1 3d 34 89 03 be a8 15 e3 bb 0b 05 68 3d
       0.10239385 -0.12845308 -0.006930072 0.056645434
000080 6f 46 52 bd 8c 98 ae 3d 70 fe 87 bc e2 05 9a bd
       -0.051336702 0.0852519 -0.016600817 -0.07520653
000090 0b af ba bd 8d fa 3c 3d 09 d4 57 bd c2 1e 72 bd
       -0.09115418 0.04613738 -0.052692447 -0.059111364
0000a0 bc 87 54 bd ee ee fd bd 2b df 88 3d 7a cf 9e 3d
       -0.05188726 -0.12399088 0.06683191 0.07754417
0000b0 e9 44 be 3c 60 82 ec 3d 61 02 a0 bc 44 a0 d8 3b
       0.023226218 0.115483046 -0.019532384 0.006610902
0000c0 1d 7d e4 bc 77 13 9f 3d 3e 5c f7 3c dc b1 52 bd
       -0.02789169 0.077673845 0.030195352 -0.05143915
0000d0 f3 10 85 3d c1 2e c7 bd 53 39 3f bd af 0b d8 3d
       0.064973734 -0.097257145 -0.046685528 0.105491035
0000e0 c2 c3 27 bd 94 64 22 bc 8b dd cf bd 8d e1 02 3e
       -0.040958174 -0.009911675 -0.10149678 0.12781353
0000f0 f8 75 e8 bc e2 50 c5 bd 70 0d 04 3e 69 0f 1c bd
       -0.028376564 -0.09634568 0.12895751 -0.038100634
000100 1b 03 d3 bc 0e 8d df bd b7 d0 c9 3d c8 ad 60 3d
       -0.025758317 -0.10915576 0.09854262 0.05485323
000110 c6 6c 06 be 99 55 16 bd 65 d5 2f bd 3e 8d a6 bd
       -0.13127431 -0.036702726 -0.04292812 -0.081324086
000120 d8 40 0c be be 0c 9a 3d 4e 17 05 3c ca 1a b9 3d
       -0.13696611 0.07521962 0.008123232 0.09038313
000130 7e 09 0f 3d a3 fb 0c 3e 37 0c f9 bd 9a 17 e2 3d
       0.03492116 0.13767867 -0.12160533 0.11039658
000140 5b 39 8e bd 75 09 1a bd 17 87 91 bc 4f 8f a7 3d
       -0.069445334 -0.037606675 -0.017764611 0.08181631
000150 26 56 e8 3b c7 d5 79 3d 82 8f 06 3e eb 16 24 3d
       0.007090348 0.06099489 0.13140681 0.04006092
000160 3d 82 09 be 75 93 98 3d 0e 54 e5 3d fd 5a cd 3d
       -0.13428588 0.0745 0.11197673 0.1002712
000170 1e f7 1f bd d9 05 93 3c 41 8b 0a 3e d1 35 e5 bd
       -0.03905403 0.017947124 0.13529684 -0.11191905
000180 a3 e2 b6 bc a2 fc 00 bd 33 1e 87 3d f4 79 b2 bd
       -0.022324866 -0.03149093 0.06597557 -0.08714667
000190 d9 43 44 3d 1b 74 a6 3d d3 8c 2a bd 19 90 b8 bd
       0.047916267 0.08127614 -0.041638207 -0.090118594
0001a0 94 53 83 bd 0b c6 a0 3d f0 1f 0e 3e 18 38 eb bd
       -0.06412426 0.07850274 0.1387937 -0.114853084
0001b0 4f 34 a1 3c 2e 3d d3 bd 28 d2 26 3d e9 71 0f be
       0.019678263 -0.103144035 0.040727764 -0.14008297
0001c0 e0 8e 5d 3c 34 d0 04 3e ba fb dd bd 5e 5f b4 3d
       0.013522834 0.12970048 -0.10839029 0.08807252
0001d0 02 87 a9 bd 50 a9 bb 3d 38 1a e1 3d fd 8f f6 3d
       -0.08277704 0.09163153 0.10991329 0.12039182
0001e0 66 7b f8 3c 8e 42 fd bc 22 49 70 bc 82 62 5b bd
       0.030332278 -0.030915525 -0.014665874 -0.05356074
0001f0 c0 7d c3 bd fd fd 0c be 0a ad ad bd a2 6f 8d bd
       -0.09545469 -0.13768764 -0.0848027 -0.06906058
000200 27 f5 04 bc 6e a0 ea 3d ed 4d 88 bd f3 69 fa 3c
       -0.0081150895 0.11456381 -0.06655488 0.030568099
000210 e0 fe f1 3d 59 19 65 3c 7e 53 98 3d 0f c4 fe bd
       0.11816192 0.013983094 0.074378 -0.12439739
000220 f6 5a d9 3d 2b 27 15 3d d3 99 7f bd e0 94 cb bd
       0.106130525 0.036414307 -0.062402558 -0.09940505
000230 60 56 0b bd 63 36 eb bd 91 c2 a8 3c d4 58 d9 3d
       -0.03401792 -0.11484983 0.020600589 0.10612646
000240 3c 22 ce bd 0e b8 95 3c 1b 21 f2 bd 2c 4e b8 3d
       -0.100651234 0.01827624 -0.118227206 0.08999285
000250 84 30 01 bc 72 97 a0 bd 7e 8d af bd 05 33 56 3d
       -0.007885102 -0.07841386 -0.08571909 0.05229475
000260 03 b6 61 bd cd e3 0b 3e 66 d2 5a bd 80 23 c0 3d
       -0.05510522 0.13661118 -0.053423308 0.09381771
000270 18 b3 ca bd 5f 7f 14 3d 19 2f 73 bb 03 7c 07 3d
       -0.09897441 0.036254283 -0.003710693 0.03307725
000280 b5 14 c8 bd d1 3c fc 3d f7 4a cb bd 9c 13 31 3d
       -0.097695746 0.12316287 -0.09926408 0.04323159
000290 e7 65 99 bd db d8 df bd 35 30 84 3d 66 68 13 bd
       -0.074901395 -0.10930034 0.06454507 -0.035988234
0002a0 cc a2 9d 3c 3a ff 84 bc 06 78 8d bd ad f0 15 3d
       0.019242667 -0.016234983 -0.06907658 0.03660648
0002b0 d1 95 f9 3d 8f 08 ac 3d 26 c8 d6 3d 51 68 10 be
       0.12186778 0.0840007 0.10487394 -0.14102294
0002c0 52 1a 44 3c 6a 81 fd bd b7 b2 de 3d ab 93 f1 3c
       0.011969166 -0.123781994 0.10873931 0.029489359
0002d0 9d 4a de bd e0 a7 c2 3d 4b 4c be 3d 28 ce 2e bd
       -0.10854075 0.09504676 0.092918955 -0.042677075
0002e0 b0 d1 a9 3d 4d 3c cc bd b7 d8 14 3c 66 2e a0 bb
       0.08291948 -0.09972439 0.009084872 -0.0048883436
0002f0 af 87 8f 3d 9a ad 00 be 83 09 80 bc 7d a4 09 be
       0.070083015 -0.12566224 -0.015629536 -0.13441654
000300 01 f3 d9 3d a1 30 25 bd 5e cb de 3d 03 89 4e bd
       0.106420524 -0.04032958 0.10878633 -0.050423633
000310 e6 93 85 3c 94 ea 08 bc 04 e9 6f bd 10 b6 cd bd
       0.016305875 -0.008356709 -0.05857183 -0.10044491
