result/uncertainty_LSTM.pth (torch, 136209 bytes, 13 tensors)

weight_ih_l0 f4 [200, 7]
0	0x3dbace7e	0.091214165
1	0x3de55e78	0.11199659
2	0xbd17a6f1	-0.037024442
3	0x3e00e81b	0.12588541
4	0xbd16f6cc	-0.036856458
5	0x3c998e92	0.01874474
6	0xbda64b9a	-0.081198886
7	0x3da80f1b	0.08206006
8	0x3de3d9af	0.11125504
9	0xbdfc320c	-0.12314233
10	0x3e040cc9	0.12895502
11	0x3c5cfd55	0.013488133
12	0x3dd6587a	0.10466094
13	0x3bac0b90	0.005250402
14	0x3d66e858	0.056373924
15	0xbcd21872	-0.025646422
16	0x3dc3346e	0.095314845
17	0x3ca3f4c3	0.020014172
18	0xbd7720cf	-0.060334023
19	0x3d2be63b	0.04196761
20	0xbd8acc8e	-0.06777297
21	0x3cbf2b71	0.023336144
22	0xbd0868b6	-0.033302985
23	0x3db7cfc6	0.089751765
24	0xbdb3d1ec	-0.08780274
25	0x39465112	0.00018912953
26	0xbd0ab70f	-0.033865985
27	0xbda6881f	-0.08131432
28	0x3cb0be68	0.021575168
29	0xbe0a9239	-0.13532342
30	0x3e015bb5	0.1263264
31	0xbdf7e628	-0.12104446
32	0x3dd688bc	0.10475299
33	0x3c327856	0.010892948
34	0xbd4c11cd	-0.049821664
35	0x3dec5f20	0.11541581
36	0x3c3c58ae	0.011495752
37	0x3de22567	0.1104229
38	0x3c11e4c2	0.008904638
39	0xbd3d0fbb	-0.04615758
40	0x3d838d00	0.06423378
41	0xbd1813b1	-0.037128154
42	0x3d738163	0.059449565
43	0x3de03d59	0.10949201
44	0x3d6b7b4c	0.057490632
45	0xbd947684	-0.072491676
46	0x3d89a49b	0.06720849
47	0x3c75f03d	0.015010891
48	0x3d47afda	0.04875169
49	0xbdc9c4cc	-0.09851989
50	0xbe156625	-0.14589746
51	0xbd961bc1	-0.073295124
52	0xbe0239f9	-0.12717427
53	0x3dbecc8a	0.093163565
54	0x3ce0f439	0.027460204
55	0x3d0ae9a7	0.033914234
56	0x3d186932	0.037209697
57	0xbae6d3f0	-0.001761077
58	0x3dd85400	0.10562897
59	0xbdbabd23	-0.09118106
60	0xbc35f966	-0.0111068245
61	0xbdc3b5e9	-0.09556181
62	0x3d355235	0.04426785
63	0xbd248e8a	-0.040175
64	0x3d0fe987	0.03513482
65	0xbd47d8f7	-0.0487909
66	0x3df0b880	0.117539406
67	0xbdc3d871	-0.09562767
68	0xbd85c272	-0.06531228
69	0xbdf407db	-0.11915561
70	0x3e101be5	0.14073141
71	0x3d4ab326	0.049487256
72	0x3de18c96	0.11013143
73	0xbe000130	-0.12500453
74	0xbe0ed382	-0.13947871
75	0xbdff9ab7	-0.124806814
76	0xbdc57fd5	-0.09643523
77	0x3d3e2617	0.046423044
78	0x3d33e298	0.04391727
79	0x3deaca91	0.11464418
80	0xbd9cda85	-0.07658867
81	0xbdc841d7	-0.09778183
82	0x3d99cc29	0.075096436
83	0xbd80b5d7	-0.06284683
84	0x3da0b33d	0.07846687
85	0xbd4e7a55	-0.050409634
86	0x3d8b6b00	0.06807518
87	0xbe0544c7	-0.13014518
88	0xbda6a1d7	-0.08136337
89	0x3d1aa9be	0.037759535
90	0x3c2ea461	0.010659308
91	0xbd11b2af	-0.035570797
92	0x3d7cb628	0.061697155
93	0x3d9f6256	0.07782428
94	0xbde93b85	-0.113883056
95	0xbddaea8d	-0.10689268
96	0x3da94d7d	0.08266733
97	0xbd278794	-0.04090078
98	0xbd7d5097	-0.061844435
99	0xbde20eca	-0.11037977
100	0xbdaecfd1	-0.085357316
101	0x3d2a9e53	0.041654896
102	0xbc8a6248	-0.016892567
103	0xbdce851a	-0.10083981
104	0xbb0429fa	-0.0020166622
105	0xbdc04b09	-0.09389312
106	0xbe17ad35	-0.14812167
107	0xbdceb386	-0.10092835
108	0xbe0f6cbe	-0.14006326
109	0xbdefad25	-0.117029466
110	0x3e057773	0.13033848
111	0x3c3888e0	0.011263102
112	0x3d783218	0.060594648
113	0xbe0018a2	-0.12509397
114	0xbda3bff3	-0.07995596
115	0xbd61f1fa	-0.055162407
116	0x3cee2434	0.029069997
117	0xbda23c18	-0.07921618
118	0xbd8ae5a4	-0.06782082
119	0xbe0a1b18	-0.13486898
120	0xbd09f707	-0.03368285
121	0xbdad5a63	-0.084645055
122	0xbd284e2f	-0.041090187
123	0xbe0e897b	-0.13919632
124	0xbdf5742f	-0.11985051
125	0xbde709dd	-0.11281178
126	0xbd39901f	-0.04530346
127	0xbde3c78d	-0.11122046
128	0x3de9b65a	0.11411734
129	0xbd0140b8	-0.03155586
130	0x3df0cee3	0.117582105
131	0x3d41d0fe	0.04731845
132	0xbdfe0846	-0.12403922
133	0x3dcf4213	0.101200245
134	0xbd2dee38	-0.04246351
135	0xbd7f5fd3	-0.062347244
136	0xbdf5b6f6	-0.11997788
137	0xbe16742d	-0.14692755
138	0x3d16e200	0.036836624
139	0xbd1703b1	-0.036868755
140	0x3d3c8bbe	0.046031706
141	0xbdf1fc53	-0.11815705
142	0x3db98b86	0.09059815
143	0xbdd55d73	-0.10418215
144	0xbd0faa69	-0.035074625
145	0x3ced775b	0.028987577
146	0x3d9865ad	0.07441268
147	0x3dee431f	0.11633896
148	0x3e06fdaf	0.1318271
149	0xbde939c1	-0.11387969
150	0x3d1db5f1	0.03850359
151	0xbd72eb38	-0.059306353
152	0xbc89145a	-0.016733337
153	0xbde490e7	-0.111604504
154	0x3de81e16	0.113338634
155	0xbdea873b	-0.114515744
156	0x3d848471	0.06470574
157	0x3d1abc44	0.0377772
158	0x3cbf29d5	0.023335377
159	0xbdb8de99	-0.09026832
160	0x3e01b4fb	0.12666695
161	0x3c2327a0	0.009958178
162	0x3ccfbeed	0.025359595
163	0xbe04a50e	-0.12953588
164	0x3d5e0987	0.054208305
165	0xbc95c5c4	-0.018282779
166	0xbd926f77	-0.071501665
167	0x3dd8ef81	0.10592557
168	0x3c3e9e93	0.011634487
169	0xbdb8289f	-0.08992123
170	0xbd9fb66f	-0.07798468
171	0xbccba563	-0.024859136
172	0x3d5e54dc	0.054280147
173	0xbd547589	-0.051869903
174	0xbdbf3258	-0.09335774
175	0xbd4a853a	-0.04944346
176	0xbe025d07	-0.127308
177	0x3d0bf309	0.034167323
178	0x3db625af	0.08893906
179	0xbe197527	-0.14986096
180	0x3c61f472	0.01379119
181	0x3d7b185a	0.06130252
182	0x3c142b14	0.009043474
183	0xbd983604	-0.07432178
184	0x3ce47884	0.027889498
185	0x3d7814a9	0.060566578
186	0x3c208f1d	0.009799746
187	0xbd434abc	-0.047678694
188	0xbd38991b	-0.045067888
189	0x3cd8637d	0.026414627
190	0xbd1300a8	-0.035889298
191	0xbd4252d6	-0.04744228
192	0x3d922d96	0.07137601
193	0x3df1f3d1	0.118140824
194	0xbcc50377	-0.024049504
195	0xbd0b7b24	-0.034052983
196	0xbc841251	-0.016122015
197	0x3c9638e5	0.018337676
198	0x3c969b6a	0.018384654
199	0x3d2d6088	0.042328387
200	0xbe0ec44c	-0.13942069
201	0xbcb76e85	-0.022391567
202	0x3dec5196	0.11538999
203	0x3d42ebb7	0.047588076
204	0xbb262c67	-0.0025356056
205	0xbdbf54a2	-0.09342314
206	0xbdb92627	-0.0904048
207	0xbe06300d	-0.13104267
208	0xbd674b2a	-0.056468166
209	0x3d1889b6	0.037240706
210	0x3db31dce	0.08745919
211	0x3d5fff92	0.05468709
212	0xbe13c36a	-0.14430013
213	0xbda6b89b	-0.081406794
214	0xbd2c9367	-0.04213276
215	0x3e00c0f4	0.12573606
216	0x3ce05b0f	0.02738717
217	0xbd6726d6	-0.05643352
218	0x3d6d89d3	0.057992768
219	0xbd5067a6	-0.050880097
220	0xbd8b8dc5	-0.0681415
221	0x3dc1bd3a	0.0945992
222	0xbd69b0af	-0.057053264
223	0xbcefd6ae	-0.029277172
224	0xbe312d3e	-0.17302415
225	0x3da6b846	0.08140616
226	0x3db0a52d	0.08625255
227	0x3cb53d71	0.022124024
228	0xbe0ae8ea	-0.13565412
229	0xbe29f4a6	-0.16597232
230	0xbe07785b	-0.13229506
231	0x3da39879	0.07988066
232	0x3d583d75	0.052792985
233	0x3ddb50f9	0.10708804
234	0x3d70a643	0.05875231
235	0x3c7312c4	0.014836017
236	0xbcd8a60c	-0.026446365
237	0xbde303ce	-0.1108471
238	0xbdce1c6e	-0.10064016
239	0xbe04ad16	-0.12956652
240	0x3d5d9d82	0.05410529
241	0xbd8a45a7	-0.067515664
242	0xbcaa4d01	-0.020788671
243	0xbda54c69	-0.08071215
244	0xbce79790	-0.028270513
245	0xbdbaa3da	-0.091132835
246	0xbdbb6396	-0.09149854
247	0x3d44ac41	0.048015837
248	0xbd278023	-0.040893685
249	0x3dbe4435	0.09290353
250	0xbd2708a2	-0.040779717
251	0xbdf0e498	-0.11762351
252	0xbd4099a4	-0.047021523
253	0xbdd02fb2	-0.10165347
254	0xbd4d442a	-0.050113834
255	0xbe1ce67f	-0.15322302

weight_hh_l0 f4 [200, 50]
0	0xbd2f4eb6	-0.042799674
1	0xbdfa606c	-0.12225422
2	0xbd9ec924	-0.07753208
3	0x3ca0319d	0.019554907
4	0xbdaf6b43	-0.085653804
5	0xbd4e23b6	-0.050327025
6	0xbc9b94ef	-0.018991916
7	0xbc0fca3c	-0.008776244
8	0xbd87bb04	-0.06627467
9	0xbb2eb7db	-0.002665988
10	0xbc384c07	-0.011248595
11	0x3cfa81e4	0.030579515
12	0x3c802652	0.015643273
13	0xbd970e44	-0.07375768
14	0xbd180a1b	-0.037119012
15	0xbc05447d	-0.008134005
16	0xbd99b894	-0.075059086
17	0x3c838ba2	0.016057793
18	0xbb009dc4	-0.0019625286
19	0x3d7db9a6	0.061944626
20	0x3d1bb19b	0.038011175
21	0x3dcd1eb4	0.10015622
22	0xbc4944db	-0.012284483
23	0xbdbfff42	-0.093748584
24	0x3d6a9bb8	0.05727741
25	0xbdc654c7	-0.09684139
26	0xbcc170f9	-0.02361344
27	0xbd4fff1c	-0.0507804
28	0xbd822d5a	-0.063563064
29	0xbd345bdc	-0.044032916
30	0x3e006dd0	0.1254189
31	0x3d454348	0.048159868
32	0x3ceddcc3	0.029035931
33	0x3df0ea55	0.11763445
34	0xbdf76308	-0.120794356
35	0x3cf14b13	0.029454743
36	0x3dbe0e6d	0.09280095
37	0x3dcb3c55	0.09923617
38	0xbe007e36	-0.12548146
39	0x3d243706	0.040091537
40	0xbdabb9d4	-0.08385053
41	0x3b9c10ba	0.004762736
42	0xbd8118ec	-0.063035816
43	0xbde1b1a1	-0.11020208
44	0xbe17eb0e	-0.1483576
45	0xbdcbdf5d	-0.099547125
46	0x3d9bc807	0.076065116
47	0x3d93993b	0.07206961
48	0xbdebd1aa	-0.115145996
49	0xbd6a07c5	-0.057136316
50	0x3aa20c9a	0.0012363375
51	0xbddf2b84	-0.10896972
52	0x3d570058	0.052490562
53	0x3e031b22	0.12803319
54	0x3cbb52fc	0.022866718
55	0xbd88c587	-0.066783
56	0x3cf1bc71	0.029508801
57	0x3d5da295	0.05411013
58	0x3e093c1f	0.1340184
59	0xbda1ada4	-0.078944474
60	0xbddd5632	-0.10807456
61	0x3d2dc67d	0.04242562
62	0x3c6d2a17	0.014475367
63	0xbd1d4f2d	-0.038405586
64	0xbd377de6	-0.0447978
65	0xbd9e11bb	-0.077182256
66	0x3e04847d	0.12941165
67	0xbd34b3bb	-0.044116717
68	0x3de0459a	0.109507754
69	0x3dfaa9a8	0.122393906
70	0x3cc1ab6d	0.023641312
71	0x3ca874e0	0.020563543
72	0xbca7298f	-0.020405559
73	0x3dd1d39e	0.10245441
74	0xbddcce17	-0.10781496
75	0x3d6b4ff3	0.057449292
76	0xbcc93a36	-0.02456389
77	0x3d62fd17	0.055417147
78	0xbca0e588	-0.019640699
79	0xbd58bc84	-0.052914158
80	0xbcf2091c	-0.02954536
81	0x3d852bd3	0.065024994
82	0xbdcc1998	-0.09965819
83	0xbdbf7cb5	-0.09349958
84	0xbca3f420	-0.020013869
85	0xbd40d929	-0.0470821
86	0x3d1754f7	0.036946263
87	0x3dc30329	0.09522087
88	0xbd1a3e80	-0.03765726
89	0x3de4730f	0.11154758
90	0xbd451219	-0.048112962
91	0xbd896b92	-0.067099705
92	0xbd77d72d	-0.060507942
93	0xbdc44f1b	-0.09585401
94	0xbdeca5e9	-0.11555082
95	0xbdced7f7	-0.10099786
96	0xbdfc2b96	-0.12313001
97	0x3d0ccfaf	0.03437775
98	0x3dc95dc5	0.09832338
99	0x3e14ff52	0.14550522
100	0x3dfdc669	0.12391359
101	0xbb391934	-0.0028243782
102	0x3c93ca14	0.018040694
103	0xbda64d24	-0.08120182
104	0x3d7d316c	0.06181471
105	0xbdf6dde6	-0.120540425
106	0x3d935b76	0.07195179
107	0x3cbb3bb7	0.022855623
108	0x3d772753	0.060340237
109	0x3d301f9e	0.042998902
110	0xbd567d20	-0.052365422
111	0x3de2d47d	0.11075685
112	0x3d8df354	0.06931177
113	0x3dc1d83e	0.09465073
114	0x3d0d2373	0.034457635
115	0x3da6fe42	0.081539646
116	0x3dda2209	0.10651023
117	0x3d4ec350	0.050479233
118	0x3de8488e	0.11341964
119	0xbcdfb5a4	-0.027308293
120	0x3dc9c28e	0.098515615
121	0x3cbdc809	0.023166673
122	0x3d9bdcc2	0.076104656
123	0x3e285456	0.16438422
124	0x3cf761cd	0.030198002
125	0xbd3ed917	-0.04659375
126	0xbcae7850	-0.021297604
127	0x3d3a5280	0.045488834
128	0x3c896aff	0.016774653
129	0xbd076822	-0.033058293
130	0x3dd73903	0.10508921
131	0x3d9f66a1	0.07783247
132	0xbdc80f5a	-0.09768553
133	0xbc53366c	-0.012891393
134	0xbbea7399	-0.0071548936
135	0xbda441b8	-0.08020347
136	0x3ccd9297	0.025094314
137	0xbd170c00	-0.03687668
138	0xbdaa61a1	-0.083194025
139	0xbd48be2a	-0.04900948
140	0xbd6df285	-0.058092613
141	0x3e161291	0.1465552
142	0x3d3cce44	0.046095148
143	0x3e138238	0.14405143
144	0x3cbffde7	0.0234365
145	0x3c9a88e0	0.018864095
146	0x3d814881	0.06312657
147	0x3d2776b3	0.040884685
148	0xbdd281bf	-0.10278653
149	0xbdb329af	-0.08748185
150	0xbd2d0c94	-0.042248324
151	0xbaae2f9d	-0.0013289336
152	0x3d932e18	0.07186526
153	0x3d60d409	0.054889712
154	0x3db605aa	0.08887799
155	0x3d33562e	0.04378336
156	0xbd1b931a	-0.037982084
157	0xbdc75ab9	-0.09734101
158	0xbdc9d804	-0.09855655
159	0xbdc8de37	-0.09808009
160	0x3d34b1ce	0.04411488
161	0x3d9c8a35	0.076435484
162	0x3dc2be28	0.09508926
163	0xbbffbaac	-0.0078042354
164	0xbc46a13e	-0.012123404
165	0xbd3152c8	-0.043291837
166	0xba79f3ac	-0.0009534906
167	0x3d6900ca	0.056885518
168	0xbb72c1d9	-0.0037041812
169	0xbd3c55bd	-0.045980204
170	0x3ad76eb5	0.0016436192
171	0x3d8f696f	0.07002532
172	0xbd131c5a	-0.03591571
173	0xbda9258a	-0.08259113
174	0x3d0d97f0	0.034568727
175	0x3c1e8afc	0.009676691
176	0xbd329372	-0.043597646
177	0x3d8929d4	0.06697431
178	0xbb1dabc3	-0.0024058677
179	0xbce0a570	-0.027422637
180	0xbd5b8fda	-0.053603984
181	0xbcc83ef4	-0.02444408
182	0xbde80829	-0.113296814
183	0x3c1e9ded	0.009681207
184	0xbbc40911	-0.005982526
185	0x3da29950	0.07939398
186	0x3c9de19a	0.019272614
187	0xbc03305c	-0.008007135
188	0x3d2aae31	0.041670028
189	0x3de64d24	0.11245182
190	0xbd6d0cd8	-0.057873577
191	0x3db39ed0	0.087705255
192	0x3d34814e	0.044068627
193	0xbdf0b887	-0.11753946
194	0x3d28b6f9	0.04119012
195	0xbd8fe096	-0.07025258
196	0xbd7954c8	-0.06087187
197	0xbd9c5d8d	-0.07635031
198	0xbdca347f	-0.09873294
199	0x3dca7dc8	0.09887272
200	0xbdf396ff	-0.118940346
201	0x3d96a83d	0.07356308
202	0xbdf420d8	-0.11920327
203	0xbc535318	-0.012898229
204	0x3c0fe963	0.008783671
205	0x3dd4fae4	0.10399416
206	0xbd0b1166	-0.03395214
207	0x3d85b6ff	0.06529044
208	0x3ce222f4	0.027604558
209	0x3d7841be	0.06060957
210	0x3c6f897e	0.014620183
211	0x3d4cf0c5	0.050034303
212	0xbdb29fed	-0.0872191
213	0xbdbb7baa	-0.091544464
214	0x3e03b4ce	0.1286194
215	0xbddcfa0c	-0.1078988
216	0xbcb481d3	-0.022034561
217	0x3cb3f855	0.021969
218	0x3e12b21b	0.14325754
219	0xbd0aed35	-0.033917625
220	0xbdd721f1	-0.10504521
221	0xbd068c76	-0.032848798
222	0x3d8dac10	0.06917584
223	0x3d4cc5f4	0.04999347
224	0x3dde0551	0.10840858
225	0xbd0a77a9	-0.033805523
226	0x3d879daa	0.06621869
227	0xbe074197	-0.13208614
228	0x3d33b253	0.043871235
229	0x3d8c201d	0.068420626
230	0x3db3a546	0.08771758
231	0xbd9650a6	-0.07339601
232	0xbd1c86f0	-0.038214624
233	0x3cc2fe91	0.023803027
234	0xbdca3ac7	-0.09874492
235	0xbde00b98	-0.10939711
236	0xbdfa4c0f	-0.12221538
237	0x3c1d9b7a	0.009619588
238	0x3dae8f0f	0.0852338
239	0x3d089df3	0.033353757
240	0x3c6b6f48	0.014369793
241	0x3d630d95	0.055432875
242	0xbd9b4571	-0.07581604
243	0x3c8f1520	0.017466128
244	0xbd243f35	-0.04009934
245	0xbd8af3a0	-0.06784749
246	0x3df36277	0.11884015
247	0xbde35def	-0.11101901
248	0x3cdef7e1	0.027217807
249	0xbe07593f	-0.13217638
250	0xbabbc362	-0.0014325196
251	0xbd723ced	-0.059140135
252	0x3d3ba21f	0.045808908
253	0xbd9b4090	-0.07580674
254	0x3dc0caef	0.094137065
255	0xbdd095d2	-0.10184826

bias_ih_l0 f4 [200]
0	0xbc8ac3d0	-0.016939074
1	0x3de256b0	0.110516906
2	0x3d86aad0	0.06575549
3	0xbdaffd7f	-0.085932724
4	0x3be45707	0.0069683823
5	0xbd99f541	-0.075174816
6	0x3bbd2fb2	0.005773508
7	0xbdeaaf9e	-0.114592776
8	0xbd678d17	-0.056531038
9	0xbdab2387	-0.08356386
10	0xbe12170e	-0.14266607
11	0x3e03431c	0.12818569
12	0xbd89ebc8	-0.06734425
13	0xbd49af8a	-0.049239673
14	0xbc9dda2d	-0.019269073
15	0xbca5ad55	-0.020224253
16	0xbde9c660	-0.1141479
17	0x3c2b6e33	0.010463285
18	0xbdb6fd17	-0.08934992
19	0xbdef7f0a	-0.11694153
20	0xbdc1d2e0	-0.09464049
21	0xbdeb2818	-0.11482257
22	0x3dd512a0	0.10403943
23	0x3d241acf	0.04006463
24	0x3dc74459	0.09729833
25	0xbe0529d2	-0.13004234
26	0xbe105b39	-0.14097299
27	0x3d53964c	0.051657006
28	0xbda05cbf	-0.0783019
29	0xbd4d79fb	-0.050165158
30	0xbdc288ba	-0.09498735
31	0xbdf7b94d	-0.1209589
32	0xbddd2765	-0.107985295
33	0xbdc3efc5	-0.09567217
34	0x3d8fc898	0.07020682
35	0xbb71377b	-0.003680675
36	0x3d8143f0	0.06311786
37	0x3dbfa4fe	0.09357642
38	0x3dc51e5a	0.0962493
39	0xbe081c93	-0.1329215
40	0x3d753594	0.05986555
41	0x3d945f7b	0.07244774
42	0xbda02293	-0.078190945
43	0xbd5f6b7f	-0.054545876
44	0x3d026087	0.031830337
45	0xbd10cdc7	-0.035352495
46	0xbde08f62	-0.10964848
47	0xbd1ddcca	-0.03854064
48	0xbd345cc7	-0.044033792
49	0x3d9ce5d9	0.076610275
50	0x3d4ed39d	0.05049478
51	0x3da0748b	0.07834729
52	0xbc5672f2	-0.013088929
53	0xbe0543d0	-0.1301415
54	0x3e083f4b	0.13305394
55	0xba818924	-0.000988279
56	0x3d15503a	0.036453463
57	0xbdd424dd	-0.103585936
58	0xbc2a651c	-0.010400083
59	0x3c8f285a	0.017475296
60	0xbd7f22cd	-0.062289048
61	0xbda3aee6	-0.079923436
62	0x3cb3a156	0.021927517
63	0x3dc6b4b8	0.09702438
64	0x3dc9de09	0.09856803
65	0x3cd7f9cc	0.02636423
66	0x3ca3adae	0.019980278
67	0x3d10bfff	0.03533935
68	0xbd45abdd	-0.048259605
69	0x3dd4faa9	0.10399372
70	0x3d89c147	0.06726318
71	0xbe17253f	-0.14760302
72	0x3dfe1376	0.12406056
73	0xba51154d	-0.00079758913
74	0xbe02d297	-0.12775646
75	0xbd8431e2	-0.06454827
76	0x3ddc626d	0.10760961
77	0xbdf1642b	-0.11786684
78	0x3caa0194	0.020752706
79	0xbd5403a6	-0.051761292
80	0xbe04f3be	-0.12983605
81	0x3d3e1772	0.046409078
82	0x3d6805f7	0.056646314
83	0x3e0ba342	0.13636497
84	0xbdf8ee2c	-0.12154803
85	0x3d8822b5	0.06647245
86	0x3d96db4c	0.07366046
87	0xbcdfe170	-0.027329177
88	0x3de07232	0.10959281
89	0x3ddae257	0.10687702
90	0xbe101f83	-0.14074521
91	0x3d8036e9	0.06260473
92	0x3c0bad23	0.008525166
93	0xbbca1d54	-0.006168047
94	0x3dc338dc	0.095323294
95	0xbc1f5526	-0.009724891
96	0xbd9c6d93	-0.07638087
97	0x3ddaf820	0.10691857
98	0x3d912886	0.07087807
99	0x3d81004e	0.06298886
100	0xbcfb80df	-0.030701099
101	0xbdf9b998	-0.12193602
102	0x3b0aa0cc	0.0021152971
103	0xbcc40d0a	-0.023931999
104	0xbcedfea7	-0.029052092
105	0xbde77a45	-0.11302618
106	0x3dc0a316	0.09406106
107	0xbca5910d	-0.020210767
108	0xbe1be4e1	-0.15224029
109	0xbce47728	-0.02788885
110	0xbe1f3c6a	-0.1555039
111	0x3db35b2b	0.08757623
112	0xbcc5c8b3	-0.024143552
113	0xbda1afd7	-0.07894867
114	0xbe033d98	-0.12816465
115	0x3dba74aa	0.09104283
116	0xbe45cd27	-0.1931654
117	0xbdfd7e34	-0.12377587
118	0xbcc574ef	-0.02410361
119	0x3da319ec	0.079639286
120	0xbdd90ac0	-0.105977535
121	0xbda61bc0	-0.08110762
122	0x3da1fdad	0.07909713
123	0xbe225679	-0.15853299
124	0x3da16e82	0.07882406
125	0x3da3c50e	0.079965696
126	0x3da91147	0.082552485
127	0x3de1f244	0.110325366
128	0x3e065c49	0.13121141
129	0xbd8734b0	-0.06601846
130	0x3d9f290f	0.07771503
131	0x3da574a2	0.080788866
132	0x3db7a25a	0.08966513
133	0xbd00c4bd	-0.031437624
134	0xbd89d1c6	-0.06729464
135	0xbdddebe8	-0.10836011
136	0xbb285272	-0.0025683907
137	0xbc8aadd1	-0.016928585
138	0x3ceb4b1d	0.02872234
139	0x3e1bdd86	0.15221223
140	0xbe005741	-0.12533285
141	0x3d185634	0.037191585
142	0x3ce94104	0.028473385
143	0xbd961690	-0.07328522
144	0x3dd16422	0.10224177
145	0x3dbc695e	0.09199785
146	0xbddf97d9	-0.109176345
147	0xbb500443	-0.0031740821
148	0xbdb72dff	-0.0894432
149	0xbd9d9672	-0.07694711
150	0xbe019102	-0.12652972
151	0x3d211401	0.039325718
152	0xbcd3860d	-0.025820756
153	0xbdbba1b8	-0.09161705
154	0xbd01e5eb	-0.031713407
155	0xbca317df	-0.019908844
156	0x3d05fe82	0.03271342
157	0x3dbb94ba	0.09159227
158	0xbdcb5877	-0.09928983
159	0xbd09f09b	-0.033676725
160	0x3e01c06a	0.12671056
161	0x3dbcd0af	0.09219491
162	0x3d3ef80d	0.04662328
163	0xbd4a4cb4	-0.049389556
164	0x3c0ee343	0.008721176
165	0xbc393227	-0.011303461
166	0x3ae1ea6a	0.0017235999
167	0x3d83e17b	0.06439491
168	0xbd567e8b	-0.052366775
169	0xbd214e03	-0.03938104
170	0x3db4bf26	0.08825521
171	0x3d055355	0.032550175
172	0xbe11edcc	-0.14250869
173	0xbd38c646	-0.045110963
174	0x3d8eb4ce	0.069680795
175	0x3d8f2da5	0.06991128
176	0x3d86d2c7	0.06583171
177	0xbdb361ee	-0.08758913
178	0xbdeb45b9	-0.11487908
179	0x3d1f615e	0.038911216
180	0x3dc72cd3	0.097253464
181	0x3de83bf2	0.11339559
182	0x3cf4131a	0.029794265
183	0x3d9bc7ac	0.07606444
184	0xbdd3d90a	-0.10344131
185	0x3d0b3e45	0.03399493
186	0xbd220449	-0.039554868
187	0xbd047c67	-0.0323452
188	0x3d8d14b9	0.06888718
189	0xbe00813a	-0.12549296
190	0xbc31934e	-0.010838343
191	0xbd6cdaae	-0.057825737
192	0x3d67bc5a	0.05657611
193	0xbe1ab5a4	-0.15108353
194	0xbdc23996	-0.0948364
195	0xbdf8c20a	-0.12146385
196	0x3da94d8b	0.08266743
197	0x3d977e39	0.07397122
198	0x3de8627f	0.11346912
199	0x3e04702b	0.12933414

bias_hh_l0 f4 [200]
0	0x3d0a1e98	0.033720583
1	0xbb9af15c	-0.0047284793
2	0x3cf9d2a5	0.030495951
3	0x3cbef1c3	0.02330864
4	0x3c5fa08b	0.013649116
5	0xbde7aa85	-0.11311821
6	0x3db3d811	0.08781446
7	0xbdffeb67	-0.12496071
8	0x3dc1e1af	0.09466874
9	0x3d21eda1	0.03953326
10	0x3cfe3ad9	0.03103392
11	0x3d52299d	0.051309217
12	0x3c46614f	0.012108161
13	0xbd9a38bb	-0.07530352
14	0xbdbb73ff	-0.09152984
15	0xbdc1b7e0	-0.094588995
16	0xbda4df76	-0.08050434
17	0x3d11a3dc	0.03555666
18	0x3c18f977	0.009336821
19	0xbbc7384d	-0.0060797096
20	0x3ce64f13	0.028113877
21	0x3e011c41	0.12608434
22	0xbc910f41	-0.017707469
23	0xbda7c131	-0.08191145
24	0xbe044d04	-0.12920004
25	0x3dce0cf2	0.10061063
26	0xbe1d5ab3	-0.1536663
27	0x3d843bdd	0.064567305
28	0x3de4b3c8	0.11167103
29	0x3d8cbbb0	0.06871736
30	0xbc54d42e	-0.012990041
31	0xbca68d71	-0.020331116
32	0x3d84fbb0	0.06493318
33	0xbda7cfc2	-0.081939235
34	0x3d439038	0.04774496
35	0xbd32d2bd	-0.043658007
36	0x3d49bccb	0.049252313
37	0xbd788f51	-0.060683552
38	0xbdbb715d	-0.09152482
39	0xbd931638	-0.07181972
40	0x3d76554f	0.06013995
41	0x3d323bf1	0.043514196
42	0xbde97404	-0.11399081
43	0xbdef0a9b	-0.11671945
44	0xbd373565	-0.044728655
45	0xbd0cfc32	-0.0344202
46	0xbd80d941	-0.06291438
47	0x3da71fdc	0.081603736
48	0x3b9d81c4	0.004806729
49	0xbd435857	-0.04769167
50	0xbc9d7f48	-0.019225731
51	0x3d600a54	0.05469735
52	0xbdd9ab02	-0.1062832
53	0xbe0fbb36	-0.14036259
54	0xbdf2f471	-0.1186303
55	0x3d68b83d	0.05681633
56	0xbc0b54a4	-0.008504067
57	0xbe19782e	-0.14987251
58	0x3de5c4b5	0.112191595
59	0x3d63391c	0.055474386
60	0xbe0c01a0	-0.13672495
61	0x3daeab4b	0.08528765
62	0xbcbef33a	-0.023309339
63	0xbb981c4a	-0.004642044
64	0x3dd5b134	0.104341894
65	0x3db361c0	0.08758879
66	0x3d1f0eb0	0.038832366
67	0xbdc43706	-0.095808074
68	0x3dd1747a	0.10227294
69	0x3de6650a	0.112497404
70	0xbce747a0	-0.028232396
71	0xbdf44ed9	-0.119291015
72	0x3e02aa59	0.12760295
73	0xbd8c77eb	-0.0685881
74	0xbdd7af6d	-0.10531507
75	0xbe136949	-0.14395632
76	0x3ce02915	0.02736334
77	0x3d5f542b	0.05452363
78	0xbd9aa160	-0.07550311
79	0xbe10a265	-0.14124449
80	0x3daec074	0.08532801
81	0x39c4f075	0.00037563188
82	0x3dcc65be	0.09980343
83	0xbc821cef	-0.015882937
84	0x3df8b704	0.121442825
85	0xbd1e0a9c	-0.038584337
86	0xbdbdb34c	-0.09262714
87	0x3d70e7df	0.05881488
88	0x3d128bb3	0.03577776
89	0x3dd68aa9	0.10475666
90	0xbc7f6015	-0.015586873
91	0xbdeefe4e	-0.116695985
92	0xbe0063a5	-0.12538011
93	0xbd5ce10b	-0.053925555
94	0xbcf6cb3e	-0.03012621
95	0xbdc25758	-0.09489316
96	0x3dc51e0d	0.09624872
97	0xbdba76f5	-0.091047205
98	0x3b19fb4f	0.002349574
99	0x3d9a0559	0.07520551
100	0x3d1555eb	0.03645889
101	0x3b556cf9	0.0032566173
102	0x3d9d9c45	0.07695822
103	0xbd90fb22	-0.0707915
104	0xbe100b33	-0.14066772
105	0x3a5dcdc6	0.00084611436
106	0xbde592f2	-0.11209668
107	0xbdf1c7c5	-0.11805681
108	0xbdf0088e	-0.11720382
109	0x3e358289	0.17725576
110	0xbde24c76	-0.1104974
111	0x3df4a3bf	0.119452946
112	0x3db044d6	0.086068794
113	0x3c90514d	0.017616892
114	0xbdd26427	-0.10273009
115	0xbdd9479e	-0.10609363
116	0xbe38b4ac	-0.18037671
117	0x3dc4e5ac	0.09614119
118	0xbdd6658e	-0.10468589
119	0xbcbe178e	-0.023204591
120	0x3cea8b74	0.02863095
121	0xbbdb4c27	-0.0066924277
122	0x3d85737c	0.065161675
123	0xbe081215	-0.13288148
124	0x3dced046	0.10098319
125	0xbdc7fe36	-0.09765284
126	0xbd8d8d7f	-0.06911754
127	0xbe02eeb2	-0.12786368
128	0x3dcd9ff8	0.10040277
129	0xbd90d7b9	-0.07072396
130	0xbd4e546d	-0.050373483
131	0x3d9f5504	0.07779887
132	0x3c339baa	0.010962406
133	0x3dfda8b2	0.12385692
134	0x3d5c33f1	0.053760473
135	0xbce9e9a9	-0.0285538
136	0xbe02ebc8	-0.12785256
137	0xbe1778cd	-0.14792176
138	0x3d78a99d	0.06070863
139	0x3d150ce2	0.03638924
140	0x3df26acd	0.11836777
141	0xbe008bdb	-0.1255335
142	0x3d00bb29	0.03142849
143	0xbc6b4e28	-0.014361896
144	0x3db16a37	0.08662837
145	0x3d8d0466	0.068856046
146	0xbcc48da0	-0.023993313
147	0xbe26e473	-0.16298084
148	0xbd04cb16	-0.03242024
149	0x3e10548d	0.14094754
150	0xbdea6e42	-0.11446811
151	0xbddcce25	-0.107815064
152	0x3df04ac1	0.11733008
153	0xbc33fd4d	-0.010985685
154	0xbd50b977	-0.050958123
155	0x3bd978a7	0.0066366973
156	0x3d1e4a68	0.038645178
157	0xbc84e818	-0.016223952
158	0x3dde1610	0.10844052
159	0xbcdbe27d	-0.026841396
160	0xbd8eaea8	-0.06966907
161	0xbd89819b	-0.067141734
162	0xbcf155e6	-0.029459905
163	0xbd0d1f91	-0.034453932
164	0x3da335a6	0.07969217
165	0x3d386b4b	0.045024198
166	0x3dde632e	0.10858761
167	0x3da9cf6d	0.082915165
168	0x3deebf98	0.11657637
169	0xbe0e34b3	-0.1388729
170	0xbd2d7cc6	-0.04235532
171	0xbc8a1fea	-0.016860921
172	0x3dbe8958	0.0930354
173	0xbc97fe14	-0.018553771
174	0x3ce46a91	0.027882846
175	0xbcecfde2	-0.028929655
176	0xbe2b5097	-0.16729961
177	0x3bd78c0d	0.0065779747
178	0xbc487c17	-0.012236617
179	0xbdbf917c	-0.09353921
180	0x3e0181ed	0.12647219
181	0xbdecde50	-0.1156584
182	0xbe13d9ba	-0.14438525
183	0xbddf2c7c	-0.108971566
184	0xbe09760e	-0.1342394
185	0xbce97895	-0.02849988
186	0xbdcdeae2	-0.10054566
187	0x3dae8031	0.08520544
188	0x3d9f5b9b	0.07781144
189	0x3d432994	0.047647074
190	0x3dc6b110	0.09701741
191	0xbe00100a	-0.12506118
192	0xbdcb81e2	-0.099368826
193	0x3dc158e9	0.094407864
194	0x3db07bfd	0.08617399
195	0x3afa9e9f	0.0019120759
196	0x3d64bae9	0.055842314
197	0x3cb59bbc	0.022168986
198	0xbc6dab2a	-0.014506141
199	0xbd6c04d3	-0.05762179

weight_ih_l1 f4 [200, 50]
0	0x3d1af3de	0.037830226
1	0xbde999b6	-0.11406271
2	0x3e144ead	0.14483137
3	0xbde2bb82	-0.110709205
4	0xbde35b92	-0.1110145
5	0x3dc848a4	0.0977948
6	0xbda0f111	-0.0785848
7	0xbd7e4080	-0.06207323
8	0xbcdaed7c	-0.02672457
9	0xbe01e98e	-0.1268675
10	0xbb80d319	-0.003931415
11	0xbcf78c46	-0.030218255
12	0xbceca0ef	-0.028885333
13	0xba177b75	-0.00057785894
14	0xbdaae1fc	-0.08343884
15	0xbca3d37f	-0.01999831
16	0x3bb99c72	0.0056644017
17	0xbdff32ad	-0.124608375
18	0xbde19c0d	-0.110160924
19	0x3ddcc9c8	0.10780674
20	0xbe1cb183	-0.1530209
21	0xbc2ec4c4	-0.01066703
22	0xbd9270ef	-0.071504466
23	0x3e10ddcc	0.14147109
24	0x3dcd512d	0.10025249
25	0x3d9f8865	0.07789687
26	0xbd6d6091	-0.05795342
27	0xbe0f0b80	-0.1396923
28	0xbcefc1d8	-0.029267237
29	0x3db6de05	0.089290656
30	0x3d30603c	0.043060526
31	0xbdb095bb	-0.08622309
32	0xbe07282b	-0.13198917
33	0x3dd42ae4	0.10359743
34	0x3c9a8a4e	0.018864777
35	0x3dafa0e2	0.08575608
36	0xbe006c53	-0.12541322
37	0x3c2eb585	0.010663395
38	0x3de611e3	0.1123388
39	0xbe0c2e5b	-0.13689558
40	0xbe0098d3	-0.12558298
41	0xbdf8ce3b	-0.1214871
42	0xbdb075f2	-0.08616246
43	0xbc839e8e	-0.016066816
44	0x3d7ad951	0.061242405
45	0xbd46e4d7	-0.048558082
46	0x3dea4dd5	0.114406265
47	0x3de82d90	0.11336815
48	0x3db42707	0.087965064
49	0xbe0278d9	-0.12741412
50	0x3d80cb7d	0.06288812
51	0x3d8f663b	0.07001921
52	0x3dbf48bf	0.09340047
53	0xbe11f633	-0.14254074
54	0xbcb06742	-0.021533612
55	0xbd84cc36	-0.06484263
56	0xbd656360	-0.056002975
57	0x3cdc8c95	0.026922503
58	0xba98837b	-0.0011635864
59	0x3d8b22d6	0.06793754
60	0xbdd18920	-0.10231233
61	0xbd3e3135	-0.046433646
62	0x3d61bc12	0.055111
63	0xbd4be8ce	-0.049782567
64	0x3d00ec21	0.03147519
65	0xbdc21661	-0.09476925
66	0x3debc376	0.115118906
67	0xbc986e5b	-0.01860731
68	0x3d2cd948	0.042199403
69	0x3ae1bbab	0.0017222067
70	0x3cb6cb2b	0.022313675
71	0x3e03ceb2	0.12871817
72	0xbd8dcd39	-0.06923909
73	0x3e088a1c	0.13333935
74	0xbd67568d	-0.056479026
75	0xb90d4740	-0.0001347335
76	0xbdce6d34	-0.100794226
77	0x3d338a10	0.04383284
78	0xbdf8fc69	-0.121575184
79	0x3d00f0be	0.03147959
80	0xbdab65b2	-0.08369006
81	0x3e043a79	0.1291293
82	0x3e1037e7	0.14083825
83	0x3dcb165a	0.099163726
84	0xbe02f629	-0.12789215
85	0x3d914e12	0.07094969
86	0xbdc926ab	-0.098218285
87	0x3c98a4dd	0.0186333
88	0xbd9c8b9b	-0.07643815
89	0x3dcf8ffb	0.10134884
90	0xbcc676d8	-0.024226591
91	0x3d1216d9	0.03566632
92	0x3d4ff3f1	0.05076975
93	0x3dc08fc5	0.09402422
94	0x3dbd3faf	0.09240662
95	0xbc8320de	-0.016006883
96	0xbdd35c6f	-0.10320365
97	0x3d8f40ff	0.06994819
98	0xbd3410a5	-0.043961186
99	0xbcc9750d	-0.024591947
100	0x3c97f09d	0.01854735
101	0x3e0b86ca	0.13625637
102	0x3dd9064b	0.105969034
103	0xbc3b167f	-0.011418938
104	0xbd7f020f	-0.062257823
105	0x3e0411bc	0.1289739
106	0x3dc2b803	0.09507754
107	0xbdfe998f	-0.12431633
108	0x3b8d83cd	0.0043186904
109	0xbdeb334e	-0.11484395
110	0xbc0bf37f	-0.008541941
111	0xbe107da8	-0.14110434
112	0xbdf0ef41	-0.11764384
113	0xbdd44409	-0.10364539
114	0xbc360dce	-0.01111169
115	0x3d1bb165	0.038010973
116	0xbde90ccc	-0.11379394
117	0xbd7bcd9c	-0.06147538
118	0x3d11f6e5	0.035635848
119	0x3d385324	0.045001164
120	0x3bc78110	0.0060883835
121	0xbe014ce9	-0.12626995
122	0xbcb1af46	-0.021690022
123	0x3d6b3f31	0.05743331
124	0xbe128b09	-0.1431085
125	0xbdd34256	-0.10315387
126	0x3c93da3c	0.018048398
127	0x3b84f69b	0.004057718
128	0x3dd13a23	0.10216167
129	0x3d6c248e	0.05765205
130	0x3d92423e	0.07141541
131	0xbdbd4ff1	-0.09243763
132	0xbd4d6dc9	-0.050153527
133	0xbc7c9413	-0.015416163
134	0xbc429b4a	-0.011877844
135	0xbc0af9f2	-0.008482443
136	0x3d939e1e	0.07207893
137	0xbda91397	-0.082556896
138	0xbd8524ea	-0.065011814
139	0xbd59caa1	-0.053171758
140	0x3c3cba74	0.011519063
141	0x3d1dff40	0.038573503
142	0xbcc84cf5	-0.024450758
143	0x3da50ada	0.080587104
144	0xbddebd89	-0.10875995
145	0x3dae9a60	0.085255384
146	0x3d1554b2	0.036457725
147	0x3dd64d40	0.10463953
148	0xbe06b84b	-0.1315624
149	0x3e023d41	0.12718679
150	0x3da9b2a0	0.08286023
151	0x3dd84cf3	0.10561552
152	0x3d81f972	0.06346406
153	0xbd670e0a	-0.056409873
154	0xbc6a2a10	-0.014292255
155	0x3c5431cf	0.012951328
156	0x3ce1b0b7	0.027550085
157	0xbe04c396	-0.12965235
158	0xbc3411d0	-0.010990575
159	0xbe08b36c	-0.13349694
160	0xbdb28f20	-0.08718705
161	0xbd98c5cc	-0.07459602
162	0xbced071b	-0.028934052
163	0x3cb6907d	0.022285694
164	0x3dfad0d5	0.12246863
165	0xbd444b94	-0.04792364
166	0x3b742309	0.0037252328
167	0x3d7b24c5	0.061314363
168	0x3d4d882e	0.0501787
169	0x3e1ad8b5	0.1512173
170	0x3d06ed38	0.032941073
171	0x3c50c33a	0.012741858
172	0xbdf0b06b	-0.11752399
173	0x3d8b4630	0.068004966
174	0x3d08157e	0.03322362
175	0x3d267894	0.040642336
176	0xbc44f02e	-0.012020154
177	0xbc80acef	-0.015707461
178	0x3b119e32	0.0022219536
179	0x3c12d2d4	0.008961398
180	0xbd1fe530	-0.03903693
181	0xbe05851c	-0.13039058
182	0x3d80e6c5	0.06294016
183	0xbd94e552	-0.07270302
184	0x3d4629f1	0.048379842
185	0x3d8eec92	0.06978716
186	0x3d9ad3b4	0.075599104
187	0xbb1b193c	-0.0023666164
188	0xbc9955ea	-0.018717725
189	0x3d91cdd0	0.07119334
190	0xbdad2582	-0.0845442
191	0xbdd0a75e	-0.10188173
192	0x3dc037e9	0.09385664
193	0x3e1532d3	0.14570169
194	0x3dc523ea	0.09625991
195	0x3d97ae52	0.07406296
196	0xbd46270a	-0.048377074
197	0x3dc4bf95	0.09606854
198	0xbd6ecb79	-0.058299515
199	0x3d59838f	0.05310398
200	0x3def1f61	0.11675907
201	0xbce5cd7a	-0.02805208
202	0xbddd577c	-0.10807702
203	0xbdbbf1aa	-0.09176953
204	0xbd4286eb	-0.04749195
205	0x3b6c30d1	0.003603984
206	0x3dede970	0.1161679
207	0x3d062708	0.032752067
208	0xbd9188d4	-0.07106176
209	0xbbff23a8	-0.007786233
210	0xbd3ae19c	-0.045625314
211	0x3d175ec4	0.03695561
212	0x3d87ec52	0.066368714
213	0xbdabb75c	-0.083845824
214	0x3d3cf883	0.046135437
215	0x3d99211e	0.0747702
216	0x3b2c4a4e	0.0026289406
217	0xbdad9d53	-0.08477273
218	0x3dc48cdb	0.095971785
219	0xbe05cfac	-0.13067502
220	0x3d7b3491	0.061329428
221	0x3d1564d2	0.036473103
222	0xbd13f1b1	-0.036119167
223	0xbd826b77	-0.063681535
224	0x3d1227d1	0.035682503
225	0xbd9d00c4	-0.07666162
226	0x3ba04632	0.0048911804
227	0x3da9ffd4	0.083007485
228	0xbccb431b	-0.024812272
229	0xbdb571d1	-0.088595994
230	0x3de029be	0.10945462
231	0x3d9473f7	0.07248681
232	0x3df3ba4d	0.119007684
233	0xbd510bc8	-0.051036626
234	0xbe143199	-0.14472045
235	0xbd7108b7	-0.0588462
236	0x3da9ea2d	0.082966186
237	0x3d16b61b	0.036794763
238	0x3dc80e76	0.09768383
239	0x3d15a327	0.036532547
240	0xbdf82c21	-0.12117792
241	0xbe12e494	-0.14345008
242	0xbc783e7d	-0.015151617
243	0xbdc0c842	-0.09413196
244	0xbdc7870b	-0.09742554
245	0x3cd3ede0	0.025870264
246	0xbc9623e4	-0.01832766
247	0x3dc55dbd	0.0963702
248	0xbd925606	-0.07145314
249	0x3d65a01c	0.056060895
250	0xbd90cfdc	-0.07070896
251	0xbd882b82	-0.066489235
252	0x3df952b0	0.121739745
253	0x3c75ae88	0.014995225
254	0x3e0e5d60	0.13902807
255	0xbde07f37	-0.10961764

weight_hh_l1 f4 [200, 50]
0	0x3d3889c4	0.04505326
1	0xbe0d88dc	-0.13821739
2	0x3d8faf49	0.07015855
3	0x3d9f5070	0.07779014
4	0xbdb52d2d	-0.08846507
5	0x3da4f3e5	0.08054332
6	0x3e0807c7	0.13284217
7	0x3d35e112	0.044404097
8	0x3de78bb2	0.11305942
9	0x3dd715fb	0.10502239
10	0xbccb4b20	-0.024816096
11	0xbe0da0fc	-0.13830942
12	0xbd422e44	-0.047407404
13	0x3db51d70	0.088435054
14	0xbdc912e5	-0.09818057
15	0x3ddbd332	0.10733642
16	0x3d00954d	0.031392384
17	0xbd8034a0	-0.062600374
18	0x3ddb171a	0.10697766
19	0xbde51c2b	-0.11187013
20	0xbb94347a	-0.0045228573
21	0xbe0ade75	-0.13561423
22	0x3d9b349d	0.075783946
23	0x3cb5dd85	0.022200355
24	0x3dac5b68	0.08415872
25	0xbd7a344d	-0.061085034
26	0x3ddb3943	0.10704281
27	0xbe0c2ad7	-0.13688217
28	0x3ddc6409	0.10761268
29	0x3d7e23ff	0.062046047
30	0x3cd4a665	0.02595825
31	0xbdebf330	-0.11520994
32	0xbda2279d	-0.07917712
33	0xbd0b5479	-0.034016106
34	0x3d89b4e0	0.06723952
35	0x3dca8fe0	0.09890723
36	0x3e046847	0.12930404
37	0x3ce00b98	0.027349278
38	0xbce4e3e3	-0.027940696
39	0xbe0259c0	-0.1272955
40	0x3b8f218b	0.0043680123
41	0x3c33118e	0.010929478
42	0xbd5cf25c	-0.05394207
43	0x3d72d437	0.059284415
44	0xbdc10887	-0.094254546
45	0x3cafda8f	0.021466522
46	0xbb8de801	-0.0043306355
47	0xbdd7e7aa	-0.10542233
48	0xbe0233d9	-0.12715091
49	0xbdf60a41	-0.120136745
50	0x3e0596e3	0.1304584
51	0xbd081f09	-0.033232722
52	0x3d0ab54a	0.033864297
53	0xbd309c22	-0.04311765
54	0x3ca0afa9	0.019615011
55	0xbe016191	-0.12634875
56	0x3d5cba0d	0.05388837
57	0x3de372e1	0.11105896
58	0x3a84b15f	0.0010123661
59	0x3d2e334e	0.042529397
60	0xbde5c396	-0.11218946
61	0xbdc59794	-0.09648052
62	0xbdd8a7fd	-0.10578916
63	0x3e11daf1	0.14243676
64	0x3ac188cd	0.0014765501
65	0x3d0a8df2	0.033826776
66	0xbb504dcc	-0.0031784652
67	0x3d4ab48d	0.049488593
68	0x3dea772e	0.11448513
69	0xbdc145c5	-0.094371356
70	0xbdcd3612	-0.10020079
71	0xbd16b855	-0.036796886
72	0x3c17d80d	0.009267819
73	0xbcd445a5	-0.025912115
74	0x3d98bf8b	0.07458409
75	0x3db51806	0.08842473
76	0x3d127736	0.03575822
77	0xbe031ed8	-0.12804735
78	0xbdc45df3	-0.09588232
79	0x3dac1a8a	0.084034994
80	0xbd5dfe5e	-0.05419766
81	0xbdee80be	-0.116456494
82	0xbd023db9	-0.031797145
83	0x3e01b2db	0.12665884
84	0x3d285c83	0.04110385
85	0xbd598196	-0.0531021
86	0x3de3df08	0.11126524
87	0xbd0d2694	-0.03446062
88	0x3e033bd7	0.12815796
89	0x3e0b5e8c	0.13610286
90	0xbdbecfb2	-0.093169585
91	0xbd171aa1	-0.03689063
92	0x3de0cb4e	0.10976277
93	0xbdf818c4	-0.12114099
94	0x3dc50ea5	0.09621934
95	0x3dd83b2d	0.10558162
96	0x3e01fa60	0.12693167
97	0xbd40d25e	-0.04707562
98	0x3df96125	0.12176732
99	0x3cdb2f62	0.026755992
100	0x3dd977e4	0.106185704
101	0x3d97d18a	0.07413013
102	0xbc042ce4	-0.008067343
103	0xbe122f74	-0.14275914
104	0xbdc3e703	-0.09565546
105	0x3dd44e4d	0.10366497
106	0x3d42c48f	0.047550734
107	0xbd182a53	-0.03714974
108	0x3e1251c8	0.1428901
109	0xbda9c158	-0.082888305
110	0x3dca0079	0.098633714
111	0x3dfa6e92	0.12228121
112	0xbd441d43	-0.04787947
113	0x3d3c66d7	0.045996513
114	0x3dd358df	0.10319685
115	0xbd2f92ea	-0.042864718
116	0x3d5698d0	0.052391827
117	0x3d647334	0.05577393
118	0xbcdf16d1	-0.02723256
119	0xbd9aca8d	-0.07558165
120	0x3d7229c5	0.059121866
121	0xbdfc2ad8	-0.12312859
122	0xbe04d97f	-0.12973593
123	0x3c357e82	0.011077525
124	0xbdafef05	-0.08590511
125	0x3d579851	0.052635495
126	0x3c1c8d79	0.009555214
127	0xbdb4bb60	-0.088248014
128	0xbda88644	-0.08228734
129	0x3e147976	0.14499459
130	0xbc0bafb2	-0.008525776
131	0xbd0706c1	-0.032965425
132	0xbd9014b5	-0.070351996
133	0x3d5d237a	0.05398891
134	0x3d37c182	0.044862278
135	0x3d2e7608	0.042593032
136	0xbd646a3a	-0.055765368
137	0x3d83342c	0.06406435
138	0x3dd68c16	0.10475938
139	0x3de88947	0.113543086
140	0xbdedccdf	-0.11611342
141	0x3d536836	0.051613055
142	0xbd33e8b9	-0.043923113
143	0xbd0ce031	-0.034393493
144	0xbdb5aba8	-0.088706315
145	0x3cde79ed	0.027157748
146	0xbe0b1348	-0.13581574
147	0xbda8179c	-0.08207628
148	0xbaa81334	-0.0012823106
149	0x3d236c14	0.039897993
150	0x3cdbb69a	0.02682047
151	0x3ddd823a	0.10815854
152	0xbe19223e	-0.14954469
153	0xbdbb4845	-0.09144644
154	0xbb976995	-0.0046207407
155	0xbe011fbb	-0.1260976
156	0xbdcd08fb	-0.100114785
157	0xbd09ef29	-0.033675347
158	0x3dc9450f	0.09827625
159	0x3dbf4a27	0.09340315
160	0xbcf12984	-0.029438742
161	0xbdc1e9f7	-0.094684534
162	0x3d508cf4	0.050915673
163	0x3d7cf04b	0.0617526
164	0x3e1efdbc	0.1552648
165	0x3db381da	0.087650016
166	0x391f8e82	0.0001521651
167	0xbd0f3844	-0.03496577
168	0x3dcc4985	0.0997496
169	0x3d83ee98	0.064419925
170	0x3d8f70f5	0.07003967
171	0x3e361edd	0.17785211
172	0x3d046118	0.03231916
173	0x3c91f7a2	0.017818276
174	0xbe261c72	-0.16221789
175	0xbd58c419	-0.05292139
176	0x3da0ead9	0.07857294
177	0x3df3dc13	0.1190721
178	0x3c36982c	0.011144679
179	0xbd82991e	-0.06376861
180	0xbdec8327	-0.11548453
181	0x3dec6c24	0.11544064
182	0xbd8ed08d	-0.06973372
183	0xbd65e060	-0.056122184
184	0xbd3b3200	-0.04570198
185	0x3dbc0c2a	0.091820076
186	0x3dbd61ce	0.092471704
187	0x3d33f641	0.043936018
188	0x3ded0f27	0.11575156
189	0x3de2e92a	0.11079629
190	0xbdd05eca	-0.101743296
191	0xbda3112f	-0.07962262
192	0xbd6fff6e	-0.058593206
193	0x3db5c887	0.08876138
194	0x3e055489	0.13020529
195	0xbb272604	-0.0025504837
196	0x3d9838ab	0.074326836
197	0xbe000442	-0.12501624
198	0xbc026ad8	-0.007960044
199	0xbc8908ad	-0.01672777
200	0xbca42e11	-0.020041497
201	0x3ddd0dec	0.10793671
202	0xbd4fdba0	-0.05074656
203	0x3dde053a	0.10840841
204	0xbdad86b4	-0.08472958
205	0xbca63e3a	-0.020293344
206	0x3c77043b	0.015076692
207	0x3e0acbd1	0.13554312
208	0xbc3bd0f0	-0.011463389
209	0xbba2071e	-0.004944696
210	0x3de3342d	0.11093936
211	0x3e08a8fa	0.1334571
212	0xbd9e457e	-0.07728098
213	0x3d4d026b	0.050051134
214	0x3ce442d5	0.0278639
215	0xbe0a3692	-0.1349738
216	0xbdee9d85	-0.11651138
217	0xbd1aa702	-0.037756927
218	0xbc6afa68	-0.014341928
219	0x3cf2193a	0.029553045
220	0xbd9de5a4	-0.07709816
221	0x3d194b5d	0.037425388
222	0x3e08d1d7	0.13361298
223	0x3d11c795	0.035590727
224	0x3daae9a0	0.08345342
225	0xbdbf6aac	-0.09346518
226	0x3e11cb81	0.14237787
227	0xbd4b882b	-0.049690407
228	0x3e06bf3d	0.13158889
229	0xbd29732c	-0.041369602
230	0x3cb20e2f	0.021735279
231	0x3cbfff35	0.023437122
232	0x3ca4c52b	0.020113548
233	0xbb81fbac	-0.003966769
234	0xbced9849	-0.02900328
235	0xbcc78406	-0.024354946
236	0x3dcbdc6c	0.099541515
237	0x3e079c67	0.13243257
238	0x3e24fecf	0.16112827
239	0xbd9b5857	-0.07585209
240	0x3e1df13c	0.15424055
241	0x3ded87b9	0.11598153
242	0x3da31eb8	0.079648435
243	0xbc97b7c8	-0.01852025
244	0xbdb754ea	-0.08951743
245	0xbd336fb3	-0.043807697
246	0xbe077490	-0.13228059
247	0x3db1a677	0.08674329
248	0x3dcfb888	0.101426184
249	0x3d334049	0.04376248
250	0xbe0fe054	-0.14050418
251	0x3d558c7d	0.052135933
252	0xbda15ac9	-0.07878644
253	0xbd862e24	-0.065517694
254	0xbe043b9a	-0.12913361
255	0x3dbee407	0.093208365

bias_ih_l1 f4 [200]
0	0xbdb3ff3b	-0.08788916
1	0xbd69df0f	-0.05709749
2	0x3c369d80	0.011145949
3	0x3cace589	0.021105545
4	0x3d688cff	0.05677509
5	0xbddde03c	-0.10833785
6	0x3d0f85a9	0.035039578
7	0xbd6ef667	-0.058340456
8	0xbe16aa81	-0.1471348
9	0xbcc9e439	-0.024644958
10	0xbd86c513	-0.06580558
11	0xbdf6c2de	-0.12048887
12	0xbe10821f	-0.14112137
13	0xbe07ba02	-0.1325455
14	0x3e0a8cc9	0.13530268
15	0xbddf4ee1	-0.10903717
16	0xbda2ed76	-0.07955448
17	0xbd1f8a97	-0.03895053
18	0xbe08df93	-0.13366537
19	0x3e0d66bd	0.13808723
20	0x3d3a3ad5	0.045466263
21	0xbda082e6	-0.07837467
22	0xbd14eec7	-0.03636053
23	0x3bdcd141	0.006738812
24	0xbdad164b	-0.08451518
25	0x3dd6065e	0.10450433
26	0x3dd5cdac	0.104396194
27	0x3cceb3ea	0.025232274
28	0xbe042cfe	-0.12907788
29	0xbe0e3bf3	-0.13890056
30	0xbcb7c66a	-0.022433478
31	0x3d9c9e2f	0.076473586
32	0xbde44ba1	-0.111472376
33	0xbbbba197	-0.00572605
34	0xbd562d4a	-0.052289285
35	0xbe4e767c	-0.20162386
36	0xbd60089a	-0.054695703
37	0xbcc37857	-0.023861093
38	0xbd8a2c87	-0.06746774
39	0x3cede856	0.02904145
40	0x3dcd3d19	0.10021419
41	0x3c4f8337	0.012665561
42	0xbc33a114	-0.010963697
43	0xbceb87ae	-0.02875122
44	0x3de22848	0.11042839
45	0x3da5b4cd	0.08091126
46	0x39b343ce	0.0003419206
47	0x3d6eea34	0.058328822
48	0x3cd1afd2	0.025596533
49	0x3d942dbb	0.07235285
50	0xbdede1e7	-0.11615353
51	0x3cf6331a	0.030053664
52	0x3b87cff1	0.0041446616
53	0x3ccf22ed	0.025285209
54	0xbcf45e1e	-0.029830035
55	0x3d3638ff	0.04448795
56	0xbd6e3e32	-0.058164783
57	0xbe06ae39	-0.13152398
58	0xbdd9bc13	-0.106315754
59	0xbe036b55	-0.12833913
60	0xbe35fbf4	-0.17771894
61	0x3d6c1d52	0.05764515
62	0x3d0378b0	0.03209752
63	0xbdb60405	-0.088874854
64	0xba00486e	-0.00048936054
65	0x3be8fd2d	0.007110259
66	0xbc597f48	-0.013274975
67	0xbb13aef1	-0.0022534693
68	0xbe05f2f0	-0.13080955
69	0x3d29658d	0.041356612
70	0xbe378647	-0.17922316
71	0xbdaddd80	-0.084895134
72	0x3ddf8a0e	0.10915004
73	0xbd321d29	-0.04348484
74	0xbd9a2029	-0.07525665
75	0x3d93983a	0.07206769
76	0x3c987427	0.018610073
77	0xbd94c274	-0.072636515
78	0x3d01dbd2	0.031703778
79	0xbe2f955a	-0.17146817
80	0x3c900e05	0.01758481
81	0xbdfef300	-0.12448692
82	0xbe17b4b6	-0.1481503
83	0xbe0a03e9	-0.13478054
84	0x3daa5b63	0.08318212
85	0xbd18fa81	-0.037348274
86	0xbd984823	-0.07435634
87	0xbe0c06ad	-0.13674422
88	0xbd11df5e	-0.03561341
89	0x3dba49b6	0.090960905
90	0x3dc87a95	0.09789006
91	0x3d9af64b	0.07566508
92	0x3d8d4c60	0.06899333
93	0xbd98d389	-0.07462222
94	0x3da2fb36	0.07958071
95	0xbc681fb8	-0.014167719
96	0x3dbec474	0.09314814
97	0x3d266968	0.040627867
98	0xbbe4b1ae	-0.006979189
99	0x3dd1bb6e	0.102408275
100	0x3dae35e2	0.08506371
101	0xbd927f86	-0.071532294
102	0x3d608c4b	0.054821294
103	0x3d8d9835	0.06913797
104	0x3d704892	0.05866296
105	0x3e114d79	0.1418971
106	0x3dcdae35	0.10042993
107	0xbddc40c0	-0.107545376
108	0x3d6f4415	0.058414537
109	0xbe094c95	-0.1340812
110	0xbcb27064	-0.021782108
111	0x3d1ff0a3	0.03904785
112	0x3c07257c	0.008248683
113	0xbdc74f2b	-0.09731897
114	0xbe28b370	-0.164747
115	0x3d3b6801	0.045753483
116	0x3d1469bd	0.036233652
117	0x3e1a4561	0.15065528
118	0xbdbbbabb	-0.091664754
119	0xbde2b0e2	-0.11068894
120	0xbddaaff0	-0.10678089
121	0xbcc3d8c8	-0.02390708
122	0x3d02adb0	0.031903923
123	0xbe0ee556	-0.13954672
124	0x3e0d1d77	0.13780771
125	0x3d3cc320	0.046084523
126	0x3de263b7	0.11054175
127	0x3d293be7	0.041316893
128	0x3e040032	0.128907
129	0xbd676439	-0.056492064
130	0xbb4a6299	-0.0030881523
131	0x3d40237c	0.04690884
132	0x3be05239	0.006845739
133	0x3d98b90b	0.07457169
134	0x3dc99c5d	0.09844277
135	0x3cf88234	0.030335523
136	0x3d0ade0d	0.03390317
137	0x3cf9c82a	0.030490953
138	0xbe0f4ba9	-0.13993706
139	0x3de0793a	0.10960622
140	0xbd9a01e1	-0.075198896
141	0x3cbf93a8	0.023385838
142	0xbd4da7ba	-0.050208785
143	0xbdec0bac	-0.11525664
144	0xbe11828a	-0.14209953
145	0x3da95f2a	0.08270104
146	0x3e15b6e7	0.14620553
147	0xbdd4766e	-0.10374151
148	0xbd85b3ee	-0.065284595
149	0xbcb75e5f	-0.022383867
150	0xbe0cb281	-0.13739969
151	0xbe155516	-0.14583239
152	0x3bf79882	0.007556022
153	0x3c8d2cb5	0.017233232
154	0x3d169ce1	0.036770705
155	0x3d9e00d4	0.07715002
156	0xbc5be677	-0.013421646
157	0xbd800ed9	-0.06252832
158	0x3cdb203c	0.026748769
159	0xbd93bfad	-0.07214294
160	0xbdd45939	-0.1036858
161	0xbda73b51	-0.081656106
162	0x3d3ba826	0.045814656
163	0xbd00b980	-0.031426907
164	0x3bb2a02a	0.005451222
165	0x3d9fb038	0.07797283
166	0x3d57c966	0.052682303
167	0x3d82fa94	0.0639545
168	0xb70cf23e	-8.401052e-06
169	0xbdaf4a80	-0.085591316
170	0x3d2991ec	0.041398928
171	0xbd9e1c42	-0.077202335
172	0x3da7e9b4	0.08198872
173	0x3bc84092	0.006111213
174	0x3ddb6e82	0.10714437
175	0xbdeaf548	-0.11472565
176	0x3c8e28a8	0.01735337
177	0x3c2b4907	0.010454423
178	0xbdd52175	-0.10406772
179	0xbdd4786c	-0.10374531
180	0x3d68b493	0.056812834
181	0x3da287d5	0.07936064
182	0x3c60d1b6	0.013721874
183	0xbe3c150b	-0.18367402
184	0x3df269c5	0.1183658
185	0xbd6e0d47	-0.05811813
186	0xbdb7dbcf	-0.08977472
187	0xbd6f6c72	-0.05845303
188	0xbe11317e	-0.14179036
189	0xbd6a58f0	-0.057213724
190	0x3e0522b9	0.13001527
191	0xbc49a40b	-0.012307177
192	0xbc33a213	-0.0109639345
193	0xbb948055	-0.0045319
194	0x3c12e76c	0.008966308
195	0x3d994c21	0.074852236
196	0x3d84100a	0.06448372
197	0xbdc6322e	-0.0967754
198	0x3c033fe2	0.008010836
199	0xbe009e05	-0.1256028

bias_hh_l1 f4 [200]
0	0xbde6086d	-0.11232076
1	0x3d8029f9	0.06258006
2	0xbe0773c2	-0.13227752
3	0x3d5f2860	0.054481864
4	0x3da0f5bb	0.07859369
5	0x3ced9989	0.029003875
6	0xbbcc5820	-0.0062360913
7	0x3d1c0080	0.038086414
8	0xbd4632d0	-0.048388302
9	0x3da63662	0.081158414
10	0x3d4c3c85	0.049862403
11	0x3d8bca7c	0.0682573
12	0xbe2a99aa	-0.1666018
13	0x3cd52cf6	0.026022416
14	0x3d7b82ea	0.061404146
15	0x3c29159f	0.010320096
16	0x3c25b938	0.01011496
17	0xbdfed304	-0.12442592
18	0xbd8f8f91	-0.07009805
19	0xbd03afe7	-0.032150175
20	0xbd9580e1	-0.07299972
21	0x3d89aca4	0.06722382
22	0x3d683687	0.056692626
23	0xbc88f4a8	-0.016718224
24	0xbd934556	-0.07190959
25	0x3c3120fb	0.010811086
26	0xbc06ed1b	-0.008235241
27	0xbe091448	-0.13386643
28	0xbdc0d6ad	-0.09415946
29	0xbc6c9054	-0.014438707
30	0xbd03195b	-0.032006603
31	0xbd9ae91d	-0.07563994
32	0x3cb007be	0.021488067
33	0xbe39998e	-0.18124983
34	0x3d509036	0.05091878
35	0xbe2572b5	-0.16157039
36	0xbdd665c4	-0.10468629
37	0xbaf9ee0a	-0.0019068134
38	0x3db4156e	0.0879315
39	0x3de040f9	0.109498926
40	0xbd3cc020	-0.046081662
41	0xbe09d571	-0.13460328
42	0xbdd563ff	-0.10419463
43	0xbd403aa4	-0.046930924
44	0xbdab1b01	-0.0835476
45	0xbdd9b7aa	-0.10630734
46	0x3df7be7a	0.120968774
47	0x3dac3b98	0.08409804
48	0xbe1e0a77	-0.1543368
49	0xbde30bd9	-0.11086244
50	0xbd2f2172	-0.042756505
51	0x3dbd7a11	0.09251798
52	0x3dc22191	0.094790585
53	0xbe156043	-0.14587502
54	0x3d9c0231	0.076176055
55	0x3da6f256	0.08151691
56	0x3dd02153	0.10162606
57	0xbd5fc78d	-0.054633666
58	0xbdfe5252	-0.12418045
59	0xbdcac300	-0.099004745
60	0x3c9e600d	0.01933291
61	0x3d3fca5b	0.04682384
62	0x3d8af6e8	0.06785375
63	0xbdee9379	-0.11649222
64	0x3d0f3b0e	0.03496843
65	0x3cf04b7d	0.02933287
66	0x3dd8f5b7	0.105937414
67	0xbe0d3c29	-0.1379248
68	0xbde90dfe	-0.11379622
69	0x3e14b67d	0.14522739
70	0xbdd9815e	-0.10620378
71	0x3bfc0aad	0.0076917023
72	0x3d5a9582	0.053365238
73	0x3e007356	0.12543997
74	0xbd1ae95b	-0.0378202
75	0xbe111064	-0.14166409
76	0x3d0d8fa1	0.034560803
77	0xbda44f9a	-0.08022995
78	0x3df98cb5	0.12185041
79	0x3d876f93	0.06613078
80	0xbe1387d0	-0.14407277
81	0xbd493017	-0.049118128
82	0xbddd528c	-0.1080676
83	0x3d28b2a5	0.041185994
84	0xbe0fbfae	-0.14037964
85	0xbdd836ed	-0.10557351
86	0x3dc14b2b	0.09438165
87	0xbcfc1762	-0.030772869
88	0xbddc20a1	-0.10748411
89	0x3ba2c774	0.0049676243
90	0x3d4d7304	0.050158516
91	0xbd5cbedc	-0.053892955
92	0xbe0aaffc	-0.13543695
93	0xbe1085f3	-0.14113598
94	0x3d97825c	0.07397911
95	0xbd58dbe4	-0.05294408
96	0xbdcc8d07	-0.09987836
97	0xbcb5d8e7	-0.022198154
98	0x3c3db04b	0.011577676
99	0x3de5a879	0.11213774
100	0x3e0e624e	0.13904688
101	0xbe1370be	-0.14398476
102	0x3cfdcf3b	0.030982604
103	0x3c438b07	0.011935002
104	0x3e071a1c	0.13193554
105	0x3c8b566b	0.01700898
106	0x3e0a46db	0.13503592
107	0xbe1690b1	-0.14703633
108	0xbd5fdb87	-0.054652717
109	0xbb4853ae	-0.0030567455
110	0xbe0e0d87	-0.13872348
111	0x3e227738	0.15865791
112	0x3d115f7b	0.035491448
113	0x3d32e0a0	0.04367125
114	0xbdfb11ee	-0.12259279
115	0x3db885e5	0.09009913
116	0xbdb2b746	-0.08726363
117	0xbc89c8bc	-0.01681935
118	0xbdb056c3	-0.086102985
119	0xbe047750	-0.12936139
120	0x3d8c7d0a	0.06859787
121	0xbd98ee5e	-0.0746734
122	0x3d8c1118	0.06839198
123	0xbe0f6ba9	-0.14005913
124	0xbdbb4a79	-0.09145064
125	0xbdd66886	-0.10469155
126	0xbe03ad5c	-0.128591
127	0xbc866b93	-0.016408717
128	0x3d83cbd2	0.0643536
129	0xbdf5f14c	-0.12008914
130	0xbda9a0c5	-0.082826175
131	0x3dfa8fd1	0.12234462
132	0x3e0a6251	0.13514067
133	0xbd5b69c2	-0.053567655
134	0xbdf7171e	-0.12064956
135	0x3d9cfc8e	0.076653585
136	0x3dba2b92	0.09090342
137	0x3a0d25d4	0.000538436
138	0xbdce8d24	-0.10085514
139	0xbdc69543	-0.09696438
140	0x3ae8a7c8	0.0017750198
141	0x3c857a9c	0.016293816
142	0xbcf51ae7	-0.029920055
143	0x3d834345	0.06409315
144	0x3e02b402	0.1276398
145	0x3de573f6	0.112037584
146	0xbda717cd	-0.081588365
147	0x3dcdf80b	0.10057076
148	0xbddb97f2	-0.10722341
149	0x3e0ab97b	0.13547318
150	0xbe030f77	-0.12798868
151	0xbca01513	-0.019541299
152	0x3d9929da	0.07478686
153	0xbd654841	-0.05597711
154	0xbc9a7af5	-0.018857459
155	0xbe048d26	-0.12944469
156	0xbd855d4b	-0.06511935
157	0xbdf11202	-0.11771013
158	0x3d7fa250	0.062410653
159	0x3d6c9582	0.05775977
160	0xbd3f5853	-0.046715092
161	0xbe37ae36	-0.1793755
162	0xbd206f9e	-0.039168946
163	0x3d93d9be	0.072192654
164	0xbd0aba96	-0.03386935
165	0xbe217197	-0.15765987
166	0x3b84adae	0.0040490245
167	0x3df1e388	0.11810976
168	0x3d73b494	0.059498385
169	0x3e089784	0.13339049
170	0xbdfb46fc	-0.122693986
171	0x3d9e59f4	0.07732001
172	0xbd3c73bb	-0.046008807
173	0xbc828c58	-0.015936062
174	0x3e158ee2	0.14605287
175	0x3a655b64	0.0008749275
176	0xbd6d29a8	-0.057901055
177	0x3d87a4fb	0.066232644
178	0xbdc1f0e3	-0.094697736
179	0xbd357c2d	-0.044307876
180	0xbe20eca7	-0.15715276
181	0xbd89dc3a	-0.06731458
182	0xbda299b8	-0.07939476
183	0xbdb60f55	-0.08889643
184	0x3ce1a975	0.027546624
185	0xbd3ab497	-0.04558238
186	0xbcb063d9	-0.021531986
187	0x3d621c67	0.055202868
188	0xbdd62668	-0.10456544
189	0x3d1847a6	0.037177704
190	0x3dc85aee	0.097829685
191	0xbd81e2fe	-0.063421234
192	0xbd898a7f	-0.06715869
193	0x3d304a92	0.043039866
194	0xbe2363ed	-0.15956087
195	0x3dbcce28	0.09219009
196	0x3dafd8f0	0.085862994
197	0xbe180193	-0.1484435
198	0xbdc7eec3	-0.09762337
199	0xbdf49064	-0.11941603

weight f4 [50]
0	0x3f7cd240	0.98758316
1	0x3f7c338b	0.9851615
2	0x3f7dd6dd	0.9915598
3	0x3f79c44b	0.97565144
4	0x3f778982	0.96694195
5	0x3f7952ba	0.97391856
6	0x3f7e217f	0.9926986
7	0x3f778434	0.966861
8	0x3f7a1a01	0.9769593
9	0x3f7747e7	0.9659409
10	0x3f77eb9a	0.96843874
11	0x3f789e07	0.9711613
12	0x3f79dde2	0.9760419
13	0x3f7b1186	0.98073614
14	0x3f7b6fbf	0.98217386
15	0x3f7c2dda	0.98507464
16	0x3f7b1b5a	0.9808861
17	0x3f7cdd2a	0.9877497
18	0x3f7bec78	0.984077
19	0x3f7a7034	0.9782746
20	0x3f773494	0.965646
21	0x3f7d22ad	0.98881036
22	0x3f78045d	0.9688166
23	0x3f7ab020	0.97924995
24	0x3f7657af	0.96227545
25	0x3f766b7d	0.96257764
26	0x3f7b07ff	0.98059076
27	0x3f7bdf5c	0.98387694
28	0x3f7c6d37	0.9860415
29	0x3f79240c	0.9732063
30	0x3f7a4723	0.97764796
31	0x3f79f912	0.97645676
32	0x3f77e6ae	0.96836364
33	0x3f7375bf	0.9510154
34	0x3f79f097	0.97632736
35	0x3f723abf	0.9462089
36	0x3f7a3223	0.9773275
37	0x3f79bb5a	0.975515
38	0x3f7a90a7	0.9787697
39	0x3f7c680d	0.9859627
40	0x3f767974	0.9627907
41	0x3f7dbfcf	0.991208
42	0x3f7bc4e3	0.983473
43	0x3f7a1e79	0.9770275
44	0x3f7c8f38	0.98656034
45	0x3f78ac3f	0.97137827
46	0x3f7cfefe	0.9882659
47	0x3f76bcb6	0.963817
48	0x3f7b7c84	0.9823687
49	0x3f7b8b58	0.98259497
